saved_models/model32.pth (torch, 47599 bytes, 11 tensors)

linear_relu_stack.0.weight f4 [4]
00000000: 9fb9 4e3f 1c2b 553f aad7 2a3f cb6a 5c3f
0.80751985 0.83268905 0.6673533 0.86100453

linear_relu_stack.0.bias f4 [4]
00000000: 27d4 653d eba6 d5bd 2231 913d ec16 3c3e
0.056110527 -0.10432228 0.070894495 0.18368119

linear_relu_stack.0.running_mean f4 [4]
00000000: fe4d c240 fdd5 1941 58bc 2443 6091 5840
6.0720205 9.614743 164.73572 3.383873

linear_relu_stack.0.running_var f4 [4]
00000000: ce80 7742 8ed8 bd40 00fb ac46 cc7e a940
61.875786 5.932685 22141.5 5.296728

linear_relu_stack.1.weight f4 [32, 4]
00000000: 36af 02bf 53d3 adbd c129 2f3e 2de6 9dbe
00000010: bb10 b7be 861d a73e 6a60 4c3e dc00 11be
00000020: 0b14 62be 4350 f43d 0c2f dabe 1dc6 823e
00000030: 29f7 433e 964b 0f3f 8708 ce3e 2ed5 91bc
00000040: 5b59 9fbe 3021 993e 352b 913e bae4 a2be
00000050: e40c 69be 3088 2d3f 9cb7 293d 5162 e13d
00000060: 073c 71be e9a4 8ebe 3d59 973e a5d3 93be
00000070: a37d e5bd f55b 163c 78de adbe 4e39 983d
00000080: cdae 0abf 5e3c d93e d74e c33d 6810 03bf
00000090: f9e6 b83e 84bc 5cbd e779 7fbe 56b9 953d
000000a0: 9ae7 443e 5a39 423e b98f 01bd c734 b3be
000000b0: 10b5 003e 8431 edbd ac1e bbbe a150 e23d
000000c0: 4bc2 0cbf fcda 84be 7ac3 583c 46e3 bdbe
000000d0: 5144 1fbe 4524 dd3e c58d 86be f8b4 30be
000000e0: 868b 883e ad49 133f 6916 203e 5cbb 493d
000000f0: 9efe 313e 44e2 053d 3ac3 b03e efd3 02bf
00000100: fea8 18be aa59 8a3e c252 493d 1d6e 3dbe
00000110: aea1 c63e b442 30be 8c0e 8b3d 286f 843d
00000120: 8d23 3fbe 79e1 a33e d48d 6c3e 7885 f4bd
00000130: 501e 0f3e ba79 bdbc 042f 99bd be27 8a3d
00000140: ed63 523e 1cbe 06be cfc5 a33e a011 82be
00000150: 00d3 703b d0d4 9c3d 00bc 1d3a e0df e63c
00000160: 4281 4b3e b4a1 fdbd 7455 a0be 3de8 e93c
00000170: 806a e6be 68bb 863d c86e 3e3e 5750 85be
00000180: ec02 ac3e 9ac3 04bd b824 573b 4a8b d63d
00000190: 4a28 813d cf18 883e dd36 94bd 317a 8dbd
000001a0: 2e9c bb3d 02f6 173f 0ea2 d13e d413 d1be
000001b0: f261 13bf ecab 28be 9ae6 e33d 9b0c 09bf
000001c0: 5df2 8dbe 7887 293e 1afb c83d 0db1 c23e
000001d0: 50c3 0ebf 2a07 c13e fae1 c63d bf28 cabe
000001e0: 54dd 203e 755a 00be c638 8fbe 5fd8 a73d
000001f0: a542 e1be 7735 f4bd 61a2 d4be 4e36 5ebd
-0.510486 -0.084875725 0.17105772 -0.30839673 -0.35754952 0.32639712 0.19958654 -0.14160484
-0.22077958 0.11929371 -0.4261402 0.25541773 0.19137253 0.5597471 0.4024088 -0.017801847
-0.3112286 0.29908133 0.28353277 -0.3181513 -0.22758824 0.6778593 0.04143487 0.110050805
-0.23558055 -0.2786019 0.2956027 -0.2887241 -0.11205604 0.009177198 -0.33958793 0.07432805
-0.54172975 0.4242887 0.09536522 -0.5119691 0.36113718 -0.05389072 -0.24948846 0.07310741
0.19228974 0.1896719 -0.031631205 -0.35001203 0.1256907 -0.1158171 -0.36546838 0.11050535
-0.5498397 -0.25948322 0.013230199 -0.37087458 -0.15553404 0.43191734 -0.26280037 -0.17256534
0.26668948 0.57534295 0.15633549 0.049250945 0.17382285 0.032686487 0.34523946 -0.51104635
-0.14908215 0.27021533 0.04915119 -0.18499036 0.38795227 -0.17212945 0.06789884 0.06466514
-0.18665905 0.3200796 0.23100978 -0.1193952 0.13976407 -0.023129333 -0.07479671 0.067458615
0.20545931 -0.13158458 0.31986853 -0.25404072 0.003674686 0.07657778 0.0006017089 0.028182924
0.19873527 -0.12384358 -0.31315196 0.028553123 -0.45003128 0.06578714 0.18596947 -0.26037857
0.3359598 -0.032413103 0.0032828283 0.10475786 0.06306513 0.26581427 -0.07237027 -0.06908072
0.09160648 0.59359753 0.4094395 -0.4083544 -0.5757133 -0.16471833 0.11127968 -0.5353486
-0.2772397 0.16555583 0.09813519 0.38025704 -0.55766773 0.37700778 0.0971107 -0.39484212
0.1570943 -0.12534507 -0.27973002 0.081955664 -0.43996158 -0.1192426 -0.41530135 -0.054251008

linear_relu_stack.1.bias f4 [32]
00000000: 917b 0c3d b6f5 b03d 0218 edbe 6297 76bc
00000010: de8e 923d 1054 74be 30a7 d4be e3c2 013e
00000020: a97b 563e 6233 053e e918 11bf 91a1 95bd
00000030: a28c bdbe 74ab 98be c19e 95bc c9b5 26be
00000040: 1dfc a3bd fcd7 3cbb a97c d63d 73ae 803d
00000050: 7e8b 4dbe 7236 e5be 91e8 4c3e d2fe b13d
00000060: bf1a 9f3d 8aa9 05bf a05a 013c 323e 96be
00000070: b228 02bf 7cf3 463e 2eae 443e 5eaa 14bd
0.03429753 0.08640616 -0.4630738 -0.015050741 0.07156156 -0.23860192 -0.41533804 0.12672
0.2094561 0.13007882 -0.56678635 -0.07306207 -0.37021357 -0.29818308 -0.018264176 -0.16280283
-0.08007071 -0.002881526 0.10472996 0.062832735 -0.20072743 -0.447681 0.20010592 0.08691181
0.07768773 -0.5221182 0.007895142 -0.29344326 -0.50843346 0.1942882 0.1920707 -0.036295287

linear_relu_stack.4.weight f4 [64, 32]
00000000: 87bc 8e3d e928 8d3e 93dd d9bc f3a5 503d
00000010: 73ff 6bbc 307c 20bd 70a7 3fbd 6511 78bd
00000020: aa11 663e f1b9 88bd 423b 92bd e257 99be
00000030: e214 583e 8077 d2bd 5d1a 7abc 047b b63d
00000040: b29e 923e ef76 22be 8966 6cbe 6e70 59be
00000050: ad97 59bd 3814 e63c ea80 76be 1619 853e
00000060: 5c23 b5be 3328 6dbc b11d 443e 278b 09be
00000070: 8e0b 813d ec6e 823d b07a 16be 385e 903d
00000080: 6757 6fbe c802 2a3e 4dbc 053d 3e6d ff3d
00000090: 10d5 abbe 1581 2ebd 602c d8bd d40c 77be
000000a0: f1ff a13c 9a60 cbbd 2101 a5bc 6d14 b5bd
000000b0: 8a65 513d 141b 5bbd a9e3 2f3c b4c6 043f
000000c0: b98c 2b3e abcf 68be 1c9a 283c c585 83be
000000d0: b0d0 bcbe a4e8 863d eb64 18be 5a11 c2bd
000000e0: 9fd7 50bc fced 2b3e b17b 70bd aa2d 603e
000000f0: a961 c6bd 6b1c 273d 8d90 1fbe 8e1d 363d
00000100: 1413 ebbd 73c5 53be b368 00be 0910 763d
00000110: 6162 20bd f29e 93bd d75f c2bd fcc7 59be
00000120: d5e4 90bc d558 733d 15dd 78bd 6850 56bd
00000130: fcc3 d4bc 88a8 da3c 2272 6c3d 2de7 75be
00000140: 0fd8 e6bc 2385 c73b 6aeb b8bd 8de2 693d
00000150: 278c 4bbe 318c 343e cda3 9d3d 4aff d2bd
00000160: e419 2f3d 4b76 15be 7f8d f7bd 955a 18be
00000170: acdf 1abd 72af 70bc 5fe8 61bd 60b5 7fbe
00000180: d7fe 13be 75f3 3bbe 8a7d c2bd 3a7b 04be
00000190: d3f3 7e3b 4ba5 0c3e d15e af3d 8a22 a53c
000001a0: 8463 f2bd ccd5 d73d faee 3bbe 6e50 aa3d
000001b0: 94f1 66be fd6c 66be f9ba a2bd e272 e43d
000001c0: eae6 62be 14b4 dc3d 67cb 8dbc c059 a1be
000001d0: 9ce3 0ebe e40f 95bd 2047 7abb cd26 d8bd
000001e0: 5222 1fbc 498d 27be 61cf 27be 3339 7cbd
000001f0: 6945 b3bd fdd3 813d 6ff6 9dbc 8550 fe3c
00000200: 5d38 ef3c e689 eabd 073c 0ebe 2b69 45bd
00000210: 48e4 8f3e 6623 4d3e 3b96 203e 673b 1a3e
00000220: 675a fc3d 247b cebd f24a 6fbe e878 7fbe
00000230: 0149 743d f8cb 023e 6714 503c 5fc2 913c
00000240: 5c69 3a3d d2bf 76bd 3ab3 813e bd8a e4bd
00000250: 598e 0fbe 0980 183e 090d 23bc e3a3 b9bc
00000260: 5be1 f4bd 80df 9cbd de61 f53d 2fdf 743e
00000270: c926 f2bd 3522 d2bd a82c 13be d41f 81be
00000280: 4af2 063d c52c 6abe 68cc 9c3b b964 3ebe
00000290: 6844 c1bd 0d54 2b3c 36bf 3dbc e96a 16be
000002a0: cdd7 ad3b cec7 18bd d1d0 dbbc af51 7a3d
000002b0: 35c9 47be 463a 9ebe 0e1f 18bd 389e 68be
000002c0: 7e8b 0c3d 9c5a 6e3d 6aa5 37bc ad7a 22be
000002d0: b10f cf3d 5460 0bbe 4480 783c 647d 86be
000002e0: a169 01be 0fb4 82bc 785e b23d c07d a43d
000002f0: 3462 a2bd 5958 01be acfd 9cbd 6728 ba3d
00000300: c21c 5cbd c5f1 17bd 795c 0fbe 2738 b4bd
00000310: 1501 2bbd 822d 3d3e 104e 58bd c8c1 debc
00000320: 0e7a a8be 927a f6bd 7024 87bd 5677 973c
00000330: bceb 373e c82f 593e a90a d43d d54e 1e3e
00000340: 7e54 333e 8b7d 9fbe 38f1 52be cfbf 6cbe
00000350: 7db5 153e e44a 2bbd 65b9 033d 11eb 3f3e
00000360: 18ba c4be 2f19 44be 4dbb b93d 81cd 6f3e
00000370: 39b1 62bd 1e06 5f3e 10de 2ab9 08e5 293e
00000380: 9f50 00bc 5d49 40be cfef 64bd 8df8 b4bd
00000390: f6ec 8bbe 6471 aabd 125c 6c39 cf18 bf3d
000003a0: 3aa5 5a3d f6f2 adbd 41b0 40bd d6d8 8ebe
000003b0: b863 69be a70d aa3d 4bd2 79be 808a 2bbb
000003c0: aad9 30bd 2da7 19bd 8df7 47be d4fa 58be
000003d0: 4a16 d6bd 8e90 2cbe 83d9 2fbd 50d1 81be
000003e0: 8eb5 c7bd 7422 05be a650 23bd 8c81 d9bd
000003f0: ad10 95be ba50 69be 15ab 19be 2ac9 debd
0.069695525 0.27570274 -0.026594913 0.05093951 -0.014404166 -0.039180934 -0.04679054 -0.060563464
0.22467676 -0.066760905 -0.07140209 -0.29949862 0.21101716 -0.10276699 -0.015265075 0.08910182
0.286367 -0.15865682 -0.23085989 -0.21234295 -0.053123165 0.028085813 -0.24072614 0.25995702
-0.3537854 -0.014474916 0.19151951 -0.13431989 0.06301032 0.06368813 -0.14695239 0.07049221
-0.23373185 0.16602623 0.03265028 0.12472008 -0.3356099 -0.04260357 -0.10555339 -0.24125987
0.019775363 -0.09930535 -0.02014214 -0.088417865 0.051122226 -0.05349262 0.010735431 0.51865697
0.167529 -0.22735469 0.010290649 -0.25687996 -0.36877966 0.065873414 -0.14882247 -0.09475966
-0.012746721 0.16790003 -0.05871171 0.2189242 -0.09686596 0.040798586 -0.15582485 0.04446178
-0.11478248 -0.2068079 -0.1253994 0.060073886 -0.03915632 -0.07208051 -0.09490936 -0.21267694
-0.01768724 0.05941089 -0.060757715 -0.052322775 -0.025972359 0.02669169 0.057726033 -0.24013968
-0.028179197 0.006088869 -0.09029277 0.05710082 -0.19877683 0.17631604 0.07697258 -0.10302599
0.0427493 -0.14595906 -0.12087535 -0.14878304 -0.037810966 -0.014690267 -0.055153247 -0.24971533
-0.14452682 -0.1835459 -0.09496601 -0.12937632 0.0038902655 0.1373493 0.08563007 0.020158071
-0.11835387 0.105388254 -0.18352881 0.08316122 -0.22553092 -0.22502513 -0.079458185 0.11154725
-0.22158399 0.10776535 -0.017308904 -0.31513786 -0.13954014 -0.072784215 -0.0038189366 -0.10554276
-0.009712772 -0.1636249 -0.16387703 -0.061577987 -0.08753473 0.06339262 -0.019282548 0.031044254
0.02920168 -0.11452083 -0.13890086 -0.048196 0.28103852 0.20033035 0.15682308 0.15061723
0.123219304 -0.10082081 -0.23368433 -0.24948466 0.059639934 0.1277312 0.012700177 0.017792879
0.045510635 -0.060241528 0.25332052 -0.11159275 -0.14019145 0.14892592 -0.009951838 -0.022661155
-0.11957046 -0.07659817 0.11981557 0.23913263 -0.11823804 -0.10260431 -0.14372504 -0.25219595
0.03294591 -0.2286864 0.0047851093 -0.1859311 -0.094368756 0.010457051 -0.011581233 -0.1468922
0.0053052665 -0.037299924 -0.02683297 0.061113056 -0.19510348 -0.30903834 -0.03713899 -0.22716606
0.034312718 0.05819188 -0.011208871 -0.1586711 0.10110415 -0.13610965 0.0151673 -0.2626754
-0.1263795 -0.015955 0.08709425 0.080317974 -0.07928887 -0.12631358 -0.076655716 0.090897374
-0.053738363 -0.037095804 -0.1400012 -0.08799773 -0.04174908 0.18474391 -0.05280882 -0.027192011
-0.3290562 -0.12035097 -0.06598747 0.018489521 0.1796102 0.21209633 0.10353596 0.1545976
0.175127 -0.3115047 -0.2059983 -0.23120044 0.14620014 -0.04181947 0.032159228 0.18742014
-0.38423228 -0.19150232 0.09068928 0.23418237 -0.055344794 0.21779677 -0.00016295188 0.16591275
-0.007831722 -0.18777986 -0.05589276 -0.0883647 -0.27329224 -0.08322409 0.00022541013 0.09330904
0.05338023 -0.08493607 -0.04704309 -0.27899808 -0.22791946 0.08303385 -0.24396627 -0.0026175082
-0.04317633 -0.037512947 -0.19528027 -0.21189433 -0.1045347 -0.16852018 -0.042932045 -0.25355005
-0.09751426 -0.13001424 -0.039871834 -0.10620412 -0.29114285 -0.22784701 -0.15006669 -0.10878213

linear_relu_stack.4.bias f4 [64]
00000000: 9737 223e a149 ac3d 9c8d 6ebe f66a b93d
00000010: 3682 73bd 14d9 01be 6008 4d3d c787 133d
00000020: 4526 b9bd ceb3 84be d122 dcbd 732d f13d
00000030: 6795 2ebe 5d46 32be f793 383c 6391 6ebe
00000040: d9eb 68be 1f09 13bb a778 39be 9602 393e
00000050: 0647 65bb 0e96 fbbd 7968 cd3d 3553 233e
00000060: 8c2f ddbd 8c64 cbbb c296 353e b5eb 18bd
00000070: 612f 35be 24bf 8abe d602 20be ef7a d63d
00000080: 3d17 fd3d f395 13be ccfc 543c 102a c0bd
00000090: 386a 0f3d 28fe d5bd 7424 783b 25a5 9c3d
000000a0: 3966 37be 5bce adbb 852d 5f3d c2e3 cabc
000000b0: adca 28be 2f44 7c3d 1955 85bd 561b a03d
000000c0: d4da 37be 9e60 0dbe c5e4 2fbd 7796 7e3e
000000d0: c0c2 813e 8813 4a3c e2e2 59bd 1f0b c53d
000000e0: 1e8d 1a3e 8693 8a3d dffe c2bd 31ef de3d
000000f0: 7f9c 5f3d c236 453d e08f 16bc 5711 8abe
0.15841518 0.08412481 -0.23296207 0.09053604 -0.05945035 -0.12680465 0.050056815 0.03601816
-0.090405025 -0.2591843 -0.10748828 0.11776247 -0.1704918 -0.17409654 0.011265746 -0.23297648
-0.22746219 -0.0022435857 -0.18112431 0.18067393 -0.003498496 -0.1228448 0.10029692 0.1594971
-0.108000845 -0.0062070545 0.17733291 -0.037334163 -0.17693855 -0.27098954 -0.15626082 0.104726665
0.12357948 -0.1441267 0.012999725 -0.09383023 0.035013407 -0.10448867 0.0037863525 0.07648686
-0.17910089 -0.0053041405 0.05448677 -0.024766807 -0.16483565 0.061588462 -0.06510372 0.07817714
-0.1795457 -0.13806388 -0.04294278 0.24862085 0.25343895 0.012333758 -0.053194888 0.09621262
0.15092894 0.06766419 -0.09521269 0.10885466 0.054592606 0.048147924 -0.009189576 -0.26966354

linear_relu_stack.7.weight f4 [128, 64]
00000000: f567 213e a88f 4d3d 4d1f 9fbc 7a65 1bbe
00000010: 24b4 ebbd b06c d93d eb4f ef3d d9eb 05bc
00000020: 0e6e b13d bff7 b83d d47b 763c 669b 9f3d
00000030: 1b3c 17be d203 b2bd f68a e03d 0a28 3abe
00000040: fe5d 2a3e f1bd f3bd d195 82bd 5bd1 cbbd
00000050: 7e92 e6bd 3b8c 93be 9fe1 babd 6a72 273d
00000060: 0e8b b5bd 0815 29be a880 91bd e4ff b93d
00000070: 5cfb a23d 5740 453d 0a40 adbd 4ad3 2cbe
00000080: 5f5c 98bd b25c 25be 6743 aebd fb23 8cbe
00000090: 22f4 c03c 6dc7 16be 4ace 63be e3de fdbd
000000a0: d773 d3bd 136c a93d 75b7 dcbd 6f03 c23c
000000b0: 182b b83d 1cd4 a0be b357 8f3d a644 6abc
000000c0: 4f8b e03d aa71 abba 9dbb 8ebd 2e67 5ebc
000000d0: 5aff 1bbe 3c85 aabc 7461 edbd d254 32be
000000e0: bb3c 69be d57b cdbd 2bdc e83d 1b1d c4bd
000000f0: 72ac 27be d836 943c 1aca 50bc 93b1 20bd
00000100: 352b 29be 83e2 82bd 7482 d2bd 4d21 81bd
00000110: b1d1 26be aee4 673c 2506 9c3c c2c7 e2ba
00000120: e1a9 3abe 40b1 27be 8f09 18be ac51 18bd
00000130: 1c83 613d bf03 c43d c0c2 d2bd a525 20be
00000140: 54ea 8a3d 9fb8 e3bd c5dc adbd c2b6 62bc
00000150: abc0 67be f59e bbbd d46e 0cbe 4708 10be
00000160: 967f 113e 4266 e23c 1486 dcbd e7f7 cdbc
00000170: 8b6b 08be 90d7 a8bc 8c6b c63b 112e e4bc
00000180: 02ff 1fbd 23f1 b0bd 4e1b f33c 8ca2 dabd
00000190: e112 14be 313b 153d 9692 d93c af53 78be
000001a0: d3b4 54bd f790 423c 3a05 ddbc 662c f1bd
000001b0: 01e9 aabd a9ac 8e3d 25c8 96bd 576d 06be
000001c0: 69c3 c8bd b82e 01be b309 06bd ff92 aebd
000001d0: 2d4f cd3c 740c e1bd 551a 093d ad8c 3fbb
000001e0: 0673 31bd f415 52bd d44d 33be c995 5bbe
000001f0: e68c 0d3d 0a90 cb3d d5c0 46be 3cb9 43be
00000200: b625 8ebd f42c 44be 0310 943d 1605 d5bc
00000210: 3fe0 a0bd 3069 09bd 1d03 01be 69f3 06bd
00000220: c85d 97bd 9374 c3bc 51f4 92bd 1995 edbd
00000230: 5be0 96bd aeac f13d 7487 39be aa97 683d
00000240: b81a fd3d 3384 b5bd 9d12 a9bd 7255 28bd
00000250: 6ac3 fabd 7088 c0bd 92c2 22bc ec75 e93c
00000260: 0af1 943e 7a24 1cbc 9ec4 0e3d 6439 a83d
00000270: 2236 053e 89c9 be3c 4f77 cabd 7cfe 2b3d
00000280: 2c65 003e 0edc 7cbc 1095 16bc ac81 c4bd
00000290: 0ac9 f73c e890 8e3d be23 8c3b 6b44 d4bd
000002a0: f3d5 653d 5e40 d73d 1eb5 01be 6211 e53c
000002b0: 08a7 a83d b3a0 91be a43d 36be abeb 00be
000002c0: c100 e6bd 0a85 1cbc 7ff3 68bd c2fa f43d
000002d0: d4a6 753d 24ef 50bd faf1 f93c 0336 9a3d
000002e0: 140d 17ba fc3a b6bd 9248 c4bb 4cad bb3d
000002f0: bc8f 1c3b 7180 583d 5a97 19be eaa0 35bd
00000300: ff98 32be 69bc d3bd cd3e 48be 7365 93bc
00000310: d7a4 0dbe c819 e9bc 2194 c0bd 8c05 9fbd
00000320: 7fa0 6dbc efc1 50be 1148 ec3d 248c 113e
00000330: 985d 1a3e 632e debd edc7 33be 1687 b43c
00000340: 5918 00bd fe5d f3bd 922f bcbc 1114 acba
00000350: 77d1 2dbe 6238 bebd 7751 44bd 159b 0ebd
00000360: c959 6d3e 95c6 9cbe 8203 d0bc 4e3b 7abd
00000370: dee2 bbbd ef20 70bd 369f abbd 215c 28bd
00000380: 8c70 70bd bcd0 a6ba ed63 fcbc c280 a0bc
00000390: 82e1 93bc 1144 063d d499 1bbe 51d0 25be
000003a0: e89a 04bc 4c60 cdbd 2098 2c3b 8dfe 01bd
000003b0: 6e8c f4bc bf83 51be 8780 453c 0f30 613d
000003c0: 162d 80bb 1e72 e03c 09d2 a1bd 0a9a bdbd
000003d0: ab83 9dbc 2dc9 fdbc 1543 033e 7963 343d
000003e0: 4e4f a4ba b9ea 033d e12b 303e 1c0b 42bd
000003f0: 6a03 f73d 25a2 a5bc db41 72bd a829 653d
0.15762313 0.05018583 -0.019424105 -0.15175429 -0.115089685 0.106164336 0.11685165 -0.008173906
0.086635694 0.09031629 0.015044171 0.07793312 -0.14769022 -0.08692135 0.10964005 -0.18179336
0.16637418 -0.11901463 -0.063762315 -0.09952041 -0.1125841 -0.28817925 -0.09125065 0.040880598
-0.08864413 -0.16511929 -0.07104617 0.090820104 0.07958099 0.048157062 -0.0845948 -0.16877475
-0.074394934 -0.16148642 -0.0850895 -0.273712 0.023553912 -0.14724512 -0.22246662 -0.12396028
-0.10324829 0.08272567 -0.10777179 0.023683278 0.089925945 -0.31411827 0.06999149 -0.014298594
0.10964071 -0.0013080139 -0.06969378 -0.013574405 -0.15234128 -0.020815484 -0.11590853 -0.17415169
-0.22777073 -0.10033385 0.11370119 -0.09575864 -0.16374376 0.018092558 -0.012743497 -0.039231848
-0.16520388 -0.0639086 -0.10278788 -0.0630518 -0.16290928 0.014153643 0.019045899 -0.0017301964
-0.18228866 -0.1637621 -0.14847396 -0.037187263 0.055056676 0.09571027 -0.10291052 -0.1563936
0.06782976 -0.11119198 -0.08489374 -0.013837518 -0.22632091 -0.09161178 -0.13714153 -0.14065658
0.14208826 0.027636651 -0.10767761 -0.025142623 -0.13322274 -0.0206106 0.006055301 -0.027853997
-0.039061554 -0.08639743 0.029676106 -0.106755346 -0.14460327 0.036433402 0.026559155 -0.24250673
-0.05193026 0.011875383 -0.026980031 -0.117760465 -0.08345223 0.06966526 -0.07362393 -0.13127647
-0.098028965 -0.12615478 -0.032724094 -0.08524131 0.025062168 -0.10988703 0.033472378 -0.0029228136
-0.043322586 -0.051290467 -0.17510158 -0.21443857 0.0345582 0.09939583 -0.19409497 -0.1911363
-0.069407865 -0.19157773 0.072296165 -0.026003402 -0.078552715 -0.03354758 -0.12598844 -0.032946978
-0.07390934 -0.023859298 -0.07175506 -0.11600704 -0.07367011 0.11800514 -0.18118078 0.056785263
0.12358612 -0.088631056 -0.08255503 -0.041097112 -0.122443035 -0.094010234 -0.0099340845 0.028498612
0.29090148 -0.009530181 0.034855478 0.082140714 0.13008931 0.023289459 -0.098860376 0.041990742
0.12538594 -0.0154333245 -0.009190813 -0.095950454 0.03024723 0.069612324 0.0042767217 -0.10364612
0.05611224 0.10510324 -0.12666747 0.02796239 0.08234984 -0.28442916 -0.17796952 -0.125899
-0.112306125 -0.009553203 -0.05687284 0.11961891 0.059973553 -0.051009312 0.030510891 0.07529833
-0.00057621417 -0.08897969 -0.0059900964 0.09163913 0.0023889383 0.052856866 -0.14999142 -0.044342913
-0.17441176 -0.10338671 -0.19555207 -0.01799271 -0.13832413 -0.028454676 -0.09403253 -0.0776473
-0.014503597 -0.2038648 0.11537183 0.14213616 0.15074766 -0.10848691 -0.17556734 0.02203707
-0.03127322 -0.11883162 -0.022971902 -0.0013128539 -0.16974436 -0.09288098 -0.047929253 -0.034815867
0.23178782 -0.30620256 -0.025392298 -0.061091714 -0.09174131 -0.058625158 -0.083799765 -0.041103486
-0.058701083 -0.0012727003 -0.030809367 -0.019592647 -0.018051866 0.032779757 -0.151954 -0.16192748
-0.008093573 -0.10028133 0.002633579 -0.0317369 -0.029852118 -0.20460413 0.012054569 0.054977473
-0.0039116247 0.027398165 -0.07901389 -0.09257896 -0.019227823 -0.030979717 0.12818559 0.044040177
-0.0012535842 0.03220627 0.17204238 -0.047373876 0.12061198 -0.020218918 -0.059144836 0.05594793

linear_relu_stack.7.bias f4 [128]
00000000: 26f5 8d3d ec4f 79be d944 3d3e 45fa 32be
00000010: eda9 28be 07b0 f2bd 5745 c23c 374a c63d
00000020: 5acc 59be 8d88 1a3e 7adf c0bd 5af0 9c3d
00000030: 178b 68be b271 5fbe db8c aebd ba6a 2abe
00000040: cc02 0b3e 9219 99bd 1016 8a3e 1280 1dbd
00000050: 81b9 6e3e 1937 83be caa8 1ebe 0c57 e93d
00000060: 5c25 1a3e 41da 2ebe ecc3 473e 155e dbbd
00000070: e085 cb3c 043c 08be 16d6 0c3e 0c53 87be
00000080: 83f3 3ebd 4202 65bb 5b96 f7bd d9ec 693d
00000090: c8ae d93d 450b 4dbe 0ea8 3bbe cbf1 babd
000000a0: cbfa 8abb 181c c13c a88a 1ebe adb7 03be
000000b0: 7142 cd3d 3d0d 63bd 65ac 46bd a25e 803d
000000c0: 5182 0f3d a7d3 d2bd cba2 883e 88e4 e5bc
000000d0: 199b 93bd 687f d6bd 1994 27be 70f8 2abc
000000e0: a8d3 dbb9 cfaa 0d3d 6604 cd3d bb03 6dbd
000000f0: 0f94 ec3d 531d 9cbb 4dbc da3d 1fa3 23be
00000100: 44bb 06be 0ad2 1b3d 0fa1 f13d d072 cc3c
00000110: 1330 413e c23b 6fbd b319 a63e 6fbc 573d
00000120: abeb 653e 27bb 57bd aea3 ecbd 0f08 813e
00000130: bc96 8bbe 22a6 48be ae9b 24bd 3438 8b3e
00000140: 489b b13d 6f97 3e3e e485 323d 8efc 023e
00000150: 1a73 433e 665f 89be 74fe cebd 8f20 0ebe
00000160: 7834 553e f6fc db3d 2f35 c73c f1d9 16bd
00000170: 9c3c 5fbe ba47 e03d 85a4 573e a475 45be
00000180: 03cc acbd 1712 383e 7cf3 0e3c 772b 403e
00000190: 307e 50be 594f 0bbe 9a64 6b3e d3b5 88bc
000001a0: 31ba 5a3d 3acd 4bbe 57de 7e3d f562 57be
000001b0: d91c 8cbd cd41 80be 7544 3c3e 4dc7 cbbc
000001c0: 3e8d b0bd 1b60 dbbd e83e 653e 81c6 493e
000001d0: c06e 57ba 3823 a23e 6156 8ebb 4957 54be
000001e0: b3d3 88bd 1148 e8bd 0240 16bd 34e1 a9bd
000001f0: 8a2d a4bc 9580 0a3e f596 d1bd d428 bebd
0.06931524 -0.24346894 0.18483295 -0.17478283 -0.16471072 -0.11849981 0.023714704 0.09682124
-0.2126936 0.15091152 -0.09417625 0.07663031 -0.22709309 -0.21820715 -0.0852296 -0.16642275
0.13575286 -0.0747558 0.26969957 -0.038452215 0.23312952 -0.25627974 -0.15494075 0.11393556
0.15053314 -0.17075445 0.19508332 -0.10711304 0.02484411 -0.13304144 0.13753542 -0.26430547
-0.04661895 -0.0034943973 -0.12089225 0.05711064 0.1062904 -0.2002383 -0.18325827 -0.091281496
-0.0042413226 0.023572966 -0.1548258 -0.12863036 0.10022438 -0.055432547 -0.048504252 0.0626805
0.03503639 -0.10294276 0.266867 -0.028063074 -0.07207317 -0.104735196 -0.16365089 -0.010435209
-0.0004192863 0.034586724 0.100106046 -0.057864886 0.115516774 -0.004764238 0.10680447 -0.15980195
-0.13157374 0.038042106 0.117982976 0.02495709 0.18865995 -0.0584066 0.32441482 0.05266994
0.22453181 -0.052668717 -0.11554657 0.2520146 -0.2726344 -0.19594625 -0.04018753 0.27191317
0.08672196 0.18612455 0.04358472 0.12791654 0.19086877 -0.26830596 -0.10107127 -0.13879608
0.20820796 0.10741608 0.024317352 -0.03682894 -0.21800464 0.10951181 0.21058853 -0.19283158
-0.0843735 0.1797565 0.008725043 0.1876658 -0.20360637 -0.13604487 0.22987595 -0.016688263
0.053400222 -0.19902506 0.06222376 -0.21033843 -0.0684144 -0.25050202 0.1838549 -0.024875307
-0.0862069 -0.1071169 0.22387278 0.1970463 -0.0008218102 0.31667495 -0.0043437933 -0.20736422
-0.066810034 -0.113418706 -0.036682136 -0.08294907 -0.020041246 0.13525613 -0.10233871 -0.09285131

linear_relu_stack.10.weight f4 [1, 128]
00000000: 1c97 50bd fc60 4e3d 3c1f 323d e8c2 43b9
00000010: 0b7e 36bd 7e88 10bd 8eaa 86bd 2b5b 323d
00000020: 4a97 7dbd 4662 1dbd 7111 99bc c137 9ebc
00000030: 30cc 40bd e91d b53d 8755 fcbc d085 8cbb
00000040: 89dd 23bd fb32 9fbd 0267 84bd ab2a 46bc
00000050: 5f1a 223d 6f00 aebc 5c90 62bc 0304 debd
00000060: 541d 8bbd 93dd 4bbc 33a9 d1bd 32a7 a0bc
00000070: b978 873c 2327 17bc d735 1cbd 4cf1 713b
00000080: 8a31 8cbd ff17 0abc 6ef6 603c 1495 b1bc
00000090: af53 153d e068 3dbc 33c2 743c b429 4c3d
000000a0: 8a2b 4bbd 63bd d4bb 7126 c83d c05d 1a3d
000000b0: 4671 45bd fc20 c339 4645 98bc b2db 10bd
000000c0: b0a2 e7bc 14ac 893c 0510 cf3d b219 80bd
000000d0: fd27 d43a 6fc3 20bd e985 b6bd 7734 29bc
000000e0: abf1 38be 7a67 12bd 398c 8fbc fee6 873c
000000f0: 44df e43b 05dd 39bd 141a f63c c555 bfbc
00000100: 0e8d 033c 2bf2 c7bc 675e 63bc feeb 553a
00000110: 9f06 d8bd 330a 2ebc 21e7 233e ce95 093d
00000120: 3e04 8f3d fc97 28bd 39f7 07bd 9743 213d
00000130: cc29 b3ba e869 06bd d012 57bc 0341 923d
00000140: 7831 2dbd 7084 24bd 0042 7fbd 29d2 1cbd
00000150: 937f 013d 516e 93bd 3715 46bd 2378 403c
00000160: 61bb c8bd 1e0c 6abd 96ea 4ebd a805 293d
00000170: 78ba e4bc 6fe4 92bd d6fb 7e3d c7c5 08bd
00000180: 00c3 143c badf 5abd a84e cebc 103b f33b
00000190: 2a2c 893d d1c3 973c 927d a43d 4c48 b5bc
000001a0: fd81 b53c b256 5dbc a233 0abd 6016 d43b
000001b0: f01f f4bd ef4b f5bd 048f c3bd 3fc0 8ebd
000001c0: 4c59 b3bc 0935 89bd 3036 bf3d 62df 7a3d
000001d0: 310c 883d 5ff8 a73d bde9 02bd 0888 c4bb
000001e0: 78d4 b2bc 57b6 60bc 44fc 853a 6ab8 a4bd
000001f0: 9f06 36bd 1608 b4bc c7be 15bd 4d8d a23b
-0.05092536 0.05038546 0.04348682 -0.00018669257 -0.044553798 -0.03528642 -0.065754995 0.043543976
-0.06191186 -0.0384238 -0.018685075 -0.019313695 -0.04706973 0.088435955 -0.030802501 -0.0042884126
-0.040006194 -0.07773396 -0.0646496 -0.012095134 0.03957593 -0.021240441 -0.013828363 -0.10840609
-0.06792703 -0.012442964 -0.1023735 -0.019610975 0.016537057 -0.0092256395 -0.038137283 0.0036917506
-0.06845386 -0.008428573 0.013730628 -0.021677531 0.03645676 -0.011560649 0.014938879 0.04984446
-0.04960207 -0.006492303 0.09772957 0.037687063 -0.04820373 0.00037217874 -0.01858772 -0.035365768
-0.028275818 0.016805686 0.10110477 -0.06254901 0.0016186234 -0.03924888 -0.0891226 -0.01032745
-0.18060939 -0.035743214 -0.017522918 0.016589638 0.006984623 -0.045376796 0.030041732 -0.023356328
0.0080292355 -0.024407467 -0.013877488 0.0008160471 -0.10548138 -0.010622549 0.16006137 0.03359013
0.06983231 -0.04116057 -0.033194754 0.0393711 -0.0013669073 -0.032815844 -0.013127044 0.07141306
-0.042283505 -0.040165365 -0.062318802 -0.03828636 0.031615805 -0.071987756 -0.048360076 0.011747393
-0.09801365 -0.057140462 -0.050516687 0.04126516 -0.027920946 -0.071724765 0.06225189 -0.03339174
0.009079695 -0.05343602 -0.02518399 0.0074228123 0.06697877 0.01852599 0.08031763 -0.0221292
0.02215671 -0.013509439 -0.033740647 0.006472394 -0.11920154 -0.11977374 -0.095487624 -0.06970262
-0.021893166 -0.06699569 0.09336507 0.06124819 0.0664295 0.0820167 -0.03196119 -0.0059976615
-0.021829829 -0.013715348 0.0010222276 -0.08042987 -0.044439908 -0.021976512 -0.036558893 0.004960692
