saved_models/model50.pth (torch, 47599 bytes, 11 tensors)

linear_relu_stack.0.weight f4 [4]
000000 1d 2c 86 3f 1b d1 82 3f c9 94 7f 3f 59 30 83 3f
       1.0482212 1.0220064 0.99836403 1.024913

linear_relu_stack.0.bias f4 [4]
000000 d4 1a 13 bd ed e4 ed 3c 0b d9 32 3d 33 a3 0e 3c
       -0.035914257 0.029039824 0.04366402 0.008705902

linear_relu_stack.0.running_mean f4 [4]
000000 67 74 b9 40 69 be 1a 41 be 29 25 43 3a c2 4f 40
       5.7954593 9.671487 165.16306 3.2462296

linear_relu_stack.0.running_var f4 [4]
000000 be 70 52 42 02 b9 c5 40 d5 05 ab 46 42 19 ac 40
       52.6101 6.178834 21890.916 5.378083

linear_relu_stack.1.weight f4 [32, 4]
000000 43 06 c3 bd 77 f7 39 3e bb 01 07 3e 22 df 15 3e
       -0.09522679 0.18160807 0.13184254 0.146359
000010 50 ce 35 3e 31 50 1b bd 00 5b d0 3e b3 6f 13 3d
       0.17754483 -0.037918273 0.40694427 0.035995197
000020 74 dc c1 3d 32 73 fa 3d cf 2e 6d be f2 45 b6 3d
       0.09465876 0.12229003 -0.23162387 0.0890006
000030 b1 3d 9e 3d 41 d9 ce be 32 45 67 be 6c 15 a7 be
       0.077266105 -0.40400127 -0.2258499 -0.3263353
000040 ac e7 84 bd 0f 9b 89 be 49 b5 b7 3e 38 9d ed be
       -0.064895004 -0.26876113 0.35880497 -0.4640901
000050 04 84 ff 3e ff 27 97 3e 45 ea 8f be 11 66 e0 3e
       0.49905407 0.29522702 -0.2810842 0.4382787
000060 00 39 07 be bd e7 0f be c6 91 45 3e a5 c5 c4 be
       -0.13205338 -0.14053245 0.1929389 -0.3843204
000070 cf 8e 1e 3d a1 49 02 3f 2c 8a cb be 97 b1 5a 3d
       0.03871041 0.508936 -0.39753854 0.05339202
000080 b4 25 a7 3e a3 4d cd 3e d7 f7 8a 3c 55 ab ac be
       0.32645953 0.40098295 0.016963882 -0.33724466
000090 c9 fd 9a 3e 05 b7 6c 3e 37 94 bd be 2e 3e 43 be
       0.30271748 0.23116691 -0.3702714 -0.19066688
0000a0 fe 0c 14 3e 97 04 a9 3d 30 fb 70 bc 1b bf ad 3e
       0.14458081 0.082528286 -0.014708325 0.33934864
0000b0 55 84 ee 3d 48 b0 42 3e 9f 66 55 be 31 5e c5 3e
       0.11646334 0.19012558 -0.20839928 0.38548425
0000c0 c0 fa a1 3d e9 25 8e 3d bf 76 b7 3e 43 4f 74 3e
       0.07909155 0.069408245 0.35832784 0.23858361
0000d0 2d 7b 8c bd e5 21 08 3f 7e da e6 3e 30 f6 b4 3e
       -0.068594314 0.5317672 0.4508857 0.35344076
0000e0 4a 38 0a bf c2 41 dc 3e 7f e7 b3 be 31 cb b7 be
       -0.5399214 0.4301892 -0.35137555 -0.3589721
0000f0 1b 3f e4 be 0e c6 1c 3e 5c b1 72 3e 7d a2 eb be
       -0.44579396 0.15309927 0.2370047 -0.46022406
000100 a1 29 d5 be 55 c4 bf 3e 0b ac e7 3d 4a 46 cc 3e
       -0.41633323 0.37454477 0.113121115 0.39897376
000110 02 ad 77 be fa 8a a1 3e 01 bc 28 3d 50 1a 10 bd
       -0.24187091 0.31551343 0.04119492 -0.035181344
000120 5b c3 1c 3e e1 47 9f 3d 5e 6f 8b bd fa ed 4d be
       0.15308897 0.07777382 -0.06808351 -0.20110312
000130 ec 29 42 be 11 3a 3c be d5 e3 79 3e 80 58 b1 be
       -0.18961304 -0.18381526 0.24403317 -0.34637833
000140 65 6c da 3e fe 57 b5 be 77 ed 01 bf 3d 53 ec 3e
       0.42660823 -0.35418695 -0.5075297 0.46157256
000150 11 42 01 bf 7a ff 9d be 32 fd a4 3e 9d f0 8c be
       -0.50491434 -0.30858976 0.32224423 -0.27527323
000160 be c0 f1 3e c1 fb 7e 3e 43 78 cd be f9 74 cb be
       0.47217363 0.24900724 -0.40130815 -0.3973768
000170 33 5f 33 3e 55 7b bc bd 34 75 43 be d3 6c 82 be
       0.17516784 -0.09203211 -0.19087678 -0.2547365
000180 c8 24 70 3e d1 a8 c6 be 85 86 fa be 70 68 0c be
       0.23451531 -0.38800672 -0.48930755 -0.13711715
000190 80 0b 8f be 56 d5 ad bd 4c e2 10 3e 35 46 c6 3e
       -0.2793846 -0.08487956 0.14148825 0.3872544
0001a0 42 97 d2 3e 21 dc 06 3f dd 91 5a be ca 8a 06 bc
       0.41131026 0.5267964 -0.21344705 -0.008211801
0001b0 02 e2 7c bd aa 4a b5 bd 07 12 d2 be 89 1c ba 3e
       -0.061738975 -0.08852132 -0.4102938 0.36349896
0001c0 49 a9 7a bd 5a 50 b1 bd 7b d1 99 be d8 8c cf 3e
       -0.0611966 -0.08657904 -0.30042633 0.40537143
0001d0 b1 a2 0c 3e b8 32 97 3e ca 33 b5 be ee 63 e8 3e
       0.13733937 0.29530883 -0.35391074 0.4538874
0001e0 c1 9b f1 bc d6 d3 16 3f 23 f4 84 3e 6b 34 45 3d
       -0.029493215 0.58916986 0.25967512 0.048145693
0001f0 57 78 98 be 30 19 8b be 54 31 8d bd 1c ba 0d bf
       -0.29779312 -0.27167654 -0.06894174 -0.55362105

linear_relu_stack.1.bias f4 [32]
000000 eb d0 a3 be 56 45 cc bb 3d 6f db 3e 18 1a 47 3e
       -0.3199533 -0.0062338514 0.42858306 0.19443548
000010 eb 8d 13 3e 97 ba e1 3d 3d e2 7b bd ce b9 ae be
       0.14409606 0.11021917 -0.061495055 -0.34126133
000020 53 ec 4a be bf 4b 86 be 74 36 91 be 8a 2a a0 3e
       -0.19816713 -0.26229665 -0.28361857 0.31282455
000030 93 62 79 be b4 a8 e5 be 1d 91 ae 3e a6 a1 2a ba
       -0.2435401 -0.44855273 0.34095088 -0.0006509073
000040 db dd 11 3c a6 c6 4f 3d a4 80 31 bd 5e 4a c2 3d
       0.008902992 0.050726555 -0.043335572 0.09486841
000050 da 9c a8 3e 33 16 1f bc 26 03 99 3e e8 95 a6 bc
       0.32932168 -0.009709883 0.29885215 -0.020335153
000060 f0 0f c8 be 91 6b 18 be 1a ba ef be fd 19 a7 3e
       -0.3907466 -0.14884783 -0.46821672 0.32637015
000070 e6 c2 a1 be 78 b3 11 3e 84 4d d8 bd 5d 14 93 be
       -0.31594008 0.14228618 -0.1056166 -0.28726473

linear_relu_stack.4.weight f4 [64, 32]
000000 68 ce 37 bd 6d eb 06 3e 7f 27 41 bb 86 96 ee bd
       -0.04487458 0.13175745 -0.0029473004 -0.11649804
000010 25 18 ad bc 5d c6 ac bc cf d4 06 3e d0 69 08 3e
       -0.021129677 -0.02109068 0.13167118 0.13321614
000020 98 f0 6e 3a 88 05 2f be a6 94 33 3c 6a d0 98 3d
       0.0009114831 -0.17091954 0.0109607335 0.07461627
000030 98 21 e9 3d 88 aa 82 bd 02 4a 13 3d 47 70 95 bd
       0.113833606 -0.063801825 0.03595925 -0.07296806
000040 a5 1e 4b 3d 23 6c 07 3e dd 2e 0a bd 0a 64 1b be
       0.04958977 0.13224845 -0.0337361 -0.1517488
000050 fb 43 33 3d cf 48 b5 bd 1d 2f e0 3d 5b 38 35 be
       0.043766003 -0.08851778 0.10946486 -0.17697279
000060 ca c6 57 bd 52 cd d4 3d 7e 75 6e 3d d2 e7 48 bd
       -0.052679814 0.10390724 0.058217518 -0.049049206
000070 e5 24 89 bd 66 76 23 3e e9 a2 00 3e 63 65 10 be
       -0.0669649 0.15963134 0.12562145 -0.14101176
000080 37 a8 81 bc d7 72 44 3d 7a cb 8f bd 82 a6 83 3d
       -0.015827281 0.047961082 -0.07021232 0.06428243
000090 d5 65 e3 bd 65 ab 83 bd 65 52 55 bd 5f 43 c8 3d
       -0.11103407 -0.06429175 -0.05208053 0.09778475
0000a0 32 e4 0d bd bd d4 c8 3d bd 40 2f be ce 3f 0a 3e
       -0.034641452 0.098062016 -0.1711454 0.13500902
0000b0 70 b9 e7 3b 9f a6 08 3e fa 7e 98 3d 8e 9b d8 3d
       0.0070716664 0.13344811 0.07446094 0.10576545
0000c0 6e ee a6 3d 88 d0 fd 3d 61 6c 11 3c 3d fc 9c 3d
       0.081509456 0.1239329 0.008875937 0.07665298
0000d0 2f ad 90 bd f8 ee 03 be 58 a8 86 3c b2 a4 00 be
       -0.07064282 -0.12884128 0.016437694 -0.12562826
0000e0 05 75 32 be fc c8 dc bd a2 3e ab 3d ab a0 65 3c
       -0.17427452 -0.10780522 0.08361556 0.014015357
0000f0 47 28 14 3c eb 65 01 3e b1 a1 b3 bd 35 8b e7 bd
       0.009042806 0.12636535 -0.087710746 -0.113058485
000100 05 7a cf bb 4c 3a 1a 3e 1f ac f8 bd 3e 63 49 bd
       -0.0063316845 0.15061301 -0.121422045 -0.04916691
000110 05 80 c9 bd f2 5a b8 bc 07 87 f3 bd ef 06 14 be
       -0.09838871 -0.022504304 -0.11890989 -0.1445577
000120 77 c5 0f 3e 93 e2 58 3c 59 6d 19 bc 9a 63 e3 bd
       0.1404017 0.013237613 -0.009364449 -0.11102982
000130 1e 07 bc 3b 84 38 0f be b6 61 ff 3d e2 bc 0e 3e
       0.005738153 -0.13986403 0.12469809 0.1393924
000140 c0 32 f9 bc 7e 60 1f b9 d8 90 c9 bc b9 7c c1 bd
       -0.030419707 -0.00015199368 -0.0246052 -0.09447617
000150 30 48 ec bd 0f f8 40 3e 1b 70 7e bd 20 dd d2 bd
       -0.11537206 0.18844627 -0.06211863 -0.102960825
000160 66 35 f2 bd 2a b2 f3 bd 9e ee d4 bd ec 99 d5 bd
       -0.11826591 -0.118992165 -0.10397075 -0.10429749
000170 20 ab b1 bd d2 6c a3 bd 06 28 9d 3d 01 bf ca 3d
       -0.08675218 -0.0797974 0.076736495 0.09899712
000180 52 83 1f be 3a ea af 3d ef b7 86 3d 16 c8 a8 bd
       -0.15577438 0.08589597 0.06578051 -0.08241288
000190 9c b8 34 3e fb 5a c3 bd b1 40 1f 3e a5 0d d4 bd
       0.17648548 -0.095388375 0.15552022 -0.10354165
0001a0 42 a6 86 3d 69 da f6 3d 94 16 75 bc a6 5a f8 bd
       0.0657468 0.12053377 -0.014958996 -0.12126665
0001b0 d4 56 a7 bd 45 a4 12 3e 39 29 dd 3c 74 eb 54 3e
       -0.08170858 0.14320476 0.026997196 0.20792943
0001c0 1d fd 17 3e 13 4c ac 3d 2f c7 01 be fc a7 86 3d
       0.14842649 0.084129475 -0.12673639 0.06575009
0001d0 3a 52 42 bd 85 64 1b bd 6e 0b 19 3e 15 24 0f be
       -0.0474417 -0.03793766 0.14945766 -0.13978608
0001e0 4c 7c 3d be ba 6a 12 be 03 77 1c 3e c4 bd 25 be
       -0.18504447 -0.14298525 0.15279774 -0.16185671
0001f0 69 48 1d be 18 c6 dc bd e6 d2 31 3e 24 22 a9 3d
       -0.15359654 -0.10779971 0.17365608 0.08258465
000200 df ad aa bd 67 71 de ba 1f c8 03 be db ae 88 bd
       -0.083339445 -0.0016971052 -0.12869309 -0.06673976
000210 e9 34 17 3e 63 84 a7 bd d5 e8 f2 bd 57 d0 22 be
       0.14766277 -0.08179548 -0.118608154 -0.15899788
000220 45 5b 9b 3a 01 4d 1c 3e 91 87 2a be e5 dd 79 3d
       0.0011852762 0.1526375 -0.16653277 0.06100263
000230 5a 08 f7 bc 54 2a 89 bd 8b 42 73 bc 0d 26 9f 3d
       -0.03015535 -0.066975266 -0.014847408 0.077709295
000240 a6 08 c7 bd 85 af 11 be c7 0b 0b be 39 d0 95 3b
       -0.097184464 -0.14227112 -0.13578711 0.004571941
000250 d6 82 e2 3d 05 33 22 bd 2d cb a9 bd 2e 56 14 3d
       0.11060111 -0.039599437 -0.08290706 0.036215
000260 f8 70 4e 3d 4c 08 9f 3d c3 43 83 bd c4 c8 20 3e
       0.050400704 0.077652544 -0.06409409 0.15701586
000270 b6 6f 2e 3e 7a e0 1f be 89 09 13 bd f1 34 04 be
       0.17034802 -0.15612975 -0.035897765 -0.1291082
000280 4b 06 e8 3d 17 8d b4 3d 3c c8 f0 bd b0 e3 c8 bd
       0.11329325 0.08815973 -0.11756942 -0.09809053
000290 2f b9 15 3d 72 0a b1 bd 2c ea 31 be d3 0e b2 3c
       0.036553558 -0.086445704 -0.17374486 0.021735584
0002a0 d3 50 35 bd 64 b6 11 3e 95 08 d0 bd b0 f3 ee bd
       -0.044266533 0.14229733 -0.10157887 -0.116675735
0002b0 6f a5 fa 3d 40 8a f1 bd 81 f9 da bc 70 37 9b 3d
       0.12238585 -0.11793947 -0.0267303 0.07578933
0002c0 08 45 97 3c fb b0 d8 bc 02 b4 1a 3e 2f 72 29 be
       0.018465534 -0.026451578 0.1510773 -0.16547464
0002d0 9c 08 c3 3d 76 14 36 bd 42 4a fa 3d 20 fa d8 bd
       0.095231265 -0.044453107 0.12221195 -0.105945826
0002e0 31 d4 30 bd 50 85 3c 3d f1 4a 09 be e5 16 39 bc
       -0.04317111 0.046025574 -0.13407494 -0.011296962
0002f0 df 97 16 3e e5 3b d8 3d 26 ab 33 be f5 2e 10 3d
       0.14706372 0.10558299 -0.17545757 0.03520103
000300 be bb 7c bd 0e ec 73 3d ec 3e e6 3c 50 d2 76 3d
       -0.061702482 0.05955129 0.028106175 0.060259163
000310 bf d4 1e 3e 5c 24 b3 bd 60 52 37 3e 53 c3 3b 3e
       0.15510844 -0.087471694 0.17902517 0.18336229
000320 69 f4 07 bd 93 db 0f be cf 38 fd bc 36 1b c4 bd
       -0.033192072 -0.14048605 -0.030910878 -0.095755026
000330 35 3b 09 3e d7 c7 90 3d 49 7f 0d be f7 1f 16 3e
       0.13401492 0.070693664 -0.13818087 0.14660631
000340 b8 d1 f7 bd 08 b4 30 3e a4 e7 06 bd f4 bb fe 3c
       -0.121005476 0.17256176 -0.032935753 0.031095482
000350 40 1b 12 be d4 20 b6 bb 04 38 1d 3d ba f7 03 3e
       -0.14268208 -0.0055581126 0.0383835 0.12887469
000360 2d 29 01 be e9 f2 bd 3d 28 4d b0 bc 3a 43 28 bc
       -0.12613364 0.09274847 -0.021521166 -0.010269934
000370 23 f8 1f be 4f c1 38 bb c8 9b 07 3d 00 a6 48 3e
       -0.15622 -0.0028191393 0.03310755 0.19594574
000380 6e 7c 2f 3d 24 e0 01 3d 03 27 c9 3c bc f2 0c be
       0.042843275 0.031707898 0.024554735 -0.13764471
000390 60 93 c8 3d b4 40 04 bd 06 ef 40 3c 88 33 08 3e
       0.097937346 -0.03228827 0.011775738 0.13300908
0003a0 df 64 88 bc a0 fd 95 bd a0 8f c5 bd ed f9 ee 3d
       -0.016649662 -0.07323766 -0.09646535 0.11668763
0003b0 90 10 c7 bd 5b 4c a2 bb 27 44 4c 3d 7b 01 a8 ba
       -0.09719956 -0.00495295 0.049869683 -0.0012817824
0003c0 d7 3f a4 3d 22 1a 3d 3d 89 90 4c bd 18 58 f3 3d
       0.08019989 0.0461675 -0.049942527 0.11882037
0003d0 a3 ed 0e be 16 2e 67 3d ee 67 b0 3c a2 ff 13 be
       -0.13957839 0.056440435 0.021533933 -0.14452985
0003e0 f2 34 68 3d 89 dc 6d 3d cc 5e c7 3d f6 0e ee 3d
       0.056691118 0.058071647 0.09734878 0.11623947
0003f0 74 e7 57 3d 7e 5f f8 bd 84 62 04 bd d2 75 f3 3d
       0.052710965 -0.12127589 -0.032320514 0.11887707

linear_relu_stack.4.bias f4 [64]
000000 32 46 ec 3c 45 f0 67 bd 6f c0 15 3e 8a fc 13 3e
       0.028842065 -0.056625623 0.14624189 0.14451805
000010 c1 70 b0 bd a7 28 f7 bd 5b c7 be 3d 41 20 dc 3d
       -0.08615256 -0.12068301 0.09315368 0.107483394
000020 93 38 9c 3c 97 29 a3 bc 2f f4 ab 3c fb 45 2a 3d
       0.019069945 -0.019917293 0.02099046 0.041570645
000030 1f 83 55 3d a2 e6 2d be 20 11 3f bd ac 55 23 3e
       0.052127 -0.1698251 -0.04664719 0.1595065
000040 e8 4e d9 3d 93 12 77 3d 89 92 2c be 8a 8f 16 be
       0.10610753 0.060320448 -0.16852774 -0.14703193
000050 12 ba 49 bd 72 71 2c 3d 7e 67 09 be 07 b7 19 3e
       -0.049249716 0.042100377 -0.13418385 0.15011226
000060 a2 e9 d1 bc 35 e4 08 3e c7 a3 b4 3d 42 79 26 3d
       -0.0256241 0.13368304 0.088203005 0.040642984
000070 3a 12 e8 bd cd 5e dd 3d 33 24 12 be 66 d9 12 be
       -0.113316014 0.108090974 -0.14271621 -0.14340743
000080 2b e2 1d bd 7a 1f a6 bc 7a 53 32 bd 76 cf 92 3d
       -0.03854577 -0.020278681 -0.04353664 0.07168476
000090 81 7e 3a be 94 46 27 3d 7e 2f f9 bd 29 01 89 3d
       -0.1821232 0.040838793 -0.121672615 0.066896744
0000a0 46 7e 8e bd ea 4c 80 3b 24 e0 32 3e 80 57 97 bd
       -0.069576785 0.003915419 0.17468315 -0.07389736
0000b0 c5 89 1f be e7 28 18 3d c0 4d 71 3d ec b4 a2 3d
       -0.15579899 0.037148383 0.05891204 0.07944664
0000c0 00 f3 e1 3d 06 4e a7 bd 06 bd 18 3e 05 75 6c bc
       0.11032677 -0.08169179 0.14915857 -0.0144321965
0000d0 e7 7a 10 be 75 e4 b1 bd ae 43 1f 3d e1 ea 04 be
       -0.14109384 -0.08686153 0.038882904 -0.12980224
0000e0 a8 29 3b 3e 8c a6 eb 3d 14 99 1c 3d 82 56 4e 3e
       0.1827761 0.11506376 0.038231924 0.20150188
0000f0 8b 86 92 bd 7f bf a9 bd a0 19 eb bd 52 d3 3b 3a
       -0.07154568 -0.08288478 -0.11479497 0.0007164973

linear_relu_stack.7.weight f4 [128, 64]
000000 62 42 a2 3d 3f 12 d7 3d 93 c4 7a bd d5 c3 a2 bd
       0.07922818 0.10501527 -0.061222624 -0.07947508
000010 0d f2 84 bd d8 ac f7 bd 05 d6 c5 3c 3e 2b e7 3d
       -0.0649148 -0.12093514 0.024149904 0.11287545
000020 10 e2 bc 3d e6 41 d6 bd 3c 06 ee bd bc 7b d4 3c
       0.092228055 -0.10461788 -0.11622283 0.025937907
000030 0f a3 69 bd f6 de 46 bd cf 81 b9 bd b1 6d fa 3d
       -0.05704027 -0.048552476 -0.09057962 0.12227953
000040 c4 5f 05 3d ce 94 f4 bd 4e de f6 3d 43 f0 0f bd
       0.032562032 -0.11942445 0.1205412 -0.03514124
000050 b9 27 7e 3d c5 fe 19 3d 40 5c 0a bc 66 bf bd 3d
       0.0620496 0.037596483 -0.008444846 0.09265022
000060 43 ad da bd 8d cb d5 3c 83 d8 7b bd 7f 09 be bc
       -0.10677578 0.026098037 -0.06148578 -0.023197887
000070 cf f3 a0 3d 4d 15 1f 3c 63 25 d0 bd d9 e7 21 bd
       0.07859003 0.009709668 -0.10163381 -0.039527748
000080 8a 9e 01 3d b5 6e 93 bd 5d f6 a0 bd 7d 27 16 bd
       0.031645335 -0.0719885 -0.0785949 -0.036658753
000090 d0 05 6a 3d c4 3b 4c bc c5 b2 de bc 7a 06 e5 bd
       0.05713445 -0.012465421 -0.027184853 -0.11182876
0000a0 6c 73 2a 3c e6 da ad 3d 4c 7c 80 bd de 36 89 bd
       0.010403495 0.08489017 -0.06273708 -0.06699918
0000b0 95 62 b2 bd f3 66 e9 bd 22 be af 3c e9 d6 4d bd
       -0.08710209 -0.11396589 0.021452967 -0.050253782
0000c0 18 d8 c9 3d 94 cc 9e 3d 78 49 04 3e d4 77 07 bc
       0.0985567 0.07753864 0.12918651 -0.008268315
0000d0 35 a9 8f 3d bf 27 af bd 94 97 3a 3d a1 0d 01 3e
       0.070146956 -0.08552503 0.045554712 0.12602855
0000e0 cb bb d2 bd 31 c4 ac 3d 8d 20 02 3e 23 32 37 bd
       -0.10289725 0.08435858 0.1270773 -0.04472555
0000f0 43 39 0a 3c 9e 3f a5 3d fd 7f 45 bc 6a 25 b7 3d
       0.008436504 0.08068775 -0.012054441 0.08942683
000100 ba 0b a4 3d 8d 01 81 3d e8 63 79 3b ac c0 b3 3d
       0.08010049 0.06299124 0.0038053934 0.087769836
000110 33 d1 7d bd 25 1c 47 3d 05 79 a5 3c 49 44 67 3b
       -0.061967086 0.048610825 0.020199308 0.0035288504
000120 0f 19 26 bd 06 5f 00 3e 57 92 21 bd 74 ae 8a b9
       -0.04055124 0.12536249 -0.0394462 -0.0002645139
000130 52 85 bd 3d 8f 75 fb 3c f8 cf 9c 3d 9e a5 67 bd
       0.092539445 0.030695705 0.076568544 -0.05655443
000140 fa 4c 87 3d 52 1e a6 3c 07 8f 83 3d 76 7d 42 3d
       0.06606479 0.02027813 0.06423765 0.04748293
000150 a3 71 d7 3c 93 aa 1e 3c 42 38 d9 bd e5 00 ce 3c
       0.026299303 0.009684223 -0.106064335 0.02514691
000160 22 59 5c bc 2b 3b cb bd 9b 39 f3 3c 3a 1e b0 bd
       -0.013448985 -0.09923395 0.029690554 -0.08599515
000170 3a f8 8b bd ac 9f 97 3d 21 f1 2f bc 87 2b 0a bd
       -0.06834455 0.07403502 -0.010738642 -0.033732917
000180 a6 e8 19 3c d3 a3 33 3d 3a 8c 8a bd 38 4d c1 bd
       0.009393847 0.043857407 -0.06765027 -0.094385564
000190 a2 b5 31 bd 1d 46 83 bd 6f 77 0d 3d 3d 81 b8 3d
       -0.04338611 -0.064098574 0.03453773 0.09009025
0001a0 89 2c 62 bd 65 f9 b2 3d 2a a1 aa bd c0 08 33 bd
       -0.055218253 0.087389745 -0.08331521 -0.043709517
0001b0 e5 37 f8 3d 3c ba 64 3d 78 af ab bb 03 39 0d 3e
       0.12120036 0.05584167 -0.0052394234 0.1379128
0001c0 b1 cd a3 bd 18 1c 02 3d a7 7a 0f be 6c 14 6e 3d
       -0.07998217 0.031765074 -0.14011632 0.058124945
0001d0 3a 66 a1 bd 82 ad 91 3d f2 72 23 3c a5 4a b0 bc
       -0.07880826 0.07113172 0.009976136 -0.021519968
0001e0 4c ec c0 3d 00 ca 81 bd 2b 09 2b 3d 34 75 63 3b
       0.0942007 -0.063373566 0.04175679 0.003470731
0001f0 e8 4d f6 3d 13 99 9b bd 81 3e 21 3d 3f 57 73 3d
       0.12026578 -0.07597556 0.03936625 0.059409376
000200 92 5b 61 3a a1 f4 a6 3d 88 42 32 bc 9d 25 c5 bd
       0.0008596714 0.08152128 -0.01088012 -0.09626315
000210 e3 b9 5b bd 3f 21 d7 bd 68 2e 87 ba 5f b2 eb bb
       -0.053644072 -0.10504388 -0.0010313513 -0.0071928944
000220 63 2a 7b 3d eb 64 f7 bd c2 95 a4 bd 66 1f bd 3b
       0.06131972 -0.120797954 -0.080363765 0.0057715653
000230 1a d9 3b bd c6 82 a2 3c e3 06 a3 bd e9 e7 0f 3d
       -0.04586134 0.019837748 -0.07960298 0.035133276
000240 43 73 33 3d 55 3d 60 3d a7 c4 bb bd a2 3a 8a 3d
       0.043811094 0.05474599 -0.09168368 0.067494646
000250 9a a3 f1 bd db a7 ea bb 97 74 b6 3d e1 89 6f bd
       -0.11798783 -0.007161123 0.089089565 -0.0584811
000260 f9 10 7b bd 33 05 ae bc ed a8 d5 3d 9e 20 49 3d
       -0.061295483 -0.021242714 0.10432611 0.04910337
000270 cc d0 bb 3d 4e 72 8c 3d db 7c 87 3d d8 a7 e1 bd
       0.09170684 0.068577394 0.06615611 -0.11018342
000280 07 9a a4 bd dd f0 b7 bc b9 bf 50 3d c8 b4 06 bd
       -0.08037191 -0.02245372 0.05096409 -0.03288725
000290 9f 59 65 bd 09 ef 54 bc 74 93 e9 bd ef 61 53 3d
       -0.055993672 -0.012996444 -0.114050776 0.05160707
0002a0 af 7c cd 3c 94 21 dc 3d 0c 47 95 bd 0f f2 48 3d
       0.025083868 0.10748592 -0.07288942 0.04905897
0002b0 9d 51 b8 bd 19 cd fd 3d 20 20 7e 3d 2e c9 03 3d
       -0.089999415 0.12392635 0.062042356 0.03217428
0002c0 d3 eb 02 be 81 da b6 bc 5f a5 e5 bd 9a 0e ee 3d
       -0.12785272 -0.022320988 -0.11213183 0.11623879
0002d0 5e d3 ee bc 7d 95 26 3d ee 3f 96 bc 19 9d ed bc
       -0.029153522 0.040669907 -0.01834103 -0.029005574
0002e0 ae cf 93 bd 62 3c 04 be 93 42 29 bd 58 e7 09 3a
       -0.07217346 -0.12913659 -0.041323256 0.0005260608
0002f0 f1 68 a8 3d 6e 04 84 3d 02 24 a1 bc 4a fb bb bd
       0.08223141 0.064461574 -0.01967049 -0.09178789
000300 07 d5 98 3a 4a 5b d4 3d 1e 14 0b be 6c 82 cd bd
       0.0011660167 0.103689745 -0.13581893 -0.100346416
000310 d8 73 75 bd 4e bd 07 3e 12 76 6f bc fa 2c bb 3d
       -0.05992493 0.13255808 -0.0146155525 0.09139438
000320 82 80 69 3d 86 e0 ce 3d 19 e0 97 bd 6b 96 b6 3c
       0.05700732 0.10101418 -0.0741579 0.022288522
000330 ea e8 d4 3d 39 fa 28 bd 40 84 c7 bd cf df 6a bb
       0.10395987 -0.041254256 -0.097420216 -0.0035838967
000340 09 8a 4f 3d 08 d8 ac 3c 9b 19 dd 3c 18 fa 76 bc
       0.05066875 0.021099105 0.026989749 -0.015074275
000350 52 42 0b 3c ae 36 b9 3d f0 18 62 3d 3c 18 b7 3d
       0.008499699 0.090436324 0.055199564 0.08940169
000360 1e bb 92 3c 92 6e af bd 8d 26 c5 bd 07 29 04 bd
       0.01791149 -0.085660115 -0.096264936 -0.03226569
000370 75 98 f1 3c 06 f7 e1 bd be 00 b7 3d 7b d2 1e 3d
       0.029491642 -0.11033444 0.089356884 0.03877495
000380 2d 61 bc bd 30 e2 24 3d 98 f8 5c bc a9 0f 7e bd
       -0.09198222 0.04025477 -0.013487004 -0.062026653
000390 28 de 47 bc cf 35 0d 3d 00 58 42 3d b7 60 ef 3d
       -0.012198962 0.034475144 0.047447205 0.11688369
0003a0 46 f4 66 bd 0a 67 58 3d ce d9 02 3e 11 cb c2 bb
       -0.0563853 0.05283264 0.12778398 -0.0059446176
0003b0 8d d9 df bc ed 51 2c bd 0c 05 9c 3d cd e6 e4 3c
       -0.027325416 -0.042070318 0.0761815 0.027942086
0003c0 bb 2f ad 3d 45 f3 ac bc ff 2a 16 be 06 ed 8e 3d
       0.084563695 -0.021112094 -0.14664839 0.069788024
0003d0 dc d0 e6 3d 32 ee d7 bb 6f ec ed bd dd a5 01 be
       0.112703055 -0.0065896744 -0.11617362 -0.12660928
0003e0 7e 59 01 3e 55 2c f1 bc dd d3 a6 bd 2b f9 fe 3d
       0.12631795 -0.029440084 -0.081458785 0.12449869
0003f0 be 0a af 3d 30 c2 c1 3d 44 65 5a 3d c1 51 5c 3d
       0.08546971 0.094608665 0.05331923 0.053788904

linear_relu_stack.7.bias f4 [128]
000000 6c a5 03 3e 31 c9 bd 3c 54 e5 06 bd 83 20 9d 3d
       0.12856072 0.023167225 -0.032933548 0.07672217
000010 d5 e9 42 bd ac 2d 63 bd c4 27 9d 3d c9 5f d9 3d
       -0.04758628 -0.055463478 0.076736 0.10613973
000020 4d f4 e2 3c 4f 00 c7 bd a1 49 a6 bb 20 dc 3e 3d
       0.027704382 -0.09716856 -0.005074695 0.046596646
000030 9c 27 c4 3c ff 4a 10 bd 97 76 90 bd 02 b2 98 3d
       0.023944668 -0.03522777 -0.07053869 0.07455827
000040 6e 78 d5 3d ca 5c 8e 3d 1b 24 f4 bc c2 90 00 3e
       0.10423361 0.06951292 -0.029802373 0.1255522
000050 46 63 73 bd b2 f0 95 3c cc db ab 3d a0 f7 83 3d
       -0.059420846 0.018303249 0.08391532 0.06443715
000060 a8 eb 53 bd b3 c3 9a 3d eb 66 c8 3d 71 c7 a1 bc
       -0.05173841 0.07556858 0.09785255 -0.019748421
000070 2e 6d 8e 3c 99 bb 1c bc 43 f4 dc 3d de e3 79 3d
       0.017386045 -0.009566211 0.10788777 0.061008327
000080 3f 72 d9 3d bc 9a bd 3a 8f e3 ac 3d 0a b4 53 3b
       0.10617494 0.001446567 0.08441841 0.0032303357
000090 f0 31 4c bc 1f 64 53 3d 22 19 6a bc 71 e8 d2 3d
       -0.012463078 0.051609155 -0.014288219 0.10298241
0000a0 40 84 a2 bd cd 52 cb bc e6 11 9e 3d 01 49 75 bc
       -0.07935381 -0.024819756 0.077182576 -0.014971019
0000b0 48 18 d1 3d 26 c0 82 bd 2a 64 b0 bd 62 bb 00 bd
       0.102097094 -0.06384306 -0.08612855 -0.031428702
0000c0 27 8a 23 39 06 15 c2 3d c4 32 ab 3d ca 83 bd bc
       0.00015596357 0.09476666 0.08359292 -0.023134131
0000d0 6c d8 fc 3d e4 01 ec bb 96 82 9a 3c 89 90 9e bd
       0.12345967 -0.007202374 0.018861096 -0.07742412
0000e0 d7 92 c6 bc 48 28 77 bd ae c9 75 bd aa 28 12 3d
       -0.02423994 -0.06034115 -0.06000679 0.03568331
0000f0 71 49 a6 3d 20 d5 8a bd e0 66 b1 3c c4 37 88 3d
       0.081194766 -0.067789316 0.0216555 0.066512614
000100 57 91 d0 3d 4e 32 9f 3d 27 10 d9 bd f5 89 62 3c
       0.101839714 0.07773267 -0.10598784 0.013826837
000110 e7 e6 9f 3d 0a ba 59 bd c2 6b 76 bc 9b 2c ba bd
       0.07807713 -0.053155936 -0.01504034 -0.09090539
000120 75 9f 5f 3d 8d ef f5 bd b5 7d 45 bd 7c a1 4d 3d
       0.05459543 -0.12008581 -0.048215587 0.05020283
000130 37 3c dd bb bf a1 88 3d 9e cd a0 bc 2f 78 99 bd
       -0.006751563 0.066714756 -0.019629296 -0.07493626
000140 65 ef 03 bd 95 58 8e 3d 28 66 c2 3d 52 7e 05 3e
       -0.032210726 0.069504894 0.09492141 0.13036469
000150 c8 90 57 3d 3f 91 0c be 28 67 a8 bd 2a 40 3f bd
       0.05262831 -0.13727282 -0.082228005 -0.04669205
000160 20 81 ed 3d fe f6 ea 3d ae d8 58 3d f8 93 d3 3c
       0.11596894 0.11472891 0.052941017 0.025827393
000170 3a ab 05 3d 44 1a c0 3a a7 3b 40 bc 0e 82 24 bc
       0.032633997 0.0014656265 -0.011732972 -0.010040773
000180 25 90 3b 3d e7 b7 5b 3d 89 55 ec 3d fb d8 96 bc
       0.045791764 0.05364218 0.11539752 -0.018414011
000190 6a 1d 7a bc b9 ee b9 bd cc 27 cc 3d 16 03 90 3d
       -0.015265802 -0.09078736 0.09968528 0.070318386
0001a0 29 e9 78 3d 18 4a 0f 3e b8 dd ca bd c3 5f 0c bd
       0.060769234 0.13993108 -0.09905571 -0.034271013
0001b0 fe 92 78 3d c5 ec bd bd 36 f6 80 bd 06 86 59 3d
       0.060687058 -0.09273676 -0.06296961 0.05310633
0001c0 36 dd 5b bd 98 6a b9 bd 87 14 dd 3d 12 8e 8e 3d
       -0.05367776 -0.09053534 0.10794931 0.069606915
0001d0 12 8c c2 bd 00 0a f7 3d e4 c7 44 bc 80 af f5 3d
       -0.094993725 0.12062454 -0.012010548 0.119963646
0001e0 0d c7 18 bd b9 1b 35 bd 66 19 a3 bc bf 33 e2 3d
       -0.037299205 -0.04421589 -0.019909572 0.11045026
0001f0 12 fa b0 3d f7 b6 a7 bd ea 19 8e 3d 48 2b 9f bc
       0.08641447 -0.08189195 0.069385365 -0.019429818

linear_relu_stack.10.weight f4 [1, 128]
000000 dc 57 03 bd 8c ed 71 3c 6d 91 55 3c 9c c1 53 3d
       -0.03206621 0.014766108 0.0130351605 0.051698312
000010 bb 10 9a bd cd 14 57 3d 3d 80 ac 3d 00 fc 37 3d
       -0.07522722 0.05251007 0.08422897 0.04491806
000020 b8 70 1a bd 56 ba 1c 3d df c4 05 3d 18 c2 7b 3d
       -0.037705153 0.03826364 0.032658454 0.0614644
000030 18 6a 8a bd 32 d0 51 bd ed 87 85 3b cc 8f 77 bd
       -0.06758517 -0.05122394 0.0040750415 -0.06043987
000040 21 b2 3e bd 20 81 03 bd 8d fa 07 bd af 30 5c bd
       -0.046556596 -0.032105565 -0.03319793 -0.053757366
000050 b0 12 0c bd b0 a3 e3 bd e3 f8 50 3d 08 09 36 bd
       -0.03419751 -0.11115205 0.051018607 -0.044442207
000060 36 2b 9a bd b2 7a 5d 3d 80 f9 15 bc 0d 8d b2 bd
       -0.07527773 0.05407209 -0.009153724 -0.087183096
000070 0b 03 38 3d d3 41 60 bd f1 58 9b 3d 16 9e 54 3c
       0.044924777 -0.054750275 0.075853236 0.012977144
000080 4c 0a ab 3c e3 12 ba 3d c1 6f 8b bd 51 f7 c5 bd
       0.020878933 0.090856336 -0.06808425 -0.096663125
000090 cf b5 e6 3c 31 9a d9 bd 25 a9 9d bc 37 71 9f bd
       0.028162865 -0.10625113 -0.019245693 -0.07785266
0000a0 a8 c4 8d bd d9 c5 7c bd 76 91 66 bd 1f f3 96 bc
       -0.06922275 -0.06171212 -0.056291066 -0.018426476
0000b0 40 7c d7 bc ce 37 9e bd b3 7d ac bd ec 6d f3 bc
       -0.026304364 -0.07725488 -0.08422413 -0.0297155
0000c0 41 9d 76 3d 77 46 84 bd 98 e6 19 3d f3 e6 cb bd
       0.060208563 -0.064587526 0.037573427 -0.099561594
0000d0 47 a4 b3 3d 91 7a d1 bc 23 59 7a 3d 93 00 10 3d
       0.08771568 -0.02557114 0.061120164 0.035156798
0000e0 c3 bb 8a bc 34 b7 2f bd 4d 55 63 bd 13 32 c6 bc
       -0.016935235 -0.042899325 -0.05550127 -0.0241938
0000f0 2b 90 9e 3c a8 a9 c4 3d 90 ec 8f bd 1f 9f 5c bc
       0.019355854 0.09602672 -0.070275426 -0.013465672
000100 1f f9 65 3d 9b 52 6b bd 6a 39 a8 3d 24 6f c7 bc
       0.056145784 -0.057451826 0.08214076 -0.024344988
000110 92 02 2c 3d e7 74 df 3c 49 72 88 bd ad 26 ac 3d
       0.04199464 0.027277423 -0.06662423 0.08405814
000120 92 15 91 bd 65 94 ae bd 91 f8 ad 3c 07 22 33 3d
       -0.07084192 -0.08524398 0.02123669 0.043733623
000130 5b a4 20 bd 17 fb 02 bd 9b df a8 bd 0f 82 74 bd
       -0.03921924 -0.03197774 -0.08245774 -0.059694346
000140 96 ae 74 3c 68 8e ac 3d ad db 9b bc 97 12 e7 bc
       0.014934203 0.08425599 -0.019025648 -0.028207107
000150 8a aa 04 3d 6c b4 04 bc c6 3c 6a 3c fa f8 ab 3d
       0.0323892 -0.008099657 0.014296716 0.08397098
000160 e2 f9 95 bd 86 f6 de bc 99 e0 a0 bd 51 92 aa 3b
       -0.07323052 -0.02721716 -0.078553386 0.0052054306
000170 a0 df 85 3d c0 1b b2 3d 16 0e bb 3c 3a 7e 5f 3d
       0.06536794 0.08696699 0.022833865 0.05456374
000180 c0 c6 b8 3d 0e e4 86 bd e8 cb 60 bd 5d bc ba 3d
       0.090222836 -0.06586467 -0.05488196 0.09117959
000190 eb ae 92 3d 93 94 0e 3c 1a b7 96 3d 11 f9 bd bd
       0.07162269 0.008702415 0.073591426 -0.09276021
0001a0 6a 60 87 bc b6 93 08 bd 47 b5 6d 3c 88 d2 c2 3c
       -0.016525466 -0.033343993 0.014508552 0.02378203
0001b0 a7 cd 0f bd f4 39 8d bd 72 58 fc 3c 3d b9 a4 3d
       -0.035108235 -0.06895819 0.030803893 0.08043144
0001c0 b3 74 96 bd e3 49 83 3d 22 40 86 3d 7a 09 97 3d
       -0.07346477 0.06410577 0.06555201 0.073748544
0001d0 8d 82 92 bd 3c 58 49 bd 4a ee c7 3b b6 d8 cc bd
       -0.07153807 -0.049156412 0.0061014043 -0.10002272
0001e0 b2 3e 40 bd 7d 70 0a bd a6 f8 8e bd 5a 87 3a bd
       -0.04693479 -0.033798683 -0.0698102 -0.045539238
0001f0 6f 3c 86 3d 87 ed 59 3c e9 8c db bc 7c 4c 20 bd
       0.065544955 0.01330126 -0.02680059 -0.03913544
