saved_models/model31.pth (torch, 13429 bytes, 9 tensors)

linear_relu_stack.0.weight f4 [4]
00000000: 9a9d 6b3f 8573 5c3f 7f48 3b3f 1094 533f
0.92037356 0.8611377 0.73157495 0.826478

linear_relu_stack.0.bias f4 [4]
00000000: a8c3 623e 3456 fbbd b4fb 533d c062 a93d
0.2214495 -0.12272301 0.051753715 0.08270788

linear_relu_stack.0.running_mean f4 [4]
00000000: b154 c640 b8b2 1941 d312 2443 e232 5740
6.1978383 9.6061325 164.07353 3.3624806

linear_relu_stack.0.running_var f4 [4]
00000000: 1c61 a442 3855 c640 c945 be46 04d7 ba40
82.18967 6.1979027 24354.893 5.838747

linear_relu_stack.1.weight f4 [32, 4]
00000000: af99 63bc 44ff 70bd 1dc0 f8be 0e57 d33c
00000010: 593b 57bf be17 7dbe 99ba 873e 30db d3be
00000020: 207e 77be 7420 8b3e bfe5 853e 8f22 adbe
00000030: 11b7 26bf 429d a6bd 5838 283d 22ba 0cbf
00000040: 1808 1e3e 21c6 37be a256 6d3e b2e5 9e3e
00000050: 0ede 9abc 6391 e2be a82a ae3e dc32 7cbe
00000060: bc1d 02bf 98f6 22be d3c5 b0bd fffc afbe
00000070: c5ce 493e 7479 33be e5e0 d9be e8cd b8be
00000080: d2e4 6f3e b35c edbe 336a 553d 7b1b 3bbd
00000090: dac9 23bf fc45 dabc 6206 f33d 0d3c 10bf
000000a0: 23db 15bf 531a 333e 5d6d fd3d ee87 bebe
000000b0: baa3 40bf e2ac adbd 698e 8f3e fc7e 83be
000000c0: bf07 f93c ab5e 013f 7a92 803e ab07 00bd
000000d0: 8d61 bb3d d64d 093f 21fc 2f3e b48c 463d
000000e0: 888b 593d 3cd1 76be 6ab3 b7be 6a32 dbbc
000000f0: f94d 0dbf c028 653e 8bc1 0cbf 5f31 5e3e
00000100: 189e 2cbf 785c 92be 2689 b5bd 91f8 b5be
00000110: ea52 1fbf dd03 e5bd e688 973d 6a38 39bf
00000120: 0d4f 6f3d 64eb 033f 8d7e f03e 3b1f 2e3e
00000130: 235d 0d3e 9bf0 57be 5662 96be fb4f aa3d
00000140: 1342 b4be 8154 ef3e 02eb 873e b761 dbbe
00000150: 58e0 2b3a 282d ea3e 8b7b 913e c857 10be
00000160: 9191 563d 699e 03be 68f9 683e 4dd5 503e
00000170: 9df8 ccbe e0c9 173f d969 993e b54f 45be
00000180: 5b5a 90be d5e4 cc3e a1fd 3a3e c24a cebe
00000190: f618 b4be 0086 97be 7610 dfbe c8e4 aabe
000001a0: 211f 15bd 7f99 f03d 8066 c13d b41d 89be
000001b0: ec76 3bbf e007 3f38 25cc 853e 3377 81be
000001c0: 2456 0f3d 9b29 f53e d20c a43e 7fa8 2ebd
000001d0: 802c 9abc 88e9 2ebe 09eb 9abe 4904 313e
000001e0: 70a8 e93d a9a5 7ebd 99e5 fbbe 84ae 903d
000001f0: 8656 f5bd 95a4 4abe a0eb a1be c62e fe3c
-0.0138916215 -0.05883719 -0.4858407 0.025798347 -0.8407493 -0.24716088 0.2650955 -0.41378164
-0.24169207 0.27173197 0.26151845 -0.3381543 -0.6512309 -0.08135463 0.04106936 -0.54971516
0.15432775 -0.17946674 0.23177579 0.3103462 -0.018904712 -0.44251546 0.3401692 -0.24628776
-0.5082662 -0.1591438 -0.08631482 -0.34372708 0.19707783 -0.175268 -0.42554393 -0.36094594
0.23427132 -0.46359786 0.052103233 -0.045680504 -0.63979876 -0.0266447 0.11866452 -0.5634163
-0.585375 0.1749051 0.12374375 -0.3721308 -0.75249827 -0.084802404 0.28038338 -0.2568282
0.030399201 0.50535077 0.25111753 -0.031257313 0.09149466 0.53634393 0.17186023 0.04847403
0.053111583 -0.24103254 -0.3587907 -0.026757438 -0.551971 0.22378826 -0.54982823 0.21698521
-0.6742873 -0.28586173 -0.088640496 -0.35541204 -0.6223589 -0.111823775 0.07399158 -0.72351706
0.058424998 0.5153105 0.4697155 0.17004101 0.1380506 -0.21087877 -0.293719 0.08316036
-0.3520666 0.4674416 0.26546484 -0.42847988 0.0006556562 0.45737576 0.28414568 -0.14095986
0.052384917 -0.12853397 0.22751391 0.20393868 -0.40033427 0.5929241 0.29963568 -0.19268687
-0.28193936 0.40018335 0.18260814 -0.4029141 -0.35175294 -0.2959442 -0.43567246 -0.3337767
-0.03640664 0.11748027 0.094433784 -0.26780474 -0.73228335 4.5545283e-05 0.26132312 -0.25286254
0.03499426 0.47883305 0.3204103 -0.04264116 -0.018820047 -0.17081273 -0.30257443 0.17286791
0.1140908 -0.062169705 -0.49198607 0.07064536 -0.11979394 -0.19789346 -0.3162508 0.031028163

linear_relu_stack.1.bias f4 [32]
00000000: 3318 f0bd c2f7 993c 470c 5e3b 59eb 78be
00000010: 0f5c dcbe 5bf0 1bbf bbc3 c7be 8958 3ebf
00000020: f121 87bd 19c5 25be c0f7 b83c 6ac1 563d
00000030: e0f5 323d dd0d 8fbd bc64 173b 2f02 f8be
00000040: f2ff ecbe a0b7 78be 86c7 22bf 615d 02bd
00000050: 91d3 30be 3e6d b13d cbb1 c2be e58e ae3d
00000060: 87e2 acbd 17ca 07bf 766d 90bc 658a 913d
00000070: 3ca1 043e 9ea0 a63d 64ab c2be 2423 f9bc
-0.11723366 0.018794898 0.003388183 -0.24308528 -0.43038985 -0.6091363 -0.39016518 -0.74353844
-0.06598271 -0.16188468 0.022579074 0.052430548 0.043691516 -0.06985066 0.0023100814 -0.48439166
-0.4628902 -0.24288797 -0.635857 -0.031827334 -0.17268206 0.086634144 -0.3802627 0.08523349
-0.08441644 -0.5304274 -0.01763032 0.07106475 0.12952131 0.08136104 -0.38021386 -0.030412264

linear_relu_stack.4.weight f4 [64, 32]
00000000: 6892 fcba e78c e8bd aaa7 c83d 1905 943d
00000010: 6121 afbd d922 41be 0f27 f4bc bd15 16bd
00000020: 43de f0bd 9a86 11be 36a9 0b3e e2e0 183d
00000030: a297 e13d 9f4f c0bd 6be8 cebd 2947 9ebe
00000040: c412 03be d014 053e 29ef 82be f498 c3be
00000050: 97c2 133e 101a 2cbd 23ce 0cbe 24b1 743e
00000060: d09d b63d d56d 2cbe ca64 2b3e b0ee 963c
00000070: 0c1d f9bd 2126 9abe f944 50be af8c 4fbe
00000080: 0c1a 1b3c 47f8 d9be 7675 83be 25f7 03bf
00000090: 2118 febd ba22 e0bd 4a10 2abe c9bb 1e3e
000000a0: a2ba cbbd b59a 85be 7b14 fabd 5907 41be
000000b0: b009 87be f839 0bbf 5cdd 8a3e 3fc5 7d3e
000000c0: 33fc 13be 3131 8ebe b59e b4bd 52ab ca3d
000000d0: 2035 d3bd 81ad 9abd 32dd 433d f6a9 8cbc
000000e0: c274 b3be af56 b0be 61a5 1cbd 222f 75be
000000f0: 8cfe efbd 3a52 a5bc 25a5 053e 8606 f0bd
00000100: 73cf 95bd 6bb1 3ebe 7e58 31bd 58cc a8bd
00000110: b1fc a0be 7942 19be 3216 d43d 6701 9ebb
00000120: bddb 77be f14e cdbd 4cf0 6fbd d0a4 b1bb
00000130: 3db9 153e 024b 853d e2d0 ba3c b67c b13c
00000140: f8d9 6dbe b9d1 b1bd 9359 4e3e cb66 28bd
00000150: 5255 823d d0c4 00be e982 8e3d f220 8abe
00000160: 4393 80bd 8370 b4bd 7568 c7bd 5b35 2bbd
00000170: b3a8 02bd 8a93 0fbe db82 13be 5844 393d
00000180: 80a8 58be 7a59 c8bb c575 3d3e 3cec d4bd
00000190: 0e51 5bbd d225 18be de1b 9dbe 877f 65bd
000001a0: d288 0cbe b2cd ee3d 6021 653d d542 373d
000001b0: 54e9 2a3e 9d93 663e 5897 4cbe 2c0b 04be
000001c0: a49f 15be d97c 6ebd d4ea a5be 8bb5 a13d
000001d0: a9d8 4e3e 891d 7c3e 3280 84bd 2917 853e
000001e0: 46c2 7e3e 6bc2 b2be 5677 633e 47fa 1f3d
000001f0: 609e 393c 04fc 5dbe 6f0e 72be 0f52 acbe
00000200: ad10 23bc 2f8d 71be 7dd0 f0bd b7af b7bd
00000210: 631f 90bd acb6 033d 3b79 4bbd 739a 51bb
00000220: f4d7 9abd da29 c5bd 6f18 7fbe e7ee f9bd
00000230: 5577 9f3d 075a edb8 af37 543d 48ab 403e
00000240: 54e5 80bd 5623 3ebd 1550 c3bd f359 d5bd
00000250: 37b4 cdbd b134 f6bd 4a24 2fbc 9606 063d
00000260: 7c03 00be 93a2 9cbc 6f97 7fbc d054 9bbd
00000270: 899c dabd a276 fbbd abbb 18be cff8 e73c
00000280: 116e b53d 8f4a 41be 2f79 44be 259d 87be
00000290: 9463 e13d f0f5 72be 2b3e 4ebd c771 023d
000002a0: ce95 80bc ee08 39be f167 5bbe d709 83be
000002b0: 725b 05be e8a3 74be a7c1 153e e8e4 8bbd
000002c0: 11e2 38be 4bd9 3cbd 73f1 403c 929f 053c
000002d0: 6169 cabd b0e3 e5bd a1eb 3a3e 202b aebd
000002e0: 598b 0bbe b988 84be 00be 0fbd 14f3 20be
000002f0: 987c e2bd 0891 033e 84e0 e53d 49be cfbb
00000300: 4e4c 2d3e 3f0d 4abd 39c4 bebd c0e5 463e
00000310: 935e 81be cc9a 3cbc 50d3 0cbe b0ce 8e3d
00000320: 389a 79be dbac 5abe d931 1ebe a300 42be
00000330: 386e 26be 9706 43bd d7b0 22bd 1cf8 ecbd
00000340: 3a6b 76bd 586b 6ebd bee6 843d 3895 b7bd
00000350: 232f 52bd b203 a53d 2d4b 0e3e ce1c f7bd
00000360: c6eb fa3d 9df2 123d c62d 003d d1a5 4abe
00000370: 3fdd b53d cfe2 8a3c 8fd0 7ebd 49b1 04be
00000380: 490c 7fbd d771 89bd 262e dc3d 0124 b53e
00000390: f91d 53be 08da 813e 6476 153d d6b4 1c3c
000003a0: 5f73 5bbd c813 0d3e 39de ef3d 7b55 263e
000003b0: 398a 853d 709f afbd 749e d8bd 377a 8ebd
000003c0: cf26 8a3e c16d 503e f83b 4cbe 7e4a 19be
000003d0: ab84 fb3c c1f7 1e3e 084e 6abe eff1 3e3e
000003e0: faf2 0c3e 87f1 863e 44e6 133e d5a2 c93d
000003f0: 1495 d1bd 3ee7 91bc 5a80 b6bc b542 1abe
-0.0019269707 -0.11355 0.097976044 0.07227535 -0.085512884 -0.1886095 -0.02980378 -0.036641825
-0.11761143 -0.14211503 0.13638768 0.03732384 0.1101525 -0.093901865 -0.10102924 -0.30913666
-0.12800127 0.1299622 -0.2557309 -0.3820263 0.14429699 -0.042017043 -0.1375051 0.23895699
0.08916819 -0.16838773 0.16737667 0.018424362 -0.121637434 -0.30107215 -0.20338811 -0.2026851
0.009466659 -0.42572233 -0.25675553 -0.5154899 -0.12406946 -0.109441236 -0.16607776 0.15501322
-0.09947707 -0.26094595 -0.122109376 -0.18850459 -0.26374578 -0.5438533 0.2712201 0.24782275
-0.14451675 -0.27771905 -0.088193335 0.09895958 -0.10312867 -0.075526245 0.04781837 -0.017170887
-0.35050017 -0.34441134 -0.038243655 -0.23943761 -0.11718473 -0.02018081 0.13051279 -0.11719994
-0.073149584 -0.18622367 -0.043297283 -0.082421005 -0.31442788 -0.14966764 0.10355796 -0.0048219445
-0.24204917 -0.100248225 -0.058578774 -0.0054212585 0.14621444 0.06508447 0.022804681 0.021665912
-0.2322768 -0.086825795 0.20151357 -0.041113656 0.0636393 -0.12575078 0.06958563 -0.2697826
-0.06278088 -0.088105224 -0.097367205 -0.04179893 -0.031899165 -0.14021125 -0.14405386 0.045231193
-0.21158028 -0.006114182 0.18501957 -0.10396621 -0.053544097 -0.14858177 -0.30685323 -0.056029823
-0.13724068 0.11660327 0.055940032 0.04474147 0.1669057 0.22517247 -0.19979608 -0.12894887
-0.1461168 -0.058224533 -0.32405722 0.07895955 0.20199837 0.24620642 -0.06469764 0.25994232
0.24878797 -0.34913954 0.22213492 0.039057042 0.011329263 -0.21678168 -0.23638318 -0.33656356
-0.009952706 -0.23589014 -0.11758516 -0.08969062 -0.070372365 0.03215663 -0.04967616 -0.0031982928
-0.07560721 -0.09627123 -0.24911664 -0.1220377 0.07786433 -0.000113178095 0.051810917 0.18815339
-0.06293741 -0.046420418 -0.09536759 -0.10417547 -0.10044139 -0.12021769 -0.010689804 0.032721125
-0.12501329 -0.01912049 -0.015600069 -0.07584536 -0.10674388 -0.12278487 -0.1491534 0.028316883
0.08858884 -0.18876098 -0.19186853 -0.2648708 0.11005321 -0.2372663 -0.050352257 0.031846788
-0.015696432 -0.18069813 -0.21426369 -0.25593445 -0.13023165 -0.2389065 0.14624654 -0.0683077
-0.18054987 -0.046105664 0.011776316 0.00815572 -0.09883381 -0.112250686 0.18253948 -0.08504319
-0.13627376 -0.2588556 -0.035093307 -0.15717727 -0.110589206 0.12848294 0.112244636 -0.0063398224
0.16923639 -0.04932904 -0.0931477 0.1942358 -0.25267467 -0.011511516 -0.13752484 0.06973016
-0.24375236 -0.21355002 -0.15448703 -0.18945555 -0.16252983 -0.047613706 -0.03971943 -0.115707606
-0.060160853 -0.05820784 0.06489323 -0.08964008 -0.051314484 0.080573454 0.13895865 -0.12066041
0.122520015 0.035875905 0.031293653 -0.19789816 0.0888009 0.016953854 -0.062210616 -0.12958254
-0.062267575 -0.06711166 0.107509896 0.3537903 -0.20616902 0.25361657 0.03648986 0.009564599
-0.053576823 0.13777077 0.117123075 0.16243546 0.065205045 -0.08575332 -0.105770975 -0.069569044
0.26982734 0.20354368 -0.19944751 -0.14969823 0.03070291 0.15524198 -0.22881329 0.18646978
0.13764563 0.26356146 0.14443308 0.09845511 -0.102335125 -0.01781046 -0.022278 -0.15064509

linear_relu_stack.4.bias f4 [64]
00000000: 5195 623d 3427 4b3e 6857 0bbe 6ffc 2b3e
00000010: f9e8 71be 81b4 7b3e e473 85be cabf 983c
00000020: 82c7 803e 27e1 503d 5e2b 7f3d 3abe 37be
00000030: a215 6a3e 515e 67bc 3fb6 8b3e 0d68 923e
00000040: d3d0 b2be ca1e 94be 6f32 d33d 1cad b5bb
00000050: 69af 42be de85 8bbe a19a 593e 5e57 5bbe
00000060: 9d5b d7be a175 a83e f46e 8d3d ae70 1ebe
00000070: dd26 f3bc 03a5 fcbd 20f3 873e 403f 1a3e
00000080: 68a6 d33d 914c b73d ff58 523e bf4d 9e3e
00000090: 0d92 1c3e 018c 79be 7e27 68bd a0b2 1cbe
000000a0: 0ee0 3bbe 9849 553e f33d 843e b2c3 853d
000000b0: 253c 06bd a4b7 053e 7c33 16be 8d9d 643e
000000c0: a15d 423e 84a0 53be 6d5e 9ebe 76e2 0a3e
000000d0: 885c 97be 597d dfbd 84dc dc3e d85e 433e
000000e0: 529a 68be 6412 70be e899 a63d 739b bd3e
000000f0: 40a2 583c 996e c33e 0e9f 8d3e 6eae 95bd
0.05531818 0.19839174 -0.13607562 0.16795515 -0.23624028 0.24580576 -0.2606498 0.01864614
0.25152212 0.050995972 0.062297218 -0.1794366 0.22859815 -0.014121608 0.2728748 0.2859501
-0.34924945 -0.2892974 0.10312354 -0.005544318 -0.19012226 -0.2725057 0.21250392 -0.21420047
-0.42062083 0.32902244 0.06905928 -0.15472671 -0.029681617 -0.12336161 0.26552677 0.1506319
0.10334474 0.08950151 0.20541762 0.3091869 0.15290089 -0.24369814 -0.056678288 -0.15302515
-0.18347189 0.20828855 0.25828514 0.065314665 -0.032772202 0.13058335 -0.14668077 0.22325726
0.18981029 -0.206667 -0.30931416 0.1356295 -0.29562783 -0.1091258 0.4313699 0.19079149
-0.22715119 -0.23444515 0.08134824 0.3703266 0.013222277 0.38170317 0.27660412 -0.073086604

linear_relu_stack.7.weight f4 [1, 64]
00000000: 620f e2bc ce78 b43d 6947 8f3c 7186 b0bd
00000010: 0353 173c 8177 b53d 5469 183d 9c0c ebbc
00000020: a84a babd ae50 773c 4741 97bd 82a0 70bd
00000030: 96d8 353e db1a 75bd 3f2c 323e 9f8c 033e
00000040: f8e2 6cbd 6f08 a83b b4a1 debd 1c1b 2dbd
00000050: 1aee 96bd 06aa 05be 6c59 493d 3f2a b8bd
00000060: b6fd 1dbd fc0d f43d e866 0cbd 8f85 b0bc
00000070: 0c5a f1bc a7ce 09bd 4bd4 a4bd d036 97bd
00000080: 19c7 04bd 6287 0abd b178 cc3d 9e48 123e
00000090: 1d30 8a3d 56eb 47bc ad2c 27bd 6d01 a03d
000000a0: 3d0f a1bb 9ec1 b9bd 9994 bdbd e1da bcbd
000000b0: 100a 433c 6efb 923d b1fe 99bc cf1e 0b3d
000000c0: 35b1 aabd d3ba 62bc 7193 31bd ec98 9dbd
000000d0: 2d09 693c f48a b73d 026b fe3d 7d18 93bd
000000e0: 39fe abbc 0a20 c9bd 7b94 12bd fc3a 143e
000000f0: e68c ee3d 2668 073e 375c f03d 3d60 3dbd
-0.027595226 0.08812104 0.017490106 -0.08619393 0.0092361 0.08860684 0.037209824 -0.028692536
-0.09096271 0.015094919 -0.073854975 -0.058746822 0.17758402 -0.059840064 0.17399691 0.12846611
-0.05783364 0.0051279585 -0.10870686 -0.04226218 -0.07369633 -0.1305314 0.049157545 -0.08992433
-0.038572036 0.1191673 -0.034277827 -0.02154806 -0.029461883 -0.033644345 -0.08048304 -0.073835015
-0.032416437 -0.033820517 0.099839576 0.14285514 0.06747458 -0.012202105 -0.04081409 0.07812772
-0.0049151466 -0.09070133 -0.092568584 -0.09221435 0.011904255 0.07176863 -0.018798204 0.03396493
-0.08334581 -0.013838488 -0.0433535 -0.07695183 0.014223379 0.0896205 0.12422754 -0.07182405
-0.020995246 -0.09820564 -0.035786133 0.14475626 0.11647968 0.13223323 0.117363386 -0.046234358
