saved_models/model20.pth (torch, 13429 bytes, 9 tensors)

linear_relu_stack.0.weight f4 [4]
000000 0d 26 6b 3f 46 74 7f 3f c2 3c 77 3f 94 c4 5b 3f
       0.91854936 0.99786794 0.96577084 0.8584683

linear_relu_stack.0.bias f4 [4]
000000 4b 8a 79 3e d5 70 2b 3e 6c 4e 90 bb 00 cb 18 3e
       0.24369161 0.16742261 -0.00440388 0.14921188

linear_relu_stack.0.running_mean f4 [4]
000000 85 6a b6 40 a6 ab 1a 41 a7 09 23 43 5f ed 56 40
       5.700503 9.666906 163.0377 3.358238

linear_relu_stack.0.running_var f4 [4]
000000 99 90 51 42 49 f8 be 40 43 9f a4 46 68 3a b3 40
       52.39121 5.9678082 21071.63 5.6008797

linear_relu_stack.1.weight f4 [32, 4]
000000 11 11 b5 3e 9a 01 2e be d7 87 01 be 59 81 bd 3c
       0.35364583 -0.16992798 -0.12649475 0.023132967
000010 d6 2c 90 bd b1 7d ec 3e de 40 78 3e aa ab 16 be
       -0.07039802 0.46189645 0.24243495 -0.14713922
000020 e9 3a ce be a1 3b 59 3c af c0 4b 3e 2a 51 8b be
       -0.4027932 0.013258846 0.19897722 -0.2721036
000030 7a 1f 14 bf ac b0 02 3e 9e a5 56 3e f4 3e 0b bf
       -0.5786053 0.12762707 0.20961615 -0.54392934
000040 aa 50 b5 be 71 36 ad bd 8d 49 a6 be c5 48 aa be
       -0.35413104 -0.084576495 -0.3247799 -0.33258644
000050 70 67 62 be 92 99 43 be 14 ea cb 3d c9 25 12 bf
       -0.22109771 -0.19101551 0.09956756 -0.57088906
000060 6d a0 ec bc f5 30 94 3e e7 98 57 3d f4 36 2f be
       -0.02888509 0.289436 0.052636053 -0.17110807
000070 30 73 1f 3e 33 1c f0 bc 43 51 2e bf 8f b8 99 bd
       0.15571284 -0.029310321 -0.68092746 -0.07505905
000080 18 8e 17 bf b5 12 f1 bc 0d 14 4f 3e 40 f9 c4 bd
       -0.5920119 -0.029427866 0.20222493 -0.09617853
000090 99 ba d9 be ad 2a b2 3d 0d 25 be 3d 55 79 b1 be
       -0.42525175 0.08699546 0.092844106 -0.34662881
0000a0 29 a6 ea be 64 06 b3 bc 9a fb 3b 3e 1e 8a 20 bf
       -0.45829895 -0.021853633 0.18357697 -0.6271075
0000b0 50 e7 01 bf f8 d1 2f 3e 31 0e 68 bd e3 15 42 3e
       -0.5074358 0.1716994 -0.05665416 0.18953662
0000c0 14 4b 0d bf 4f 53 9a 3e 44 34 50 3e 51 45 af bc
       -0.55192685 0.30141684 0.20332438 -0.021395357
0000d0 5c 26 7a 3e 0a 02 be be 6c 54 25 3e ed 88 8a 3e
       0.24428695 -0.3711093 0.16145486 0.2705759
0000e0 e1 f8 5a 3d 7d ac a9 3c c5 56 53 3e 0d 1e c2 3e
       0.053460006 0.020712132 0.20638569 0.37913552
0000f0 f7 6d 56 3e d7 15 fb 3e 22 40 aa bd bb 60 58 3e
       0.20940386 0.490401 -0.083130136 0.2113065
000100 b2 23 0e be 47 51 e7 3e 3d 01 96 3e 5c 13 ae be
       -0.13880804 0.45179197 0.2929782 -0.33999145
000110 24 6e eb 3d a8 fe 09 3f 2e 64 8e 3d c9 37 64 3d
       0.11495617 0.539042 0.069527015 0.055717263
000120 b6 ae 20 3e c3 92 fa 3c 9f 0c 1f bf ea 80 82 3e
       0.15691647 0.03058756 -0.62128633 0.2548898
000130 a6 e0 ae be 6e 72 b2 3e bc 58 3a 3e ec 2e cf bd
       -0.34155768 0.34852928 0.18197912 -0.101163715
000140 fc d5 d9 be 32 09 d3 bd 6d f2 d3 be 9b 21 c4 be
       -0.4254607 -0.10304488 -0.41395894 -0.3830689
000150 b2 1c 6e 3d 13 2e 9e be e6 43 8e 3e ab 5f d3 3e
       0.058132835 -0.30894527 0.27786177 0.41283926
000160 04 93 16 bf 7f e3 13 3f f4 ea cf 3a 2d cd 24 be
       -0.5881808 0.57769006 0.0015862868 -0.16093893
000170 e6 21 a5 3d 1e 8b f0 3c 98 81 c1 be f5 ca 88 3d
       0.08063106 0.029363211 -0.37794185 0.06679336
000180 bc ee 4d be 1d f0 24 3d 55 37 39 be 70 2d 98 3e
       -0.20110601 0.040268052 -0.18087514 0.29722166
000190 70 a8 8e be 4b 08 7c bd f7 c6 5c 3e 57 36 c1 be
       -0.27862883 -0.061531346 0.21560274 -0.3773677
0001a0 37 c5 4e be 34 cb ef 3e 5b 9e 71 3e 8d a5 88 be
       -0.20192419 0.4683472 0.23595564 -0.26688805
0001b0 66 57 c3 be 54 ce 93 3e 8a 17 fb 3d 51 e0 ce be
       -0.38152617 0.28868353 0.12260349 -0.40405515
0001c0 c7 52 b4 3d 91 5b 5f be f6 f7 37 bd e3 fe c3 3e
       0.08804851 -0.21812274 -0.04491421 0.382804
0001d0 4b 3b 27 3d 24 05 90 be 91 24 5d 3e 5a ba 30 3e
       0.04082803 -0.28128922 0.2159598 0.17258587
0001e0 16 ac b1 be b1 d3 09 3e b6 82 1e 3e 73 7a ee 3e
       -0.34701604 0.1345966 0.1547955 0.46577796
0001f0 aa 40 ab 3e 78 0c e7 bd 28 d0 24 bf 53 48 bc be
       0.33447772 -0.11281675 -0.6438012 -0.3677393

linear_relu_stack.1.bias f4 [32]
000000 d5 c5 8a be 88 89 43 bd 1c a8 99 3e 46 a3 d5 be
       -0.2710406 -0.047738582 0.3001107 -0.4172613
000010 ed ca 00 bf 82 de 88 be 84 ac 66 3e f8 d8 3c be
       -0.5030964 -0.2673226 0.22526747 -0.18442142
000020 5a 11 23 3e fc 50 ea ba 90 df 2f be b3 2d 53 bd
       0.15924588 -0.0017876918 -0.17175126 -0.051557254
000030 33 26 a4 bd 09 9a ca be c8 b8 9c bd 9e cd 07 bf
       -0.080150984 -0.39570644 -0.07652432 -0.5304812
000040 20 e0 80 3d 5c 3a 74 be c9 73 af be ae f5 ab 3d
       0.062927485 -0.23850387 -0.34268025 0.08396469
000050 17 ec 14 bf b0 f0 26 bf 7e 24 46 be cd 38 ce bd
       -0.58172745 -0.6521101 -0.19349858 -0.10069428
000060 a6 1e e7 be c2 cb 27 3e f4 c4 85 bc 74 38 fb bc
       -0.4514057 0.16386321 -0.016329266 -0.030666567
000070 da ff 8b 3e fd ec 7a be 4d 24 88 be 74 14 05 bf
       0.27343637 -0.24504466 -0.26590195 -0.51984334

linear_relu_stack.4.weight f4 [64, 32]
000000 0b a4 58 3e 62 65 81 3e 96 d7 f0 3d 65 b7 1b 3e
       0.21156327 0.2527266 0.1175987 0.15206678
000010 13 dc 21 3e aa 4a 03 3e 9b 28 56 3d b3 4e d0 3d
       0.15806608 0.12821451 0.05228482 0.10171261
000020 3f 19 50 3d e1 3a 5a bd 46 2c 84 3e 2a 63 c5 bd
       0.050805327 -0.053278808 0.25815028 -0.09638055
000030 07 8a 29 3e 1d 93 78 bd d6 c6 a9 3d f1 2e a1 3c
       0.1655656 -0.060687173 0.08289878 0.019675704
000040 b1 38 ee 3b 9b a5 91 3d 38 a0 fc bd 7e d1 38 3e
       0.0072699417 0.07111665 -0.12335247 0.18048665
000050 d4 49 89 3d 0e 87 33 be 60 5c 4b bd d9 5c 88 bc
       0.06703535 -0.17531988 -0.049648643 -0.016645836
000060 e2 dc 20 be 1d 8b e8 3d 72 f2 37 bd a4 34 13 3e
       -0.1570926 0.11354659 -0.04490895 0.1437555
000070 ae b2 bb bd 35 09 f0 bd fe 2e ad be 27 92 27 3d
       -0.0916494 -0.11720506 -0.33824915 0.040910866
000080 fc b7 3b bd e6 d1 53 be 2b a2 39 3d 07 77 4e bd
       -0.045829758 -0.20685539 0.04532067 -0.050406482
000090 7f d1 0e be 17 5b cd bd df bd 41 3d 6d 4f 18 3e
       -0.13947104 -0.1002714 0.047300216 0.14874049
0000a0 1a 81 61 bd 1b 35 a5 3d 07 6c 81 be 68 45 6e bc
       -0.05505476 0.0806677 -0.2527773 -0.014542915
0000b0 45 ea 70 3d 4b 31 94 be aa 06 84 bd 71 82 86 bc
       0.058817167 -0.28943858 -0.064465836 -0.016419621
0000c0 a2 1f 0c be 08 4c a5 be 6e 97 50 be 29 52 74 bd
       -0.13683942 -0.3228457 -0.20370266 -0.059648667
0000d0 c3 8e 86 be 0e e2 2c 3d 0f 83 71 be d3 06 80 3c
       -0.26280794 0.04220777 -0.23585151 0.015628254
0000e0 79 89 8c 3d a5 8c 8e bd 57 be f8 bd 87 8c 1b be
       0.06862158 -0.069604196 -0.121456794 -0.15190326
0000f0 72 5d 10 3c d1 b4 d1 3d 92 fc 8c 3d f7 53 21 3e
       0.008811342 0.10239566 0.068841115 0.15754686
000100 04 27 21 3e 06 ee f6 be 6f e9 46 be 0a 63 e2 be
       0.1573754 -0.48228472 -0.19424985 -0.44216186
000110 b1 7d 4f be 25 5f ac be 60 5b 4b be b3 4a 79 3e
       -0.20262791 -0.3366634 -0.19859076 0.24344902
000120 bc a6 2d bd 45 9f 12 be 23 76 67 be 88 a0 07 3e
       -0.04239534 -0.14318569 -0.2260366 0.13244832
000130 f8 1f 52 be ad ea 95 bd 9b 06 93 3d c0 44 bf bd
       -0.20520008 -0.073201515 0.07178994 -0.09339285
000140 d6 d0 7f be 8d 54 71 bd e7 45 55 3e f9 53 da bd
       -0.24982008 -0.058918525 0.20827447 -0.10660548
000150 82 4f 6d be a2 3c 4c be 65 16 3b be 09 e3 af 3c
       -0.23174861 -0.19945005 -0.18270262 0.021470563
000160 e0 5a b2 bd 6f d8 99 be c9 9d 43 be 64 08 91 be
       -0.08708739 -0.30047938 -0.19103159 -0.28326714
000170 5b b7 b9 bd 2a 9b 33 be 4b ec 44 3e 5f 66 9e 3d
       -0.090681754 -0.17539659 0.19230764 0.077343695
000180 12 b4 75 3e 31 76 45 be 83 24 e8 3d 34 52 0b 3c
       0.23994473 -0.19283368 0.11335089 0.0085034855
000190 20 95 af bc ca 57 9b bd 41 31 81 be 7e 76 d8 3c
       -0.021433413 -0.07585104 -0.2523289 0.026423689
0001a0 63 f6 61 be bd 91 0e 3d 0d 37 1a 3e d7 84 6a bd
       -0.22066645 0.034806956 0.15060063 -0.057255592
0001b0 6d ed da bd 1c 5f 3c 3e be 39 5d bd 73 43 c6 3d
       -0.106898166 0.18395656 -0.054010145 0.09680834
0001c0 e4 cf 2e be 88 b2 87 bd a6 ca b3 bd 76 51 30 3e
       -0.17071491 -0.06625849 -0.087788865 0.17218575
0001d0 50 2a fc bd 58 15 24 be 96 a6 2c be c4 14 34 be
       -0.12312758 -0.16023767 -0.16860422 -0.17586046
0001e0 71 47 3b bc c9 fa a6 be a6 17 a2 3e 00 bb ad 3c
       -0.011430607 -0.3261321 0.31658667 0.021207333
0001f0 01 bd 8d bd 70 5d 0a 3e 77 c0 96 be 74 a0 58 3c
       -0.06920815 0.13512206 -0.29443714 0.013221849
000200 69 e2 00 3e 81 a4 97 be da 65 4f be 93 06 c8 bd
       0.12586369 -0.29617694 -0.20253697 -0.09766879
000210 81 d0 2c be 95 37 90 3c 50 37 82 be 58 6d b9 3d
       -0.16876413 0.017604629 -0.25432825 0.09054059
000220 2a 69 89 be ed 60 ee bd dd 67 6a be 12 83 53 be
       -0.26838046 -0.11639581 -0.22891183 -0.20655468
000230 5a 1d d5 be d8 7b c3 3b 00 ce cb bd 6f 21 80 be
       -0.41623956 0.005965691 -0.09951401 -0.25025508
000240 bb 29 33 be 3c 26 f8 bd 36 3c 08 3e 91 4d b1 be
       -0.17496388 -0.12116668 0.13304219 -0.3462949
000250 41 3f 83 bd 1d 0a 20 be 98 34 97 be eb e4 a7 3d
       -0.06408549 -0.15628858 -0.29532313 0.081979595
000260 af f1 9b 3d a1 a5 9d be 7f 92 04 be 6d 66 53 be
       0.07614457 -0.30790427 -0.12946509 -0.20644541
000270 92 b0 37 bc f4 81 70 bd b4 53 8e bd 60 66 c9 bd
       -0.011211531 -0.058717683 -0.06949559 -0.098339796
000280 e4 a2 3a 3d 5b 6e 60 be 96 bd 53 bd 23 aa 1b bd
       0.0455655 -0.21917097 -0.051694475 -0.038004052
000290 6a 88 6b be 1e d9 23 be 26 a5 a9 bd 52 4c 23 3d
       -0.23001257 -0.16000792 -0.08283453 0.039867707
0002a0 1d 0a a4 be 09 b7 34 be 40 68 e2 bc 87 4c 21 be
       -0.32038966 -0.17647947 -0.0276376 -0.15751849
0002b0 5d 11 a7 bd fd 44 8a be 62 ae 85 be 80 5b db be
       -0.08157609 -0.2700576 -0.26109606 -0.42843246
0002c0 28 43 9f bc 4c 03 90 bd 9a 9e 3b be 06 a6 43 be
       -0.019441202 -0.07031879 -0.1832222 -0.19106302
0002d0 78 fa e2 be 7f e9 d7 bd 88 4e 19 be d4 87 7b 3e
       -0.44331717 -0.10542583 -0.14971364 0.24563533
0002e0 1c fd 06 3e ac f5 45 be ae ad 26 be 41 57 89 bd
       0.13182491 -0.19331998 -0.16277191 -0.067060955
0002f0 33 5e 0f be 3f 75 ad be c9 70 95 be 46 b0 76 3e
       -0.14000778 -0.33878514 -0.2918761 0.2409068
000300 cb 3e e0 3c 2a 9f 2f bb 3f 1d 8e 3e 02 be e7 3c
       0.027373692 -0.002679775 0.27756688 0.028288845
000310 be 7e c3 3d 33 50 f6 bc 1e 57 5d bd 29 50 14 be
       0.095456585 -0.030067539 -0.05403816 -0.14483704
000320 c5 c9 62 be 73 59 c0 bd 97 59 1c 3e 14 21 80 3d
       -0.22147281 -0.09392061 0.15268551 0.06256309
000330 ef 5b 46 3d 60 56 80 bc 8b 5a ab bd ac e5 a4 be
       0.04842752 -0.015666187 -0.08366879 -0.32206476
000340 e8 fb 8c 3c 25 91 8f 3e 34 8a 18 be f8 96 30 3e
       0.017209962 0.28040424 -0.1489647 0.1724509
000350 5a 26 57 3e cf f8 d7 be 06 b3 48 be 6d 08 b5 be
       0.21010724 -0.42182013 -0.19599542 -0.3535799
000360 46 20 33 be 9b b4 7a be 61 fb ba be f1 ef 3b bd
       -0.1749278 -0.24482958 -0.36519912 -0.045883123
000370 6e 24 88 be 06 55 76 be 4e 45 9a 3d 2c 79 8b be
       -0.26590294 -0.24055871 0.0753275 -0.27240884
000380 5d ee 3d bd 05 92 49 3d b7 49 fc bc a7 f4 33 be
       -0.0463699 0.04921152 -0.030796869 -0.17573796
000390 3c 57 d1 3e 6c 3d 5e 3e a1 34 16 be 51 b5 50 bd
       0.40886867 0.21703118 -0.14668514 -0.050954167
0003a0 9d 34 76 3e 23 8a 5d 3c 62 28 83 3e 71 c8 ff 3c
       0.24043508 0.013521704 0.25616747 0.031223508
0003b0 72 6a fa bb 41 44 9f 3d b8 36 c5 be 75 33 ff 3c
       -0.007642084 0.0777669 -0.3851831 0.031152466
0003c0 aa 88 fa 3d 86 f1 ae bd 1d dc 26 be 99 7b fc 3c
       0.12233098 -0.08542161 -0.16294904 0.030820655
0003d0 7a 98 a1 3e a0 5b 1b be 4d 15 93 3e a2 0d 67 bc
       0.31561643 -0.15171671 0.2872719 -0.014102371
0003e0 c6 0e 15 3e 26 75 51 3d 14 47 24 be 8f 7e 8e bd
       0.14556417 0.051137112 -0.16042739 -0.06957733
0003f0 d1 d7 91 be cb aa 8a be 09 78 85 be c0 11 1c 3d
       -0.28484967 -0.2708343 -0.26068142 0.038102865

linear_relu_stack.4.bias f4 [64]
000000 dc 19 b4 bd ea a6 ae 3d e2 26 b1 3e 75 ab 84 be
       -0.08793995 0.0852793 0.34599978 -0.2591206
000010 2d e3 cb 3e 8d f0 23 3e 9f 0d c7 bd 03 cc b0 bc
       0.3982176 0.16009732 -0.09719395 -0.021581655
000020 99 08 31 3e 20 57 25 3e 55 12 da bd 74 86 b1 3d
       0.17288436 0.16146517 -0.10648028 0.08668223
000030 b5 6c 40 be 30 41 83 3e 8e 84 0f be de 7e e0 3e
       -0.18791468 0.25635672 -0.1401541 0.43846792
000040 38 90 18 bd f2 03 c2 3d 1d da 5e be 78 3a 9c be
       -0.037246913 0.09473409 -0.21762891 -0.30513358
000050 19 42 fd 3c a8 f8 0c be 17 e8 88 3e 51 c8 19 3e
       0.030915307 -0.1376673 0.2673957 0.15017821
000060 19 03 4c bd f7 0d aa 3e b3 9c 5c bd 6c e5 d5 3d
       -0.04980764 0.3321378 -0.053860378 0.104441494
000070 19 34 21 3c 63 3b ba bd f6 28 c5 3d 98 2d af 3e
       0.009839081 -0.09093358 0.09626953 0.34214473
000080 6b 1c 53 bd 44 34 47 3e 03 f8 12 3d 01 5b ad 3e
       -0.051540773 0.19453532 0.035881054 0.33858493
000090 ba 45 2d 3e e8 51 d2 3d 9e c9 92 3e b3 7f 7a be
       0.1692113 0.102695286 0.28669447 -0.24462776
0000a0 9f d7 88 be 4b 9c ac be 2d 8f 08 3e 1f f0 06 3d
       -0.26727006 -0.33712992 0.13335867 0.03294384
0000b0 c1 c8 3b be eb 03 32 be c5 c8 ad 3d 69 59 07 3d
       -0.183383 -0.17384307 0.084855594 0.033044253
0000c0 83 f5 9a bd 29 3d 62 3d f1 75 e1 3d 25 62 47 3d
       -0.07566359 0.055234108 0.11008824 0.048677582
0000d0 56 4f f8 3d b8 bf ce 3c a6 19 64 3e dd ca cf bc
       0.12124507 0.025237903 0.22275409 -0.025365287
0000e0 ab 33 16 3e 98 f3 90 bd b8 51 3d bd e4 18 03 bd
       0.14668147 -0.07077712 -0.04622051 -0.03200616
0000f0 11 31 01 be 40 32 63 3e 2d 6d ae 3e 1e 06 21 3d
       -0.12616374 0.22187138 0.3406767 0.039312474

linear_relu_stack.7.weight f4 [1, 64]
000000 b4 67 49 bd 64 5b 7a 3d 2a 3c 22 3e 00 f6 96 bd
       -0.049171165 0.061122313 0.15843263 -0.073711395
000010 2e 4f 13 3e f1 2b 03 3e 27 cd 4c bd 7e f0 e7 bd
       0.14385673 0.12809731 -0.050000336 -0.11325167
000020 01 de f4 3d 9f b4 d1 3d 5d 09 a3 bd 2b 79 6a 3d
       0.119564064 0.10239529 -0.0796077 0.05724446
000030 af 92 53 3d 81 ef 9d 3d b4 07 e4 bc 66 7a 74 3e
       0.05165356 0.07711697 -0.027835704 0.23874816
000040 da b9 9d bc 5a 1d 01 3e f6 c3 59 3d de 99 59 3d
       -0.01925366 0.12608853 0.0531654 0.053125255
000050 92 a7 78 bd f4 d8 78 bc e6 69 b1 3d 6a b6 6c bd
       -0.060706683 -0.015188444 0.08662777 -0.05779115
000060 ee fa 09 be 3a b5 15 3e 7a 80 45 3d 5a 78 90 bd
       -0.13474628 0.14619914 0.048218228 -0.07054205
000070 2d 2e 3b bd 7b c4 89 bd 8f 58 e3 bd a1 0a 23 3e
       -0.045698334 -0.06726929 -0.111008756 0.15922023
000080 b0 e0 67 3d d4 2b 9d 3d 50 09 68 bd 56 a1 dd 3d
       0.056610763 0.07674375 -0.056649506 0.10821788
000090 0b c0 bd 3d 22 7c 67 3d d0 71 1b 3e 93 e4 c2 ba
       0.09265145 0.056514867 0.15180135 -0.0014869146
0000a0 5e 4f 88 ba 98 57 09 bd 4e 49 88 3d a7 96 d1 bd
       -0.001039963 -0.0335308 0.06654607 -0.10233813
0000b0 42 aa 95 3d 2f 52 42 bc de ec c9 3d 16 ca 24 bd
       0.07307865 -0.011860414 0.09859632 -0.040231787
0000c0 ae 14 3e bd 2e 91 50 bd 91 a1 01 be fc de 96 bd
       -0.04640644 -0.050919704 -0.12659289 -0.0736675
0000d0 93 4f cd 3d be 91 d7 3c 7a dd 86 3d fc 3f bc bd
       0.10024943 0.026314612 0.06585212 -0.091918916
0000e0 05 0b 1f 3d 52 c3 67 bd 1e e4 23 bd 3b 43 f2 bd
       0.03882887 -0.056582756 -0.04001247 -0.118292294
0000f0 17 0d 81 bd 76 54 ac 3d c8 98 f6 3d 29 cb 38 bd
       -0.06301325 0.08414547 0.120408595 -0.045115624
