saved_models/model80.pth (torch, 47599 bytes, 11 tensors)

linear_relu_stack.0.weight f4 [4]
0	0x3f8476be	1.0348737
1	0x3f8382cb	1.027429
2	0x3f5c1c81	0.85980994
3	0x3f829e1f	1.0204505

linear_relu_stack.0.bias f4 [4]
0	0x3e135527	0.14387952
1	0x3aae5eb6	0.0013303373
2	0xbe07d1c1	-0.13263609
3	0x3c5ab503	0.013348821

linear_relu_stack.0.running_mean f4 [4]
0	0x40c35059	6.103558
1	0x411ab0bd	9.668149
2	0x431e346e	158.2048
3	0x4056ed73	3.3582428

linear_relu_stack.0.running_var f4 [4]
0	0x42730dec	60.763596
1	0x40c647e7	6.196277
2	0x46acb4e5	22106.447
3	0x40b00e2f	5.5017314

linear_relu_stack.1.weight f4 [32, 4]
0	0xbdd5ed10	-0.10445607
1	0x3e945e4c	0.28978193
2	0x3e12f176	0.14349923
3	0xbeb8a5ac	-0.36063898
4	0xbc2d6861	-0.010583968
5	0x3edec32f	0.43508288
6	0x3df8f7b6	0.12156622
7	0xbd92f050	-0.07174742
8	0xbebb5430	-0.36587667
9	0x3e4dd679	0.20101346
10	0xbddea8b6	-0.10872023
11	0xbf0500d3	-0.5195438
12	0x3eab0ac2	0.33406645
13	0xbee6ccb0	-0.4507804
14	0xbd601dc3	-0.054715883
15	0xbef3bf9b	-0.4760712
16	0x3e873760	0.26409435
17	0xbdc717b8	-0.09721321
18	0x3bdcf368	0.0067428835
19	0x3eb221d6	0.3479144
20	0x3e8ddc1b	0.2770699
21	0xbe98b6e4	-0.29827034
22	0xbed80986	-0.42194766
23	0xbcab1b95	-0.020887176
24	0xbf1e3e27	-0.61813587
25	0xbec4ede3	-0.38462743
26	0x3eac7867	0.3368561
27	0x3bd62e74	0.0065362994
28	0xbec27776	-0.37981766
29	0xbe92b4c8	-0.2865355
30	0x3ed6088c	0.41803396
31	0xbf11eafc	-0.5699918
32	0x3e4ca394	0.19984275
33	0xbeaf5238	-0.34242415
34	0x3e61c967	0.22049485
35	0x3de75300	0.11295128
36	0xbccc4392	-0.024934564
37	0xbe5c5ce2	-0.21519807
38	0x3edcb903	0.43109903
39	0xbd846bb0	-0.06465852
40	0x3e3599c1	0.17734434
41	0xbd247502	-0.04015065
42	0x3ec79754	0.38982642
43	0x3e6ae307	0.22938167
44	0xbed07f6b	-0.40722212
45	0x3ebb90a7	0.36633798
46	0x3d781a45	0.060571928
47	0xbe1816de	-0.14852473
48	0xbda39762	-0.07987858
49	0x3f1ae285	0.6050189
50	0x3e8da00f	0.27661178
51	0xbec30cce	-0.38095707
52	0x3c802ef8	0.015647396
53	0x3f0694cc	0.52570796
54	0x3e5f3b0c	0.21799868
55	0xbc43f4f5	-0.011960258
56	0xbe1198e4	-0.1421848
57	0x3dea1a55	0.11430804
58	0xbeca5970	-0.3952136
59	0xbe2674b8	-0.16255462
60	0xbf2eea1e	-0.68325984
61	0xbe602d58	-0.21892297
62	0x3eaa601f	0.3327646
63	0xbeda01f3	-0.42579612
64	0x3e8bfbf9	0.27340677
65	0x3f1706d9	0.58994824
66	0x3ead7766	0.33880156
67	0xbea4915c	-0.3214215
68	0xbea7f82d	-0.3280653
69	0xbeb85412	-0.3600164
70	0x3e9fccc0	0.312109
71	0x3ec7c0d9	0.3901432
72	0x3e3825a5	0.1798311
73	0xbeca89b7	-0.39558193
74	0xb8d32a10	-0.00010069099
75	0xbdc17d57	-0.09447735
76	0x3dbaa178	0.09112829
77	0x3db31905	0.087450065
78	0xbf1b2bdd	-0.60613805
79	0x3eca40a5	0.39502445
80	0xbe60798c	-0.21921366
81	0x3dfa35c9	0.1221729
82	0x3e465fac	0.19372433
83	0x3edaa980	0.42707443
84	0x3e2d671e	0.16933867
85	0xbe9ebb40	-0.31002235
86	0x3e8a3c0f	0.26998946
87	0x3f037af9	0.51359516
88	0x3c53b648	0.012921877
89	0x3e451580	0.19246483
90	0x3ebceb24	0.36898148
91	0x3e533173	0.20624332
92	0xbd5a3a3a	-0.053278185
93	0xbde2f1f6	-0.11081307
94	0xbd16e313	-0.03683765
95	0x3f07128d	0.5276268
96	0x3eb30f95	0.34972826
97	0xbe0e803a	-0.13916102
98	0xbea1af2b	-0.31578955
99	0x3e2a01f3	0.16602306
100	0xbec13edf	-0.3774328
101	0xbcc7d82e	-0.024395075
102	0xbed8a6c6	-0.42314738
103	0xbea01964	-0.31269372
104	0x3eded1bb	0.43519387
105	0xbd0f8598	-0.035039514
106	0xbf099ea1	-0.53757674
107	0xbe8e6cec	-0.27817476
108	0x3eb60711	0.35552266
109	0x3cd9de7a	0.026595343
110	0xbed4a350	-0.41530848
111	0x3ea30f28	0.318475
112	0x3e89dcca	0.2692626
113	0x3d2c6ae8	0.04209414
114	0xbdb18406	-0.086677596
115	0xbeebb502	-0.46036536
116	0x3e7a3488	0.24434102
117	0xbecf914a	-0.40540534
118	0x3e1846c0	0.14870739
119	0x3edbb6ce	0.42912906
120	0xbe5a5dd1	-0.2132485
121	0xbecf515c	-0.4049176
122	0xbf0f185f	-0.5589656
123	0x3d44a7a0	0.048011422
124	0x3ee65d9b	0.4499329
125	0xbe8e9377	-0.27846882
126	0x3dc14684	0.09437278
127	0x3ddb733f	0.10715341

linear_relu_stack.1.bias f4 [32]
0	0x3d8e89e5	0.06959895
1	0x3dfeea56	0.1244704
2	0xbe163b0c	-0.14670962
3	0xbe3f59a0	-0.18686533
4	0x3e72f6db	0.2372698
5	0x3e8e22d6	0.27760953
6	0xbebbbf27	-0.36669275
7	0xbc8fa6fa	-0.017535675
8	0xbeadd81c	-0.3395394
9	0x3dc29ef1	0.09502972
10	0x3e85dc01	0.26144412
11	0x3e3457a8	0.17611563
12	0x3e9a23cf	0.30105445
13	0x3d38ebd7	0.04514679
14	0xbeb783c0	-0.35842705
15	0x3e4f2ad1	0.20231177
16	0xbd18f146	-0.03733947
17	0x3e35270d	0.17690678
18	0x3d7f838e	0.06238132
19	0x3d235475	0.039875466
20	0xbed3d6cb	-0.41374812
21	0xbeac5f08	-0.33666253
22	0xbef9e334	-0.48806155
23	0x3d7e5f0d	0.062102366
24	0x3e6fc369	0.23414387
25	0xbf181f23	-0.5942251
26	0xbeaad544	-0.33365834
27	0x3e73287e	0.23745915
28	0xbe5e689c	-0.21719593
29	0x3eb7f56f	0.35929438
30	0x3dee4b46	0.11635451
31	0x3e6cd706	0.231289

linear_relu_stack.4.weight f4 [64, 32]
0	0xbe0a6b96	-0.13517603
1	0xbe5812e5	-0.21100958
2	0xbc609432	-0.0137072075
3	0x3dc9fd74	0.098627955
4	0x3dc469bb	0.09590479
5	0x3c94298f	0.018086223
6	0xbd8ca7fe	-0.068679795
7	0xbc6600c7	-0.014038271
8	0xbcbd9357	-0.023141546
9	0x3cb6f72a	0.022334654
10	0x3d247381	0.040149216
11	0xbe10b8b8	-0.14132965
12	0xbd2a327a	-0.041552044
13	0xbde532ee	-0.11191355
14	0xbe52ef5c	-0.20599121
15	0x3d0f345e	0.03496205
16	0xbca3682a	-0.01994713
17	0x3cdc8737	0.026919944
18	0xbb45a739	-0.0030159487
19	0x3e13ac57	0.14421211
20	0xbc5f89e9	-0.01364372
21	0xbdb8306b	-0.0899361
22	0x3e43a0de	0.19104335
23	0xbd98d1d0	-0.074618936
24	0x3d5809a6	0.052743576
25	0xbe20fb79	-0.15720929
26	0x3dba98a5	0.09111146
27	0x3e04773c	0.1293611
28	0x3d03d8a7	0.032189038
29	0x3d4bdea3	0.04977287
30	0xbd4d19bc	-0.05007337
31	0x3d5c3d52	0.053769417
32	0xbda33ebb	-0.07970949
33	0xbe2d0b9c	-0.1689896
34	0xbe0f1d77	-0.13976084
35	0xbdc7cde0	-0.097560644
36	0x3d029d39	0.03188822
37	0x3e12087e	0.14261052
38	0xbe71717e	-0.2357845
39	0xbdb6e2d2	-0.08929981
40	0xbe642f1f	-0.222836
41	0xbe17c603	-0.14821629
42	0xbdb9e4e6	-0.09076862
43	0xbe2255e5	-0.15853079
44	0xbe6d15df	-0.23152874
45	0xbe7ae887	-0.24502765
46	0xbd6fbf55	-0.058532078
47	0xbc705380	-0.014668345
48	0xbe1fd53b	-0.15608685
49	0x3d5a1b4d	0.053248692
50	0xbd393cdc	-0.045224056
51	0x3dbab1f1	0.09115971
52	0xbca508ee	-0.02014586
53	0xbdc81c81	-0.09771062
54	0x3d86320e	0.06552516
55	0x3d3fd582	0.046834476
56	0x3d9f1243	0.07767155
57	0xbd7f326a	-0.062303938
58	0xbdb7b0fb	-0.08969303
59	0xbcb3cd8f	-0.021948604
60	0xbdc4b035	-0.09603921
61	0xbcad775e	-0.021175083
62	0xbc64b1a7	-0.013958371
63	0xbda30184	-0.079592735
64	0x3d1679a5	0.036737103
65	0x3d816ac1	0.0631919
66	0xbd3bdbc5	-0.045863885
67	0x3a65c5df	0.0008765142
68	0xbd354bd7	-0.04426178
69	0xbc9de7a7	-0.0192755
70	0x3e0a61a7	0.13513814
71	0xbd3fef27	-0.046858933
72	0x3c4368b8	0.011926822
73	0xbd3a72a7	-0.045519497
74	0x3e0be148	0.13660157
75	0x3e26a0f7	0.1627234
76	0x3e0b3ce4	0.13597447
77	0xbe096ebc	-0.13421148
78	0x3ddefcff	0.10888099
79	0x3e009074	0.12555104
80	0x3d4f369b	0.050589185
81	0xbd8f1664	-0.069866925
82	0xbdea21a9	-0.114322014
83	0xbd94d966	-0.07268028
84	0xbe6cb929	-0.23117508
85	0xbd191e9d	-0.03738271
86	0xbe617147	-0.22015868
87	0xbd023189	-0.03178552
88	0x3ceda5b6	0.029009681
89	0x3e97b1f2	0.2962795
90	0x3dadd72a	0.08488305
91	0xba967c64	-0.0011481163
92	0x3da46198	0.08026427
93	0xbe10eb33	-0.14152221
94	0xbcf5ba79	-0.029996144
95	0xbd899ed4	-0.06719747
96	0xbd8467f4	-0.0646514
97	0xbd1041fb	-0.035219174
98	0x3dc8b666	0.09800415
99	0x3da9ab07	0.08284574
100	0xbe67bb91	-0.22630145
101	0xbc9f3262	-0.019433204
102	0xbda785c1	-0.081798084
103	0x3cd55d35	0.026045421
104	0x3dd1a5e1	0.10236717
105	0x3dd64051	0.10461486
106	0xbc99e84e	-0.01878753
107	0x3be8540a	0.0070900964
108	0xbb80be2a	-0.0039289193
109	0x3dd986f3	0.10621443
110	0x3deb9afb	0.115041696
111	0x3d7fa39c	0.06241189
112	0x3dfc718e	0.12326346
113	0xbd036279	-0.032076333
114	0xbe35204a	-0.17688099
115	0xbdb1b8f9	-0.08677859
116	0xbe8d4832	-0.27594143
117	0xbd05c01c	-0.032653913
118	0xbdbad179	-0.09121985
119	0xbd15a4c4	-0.036534086
120	0xbd5a66bd	-0.053320635
121	0x3ea734d9	0.32657507
122	0xbc2406c6	-0.010011381
123	0xbd89b0dc	-0.067231864
124	0x3ddf58e2	0.10905625
125	0xbe08683a	-0.1332101
126	0xbcdccbad	-0.026952589
127	0xbe2e7cb9	-0.17039765
128	0xbc9ff2f8	-0.019525036
129	0xbe6946b0	-0.22780871
130	0xbe418b4e	-0.18900797
131	0xbe907e05	-0.28221145
132	0xbd1c2ed0	-0.03813058
133	0xbe00e87e	-0.12588689
134	0xbe2783c1	-0.16358854
135	0xbdddd5a1	-0.10831762
136	0x3deb8b64	0.11501196
137	0x3d933c96	0.0718929
138	0x3d3152d8	0.043291897
139	0xbe5ada41	-0.2137232
140	0xbe59dffb	-0.21276848
141	0xbe5b1c8c	-0.21397609
142	0xbdc95eaf	-0.098325126
143	0xbe2d5929	-0.16928543
144	0xbde50c06	-0.11183934
145	0xbba43c2e	-0.005012057
146	0xbe188d1d	-0.1489758
147	0x3d3284c3	0.043583643
148	0xbd8d6369	-0.069037266
149	0x3e2b0aa5	0.1670328
150	0x3d2bbfa6	0.041930817
151	0x3d46b4da	0.048512317
152	0x39d1f76c	0.0004004793
153	0xbd621ddf	-0.05520427
154	0xbdc51882	-0.09623815
155	0xbda43870	-0.08018577
156	0xbe1d83f5	-0.15382369
157	0x3d952754	0.07282892
158	0x3dd07219	0.101780124
159	0x3e29fe4f	0.16600917
160	0xbe27315b	-0.16327421
161	0x3bfb026a	0.0076602
162	0xbe5c1d13	-0.21495466
163	0x3dffcac0	0.12489843
164	0x3dc8f857	0.09812992
165	0x3df4daf7	0.11955827
166	0xbe6ae3d4	-0.22938472
167	0xbc5b167a	-0.013372058
168	0xbe4f5b28	-0.20249617
169	0xbe2c9dca	-0.16857067
170	0x3d9bc6da	0.07606287
171	0xbc990d19	-0.018683003
172	0xbdc02750	-0.09382498
173	0x3c312ae5	0.0108134495
174	0xbd5ddf83	-0.054168236
175	0xbde54dc5	-0.11196474
176	0xbd84ecb7	-0.06490462
177	0x3d6f7bab	0.05846755
178	0x3c4d54a8	0.012532391
179	0xbc0677fd	-0.008207318
180	0x3e1239e7	0.142799
181	0x3e20e721	0.15713169
182	0x3d4af569	0.049550448
183	0xbd75e65b	-0.060034137
184	0xbd62bd46	-0.055356286
185	0xbe6914f8	-0.22761905
186	0x3e15b911	0.14621378
187	0x3c83040a	0.015993137
188	0xbd59a485	-0.053135414
189	0xbe28e5a9	-0.16493858
190	0x3d7facb0	0.062420547
191	0xbdbf7ac3	-0.09349587
192	0xbd060947	-0.03272369
193	0xbe28adcb	-0.16472547
194	0xbcf43a2c	-0.029812895
195	0xbe26166e	-0.16219494
196	0xbd8a313f	-0.06747674
197	0xbe1ab7c5	-0.15109165
198	0xbd6b1bc7	-0.057399537
199	0xbd99d0ed	-0.075105526
200	0x3c5cd3f8	0.013478272
201	0x3de161a9	0.11004955
202	0xbd17c941	-0.037057165
203	0xbbe6e095	-0.0070458152
204	0xbde6a352	-0.1126162
205	0xbe2bcf50	-0.16778302
206	0x3c81c020	0.015838683
207	0x3d535f38	0.05160448
208	0xbd70cd5c	-0.058789596
209	0x3de1ee9f	0.110318415
210	0x3dce66c8	0.10078198
211	0x3e04dddc	0.12975258
212	0x3e1c97c2	0.15292266
213	0xbcfb2e3c	-0.030661695
214	0x3d31007b	0.04321335
215	0x3c569564	0.013097141
216	0xbdc53117	-0.09628504
217	0xbe3f1e9e	-0.18664023
218	0x3e3e6c2a	0.18595949
219	0x3dfb56be	0.12272404
220	0x3df92364	0.12164953
221	0x3df151a3	0.11783149
222	0x3c8922e4	0.01674027
223	0x3e146d43	0.14494805
224	0x3e488649	0.19582476
225	0x3e0e463b	0.13893978
226	0x3e5b6c38	0.21428001
227	0xbd8d4c11	-0.06899274
228	0xbdd149d4	-0.1021916
229	0x3c3322c0	0.010933578
230	0x3d9b37f2	0.0757903
231	0xbdff6694	-0.12470737
232	0x3d48cd8a	0.049024142
233	0x3d41399e	0.04717409
234	0xbddd1efb	-0.10796925
235	0x3d865806	0.06559758
236	0x3d8910a3	0.06692626
237	0xbceba58e	-0.028765466
238	0xbd530499	-0.051518057
239	0x3d76760b	0.06017117
240	0x3d23d603	0.03999902
241	0x3d3bb82c	0.045829937
242	0xbdb140e4	-0.08654955
243	0xbdf677f5	-0.12034599
244	0x3d1b9cd5	0.037991364
245	0x3cf1326e	0.029442992
246	0xbd26ac4d	-0.040691663
247	0x3d324b8b	0.043529075
248	0xbdc22b86	-0.09480958
249	0x3df735c5	0.120708026
250	0xbe1b84dd	-0.15187402
251	0x3c93cd73	0.018042302
252	0xbd084311	-0.033267085
253	0x3c549f54	0.01297744
254	0x3c069206	0.008213526
255	0xbdd1473c	-0.10218665

linear_relu_stack.4.bias f4 [64]
0	0xbc9017fc	-0.017589562
1	0x3da899c7	0.08232456
2	0x3ca2cec1	0.019873979
3	0x3dfadcfe	0.12249182
4	0x3ccd7f3d	0.025085086
5	0xb98915a9	-0.00026146814
6	0xbdc7668b	-0.097363554
7	0x3e07dd76	0.13268074
8	0x3cd2ec14	0.025747336
9	0x3dda1853	0.10649171
10	0x3e0c607b	0.1370868
11	0xbdda9cfd	-0.106744744
12	0x3bcfae6a	0.0063379304
13	0x3e08922d	0.13337012
14	0xbda5b524	-0.080911905
15	0x3e3154e8	0.17317545
16	0x3d8c3595	0.068461575
17	0xbc6da348	-0.014504261
18	0x3df45ff8	0.11932367
19	0x3e4a8bbd	0.19779868
20	0xbbacea18	-0.0052769296
21	0x3d75ede9	0.060041342
22	0x3d9cb24e	0.076511964
23	0xbd9b2fa0	-0.07577443
24	0x3db388e3	0.087663434
25	0xbbf32d42	-0.0074211666
26	0x3e055cc8	0.13023674
27	0x3df88bea	0.121360615
28	0x3e3dcf00	0.18535995
29	0x3e13e651	0.14443327
30	0x3d51d2c3	0.05122639
31	0x3dae74b2	0.085183516
32	0xbd68f31d	-0.056872476
33	0x3dc60e67	0.09670716
34	0xbe22d783	-0.15902524
35	0x3d2ec5f7	0.042669263
36	0x3bc32345	0.005955132
37	0xbdaa82e5	-0.083257474
38	0xbcc321c1	-0.023819806
39	0x3e2df85e	0.16989276
40	0x3ca0e4e2	0.01964039
41	0x3db6080e	0.08888255
42	0x3caef5ad	0.021357382
43	0x3e33f618	0.17574346
44	0x3c6a1e75	0.014289488
45	0x3dd2ffcc	0.10302696
46	0xbd8272b5	-0.06369535
47	0x3d4ba88d	0.04972129
48	0x3e05b5c0	0.13057613
49	0xbd276c79	-0.040874932
50	0x3dae6b18	0.0851652
51	0x3d003632	0.031301685
52	0xbda38b01	-0.07985497
53	0xbdfe4ec6	-0.124173686
54	0x3d951971	0.07280243
55	0x3cbe92b5	0.023263315
56	0x3de0c274	0.10974589
57	0x3e19f6f7	0.15035616
58	0x3e2d20a8	0.16906989
59	0xbc165152	-0.009174662
60	0x3d93b424	0.072120935
61	0x3da952a8	0.082677186
62	0xbe0e44fe	-0.13893506
63	0xbd6ade75	-0.057341058

linear_relu_stack.7.weight f4 [128, 64]
0	0x3da880bf	0.08227681
1	0xbcbe9f2c	-0.023269258
2	0xbd4579ec	-0.048211977
3	0x3d65f5c9	0.056142602
4	0x3e1f6e8d	0.15569516
5	0xbdbe41b0	-0.09289873
6	0x3d98a6b6	0.074536726
7	0x3cc8f6d7	0.024531765
8	0x3a38f17f	0.00070550287
9	0xbd35a71d	-0.044348825
10	0xbdd298ab	-0.10283025
11	0xbd72dd49	-0.059293065
12	0x3db7aa80	0.08968067
13	0xbdc5d5a3	-0.096598886
14	0xbdb1168a	-0.08646877
15	0xbde4393c	-0.11143729
16	0x3cb3a01f	0.021926938
17	0xbd0b75c7	-0.034047868
18	0xbdad4594	-0.084605366
19	0x3d2cd730	0.042197406
20	0xbda2f533	-0.07956924
21	0xbd44001c	-0.047851667
22	0x3df4bf75	0.1195058
23	0x3dfd7b98	0.12377089
24	0xbda80758	-0.08204526
25	0x3d86b69f	0.06577801
26	0xbddb783a	-0.10716291
27	0xbdd722ba	-0.105046704
28	0xbcbdcdc0	-0.023169398
29	0xbd5c5538	-0.05379221
30	0xbdce6628	-0.100780785
31	0xbd84fe83	-0.06493857
32	0x3d54a0dc	0.05191122
33	0xbc8e06b9	-0.01733719
34	0x3c12b342	0.008953871
35	0x3d3bb8c9	0.04583052
36	0x3cbee5d1	0.023302944
37	0x3d552970	0.05204147
38	0x3d475892	0.04866845
39	0xbdf46d65	-0.11934928
40	0xbe004501	-0.12526323
41	0x3d0c4ced	0.03425305
42	0x3e0ac719	0.13552512
43	0xbd848471	-0.06470574
44	0xbdc84a7b	-0.09779831
45	0x3d0b8986	0.0340667
46	0xbd4d0ded	-0.05006211
47	0x3d0e351a	0.03471861
48	0x3d7e932f	0.062152084
49	0x3e0f1c09	0.13975538
50	0xbdb1bb91	-0.086783536
51	0xbdaf7006	-0.08566289
52	0x3dce5a2a	0.10075791
53	0x3ca34017	0.019928021
54	0x3dadc373	0.084845446
55	0x3d40c481	0.0470624
56	0x3d9cc2ab	0.076543175
57	0x3d2fb211	0.042894427
58	0xbdd552b4	-0.10416165
59	0xbc33cb6c	-0.0109737925
60	0xbce57dd2	-0.028014097
61	0xbdb179cb	-0.08665808
62	0xbd83717f	-0.06418132
63	0xbcbf7944	-0.023373254
64	0x3d7da869	0.061928187
65	0x3ce05aa2	0.027386967
66	0xbd804f7f	-0.06265163
67	0x3c53713c	0.012905415
68	0xbdca39be	-0.09874295
69	0x3dd0af91	0.10189737
70	0xbd0ab2b1	-0.03386182
71	0xbc145476	-0.00905334
72	0x3d1b37eb	0.037895124
73	0xbdadc3b9	-0.08484597
74	0xbd94f8db	-0.07274028
75	0x3dcf72e6	0.10129337
76	0xbe04dc56	-0.12974676
77	0xbd8fbf96	-0.07018964
78	0x3d8d1312	0.06888403
79	0x3d75e3d9	0.060031746
80	0xbdf4968f	-0.11942779
81	0x3e1fa522	0.15590337
82	0xbda41bd5	-0.08013121
83	0xbd6d4b81	-0.057933334
84	0xbdd1ef77	-0.102507524
85	0x3d4fcf10	0.05073458
86	0x3d47571a	0.04866705
87	0x3d4e29a2	0.050332673
88	0x3d2e5c5c	0.04256855
89	0xbd7be06b	-0.06149332
90	0xbc084ce9	-0.008319118
91	0xbdc34d4a	-0.09536226
92	0xbe121815	-0.14266999
93	0xbdc6c695	-0.09705845
94	0xba9b9ea9	-0.0011872846
95	0x3d3ddc98	0.046352953
96	0xbd88661d	-0.066601016
97	0xbbe73f36	-0.007057096
98	0x3e207fa9	0.15673698
99	0xbd2fb7c8	-0.042899877
100	0xbd9ffc46	-0.07811789
101	0x3d7080d9	0.05871663
102	0xbe113499	-0.1418022
103	0x3c908f9b	0.017646601
104	0xbdb66659	-0.0890624
105	0x3cfa8190	0.030579358
106	0xbda312cc	-0.079625696
107	0xbddc25d5	-0.107494034
108	0xbc915cbc	-0.017744415
109	0xbe00c592	-0.12575367
110	0xbd139a8c	-0.03603606
111	0xbd9ef19a	-0.077609256
112	0xbd324bd2	-0.04352934
113	0x3a7a90cd	0.000955832
114	0xbdc46c79	-0.09591002
115	0xbce98b2d	-0.028508747
116	0xbdbf53c6	-0.093421504
117	0xbca6bd2b	-0.020353874
118	0xbd8b782f	-0.068100326
119	0xbcf1e6ac	-0.029528938
120	0xbc2d5934	-0.01058035
121	0xbe10bf36	-0.14135441
122	0xbda9f3ae	-0.08298431
123	0xbcbe156d	-0.023203576
124	0x3d4f5980	0.050622463
125	0x3d7e89ff	0.062143322
126	0x3d68f3ad	0.056873012
127	0xbd2ed8a0	-0.04268706
128	0xbdbaa88a	-0.091141775
129	0x3c0f53e2	0.008748027
130	0x3d9d98f5	0.0769519
131	0x3dd16d61	0.102259405
132	0x3c11532e	0.008869929
133	0xbcaa5254	-0.02079121
134	0xbdcff92d	-0.101549484
135	0x3d30c618	0.043157667
136	0x3cd3813f	0.025818465
137	0x3dfb73c2	0.122779384
138	0xbce09eed	-0.027419532
139	0xbd99233e	-0.07477425
140	0x3d138f9b	0.036025625
141	0xbdb55292	-0.0885364
142	0x3db53cf7	0.08849519
143	0x3da7b174	0.081881434
144	0xbce819fb	-0.028332701
145	0x3dd99404	0.10623935
146	0x3dc6c310	0.09705174
147	0x3dd2f516	0.10300653
148	0x3e021cbb	0.12706272
149	0xbd966ca1	-0.07344938
150	0x3d573704	0.0525427
151	0xbd269d63	-0.04067744
152	0xbd91a9df	-0.071124785
153	0xbd9450ed	-0.07241998
154	0xbc3762d9	-0.011193001
155	0x3e185987	0.14877902
156	0xbdc1b7a7	-0.09458857
157	0xbb6f1054	-0.0036478238
158	0xbd7bb556	-0.061452232
159	0x3cfc6543	0.030810004
160	0x3da03047	0.07821708
161	0x3be10765	0.0068673366
162	0xbd40f3a3	-0.04710735
163	0xbcbc9ff4	-0.02302549
164	0x3da8c183	0.082400344
165	0xbdbbed5a	-0.091761306
166	0xbd18780e	-0.037223868
167	0x3e40dc72	0.18834093
168	0xbd7edfc5	-0.062225122
169	0xbc1298f4	-0.0089476
170	0x3db327c8	0.08747822
171	0x3ddea130	0.10870588
172	0xbce8dfa1	-0.028426947
173	0x3c8ff374	0.017572142
174	0xbb34f312	-0.0027610702
175	0xbd3d96ae	-0.046286277
176	0x3cf1ccb1	0.02951655
177	0xbd22a27a	-0.03970573
178	0x3cdb6532	0.026781652
179	0xbdd90639	-0.1059689
180	0x3d7fb49a	0.062428094
181	0xbdaa7caf	-0.08324563
182	0x3d1bc4f3	0.038029622
183	0xbdc0a496	-0.09406392
184	0x3d1ffb39	0.039057944
185	0xbbc24eac	-0.0059297886
186	0x3c9e3ba9	0.019315558
187	0x3d8dca41	0.069233425
188	0x3e10f48d	0.14155789
189	0xbddbda87	-0.1073504
190	0xbd0c1acb	-0.03420524
191	0xbd0fe345	-0.03512885
192	0x3c9397e4	0.018016763
193	0xbdd92e55	-0.1060454
194	0xbceaad95	-0.028647223
195	0x3e33dc96	0.17564616
196	0x3d138ce7	0.036023047
197	0x3cc027e0	0.023456514
198	0x3c5fec13	0.013667124
199	0xbd9e6a3b	-0.077351056
200	0xbd2eae3a	-0.042646624
201	0xbe114863	-0.1418777
202	0x3d852bb1	0.06502474
203	0xbaf55678	-0.0018717786
204	0xbd8925b8	-0.066966474
205	0x3dff8048	0.124756396
206	0xbdafe299	-0.08588142
207	0x3c72788b	0.0147992475
208	0x3d850247	0.06494575
209	0x3db4fb8f	0.088370435
210	0xbafd62e3	-0.0019331839
211	0x3dddb4a6	0.108254716
212	0x3d4b90a9	0.049698506
213	0x3d7d97bf	0.061912294
214	0x3cd1b3b9	0.025598394
215	0x3cb8d4a1	0.022562327
216	0xbc8e20bd	-0.017349595
217	0x3be24cb2	0.0069061154
218	0x3dfcaa97	0.12337225
219	0xbdbb88ae	-0.09156929
220	0x3d189863	0.037254702
221	0x3dd6a1dd	0.10480092
222	0xbde541f2	-0.11194219
223	0xbc642dc9	-0.013926932
224	0x3cda7ebd	0.026671762
225	0x3d5714fb	0.052510243
226	0x3c137c97	0.0090018725
227	0x3dd773e9	0.10520155
228	0xbdb58da6	-0.08864908
229	0xbda45b40	-0.08025217
230	0x3d2ecf29	0.042678032
231	0x3da334a5	0.079690255
232	0x3d737a7c	0.059442982
233	0xbd3623ec	-0.04446785
234	0x3cec8ec5	0.028876672
235	0xbbfd7949	-0.0077354056
236	0x3da74ad3	0.081685685
237	0x3d8af986	0.06785874
238	0x3c8005c4	0.01562775
239	0xbcd8e9a9	-0.026478605
240	0xbd9be223	-0.076114915
241	0xbdaffb75	-0.085928835
242	0x3e29bece	0.16576692
243	0xbda04375	-0.078253664
244	0xbcc3c734	-0.023898698
245	0xbc8c1949	-0.0171019
246	0x3cbcb53e	0.023035642
247	0x3d0d101f	0.034439202
248	0x3c907840	0.017635465
249	0x3dfc477f	0.12318324
250	0xbd9016b7	-0.070355825
251	0x3dab57b5	0.08366338
252	0xbda7d44f	-0.081947915
253	0xbde3cba8	-0.11122829
254	0x3dbea002	0.09307863
255	0x3d5ec393	0.054385733

linear_relu_stack.7.bias f4 [128]
0	0xbc544e3d	-0.012958107
1	0xbc71ce28	-0.014758624
2	0x3ceca2ca	0.028886218
3	0xbde27f4c	-0.11059436
4	0x3d6574c1	0.05601955
5	0x3de4e199	0.11175842
6	0x3d7c7057	0.061630573
7	0x3d570b5e	0.052501075
8	0x3e0b0a9b	0.13578264
9	0x3da7de40	0.08196688
10	0x3dd6a3e5	0.10480479
11	0x3e260c90	0.1621573
12	0x3e305296	0.17219004
13	0x3dc8b172	0.0979947
14	0xbca0e110	-0.019638568
15	0x3b2980b2	0.0025864062
16	0x3bd80958	0.0065929107
17	0x3d58be77	0.052916016
18	0x3d7839f3	0.06060214
19	0x3d4479e7	0.047967818
20	0x3e1c9fbe	0.15295312
21	0xbdb71d18	-0.08941096
22	0x3d2ebc77	0.042660203
23	0x3dd69628	0.10477859
24	0xbd44fc20	-0.048092008
25	0x3daab6d4	0.08335653
26	0x3c4d596f	0.01253353
27	0x3e155623	0.1458364
28	0x3cd97f34	0.026549913
29	0xbda8d48d	-0.08243666
30	0xbcb8c914	-0.022556819
31	0xbce15b0b	-0.027509233
32	0x3d97232b	0.07379755
33	0x3e00cefa	0.12578955
34	0xbbca80d4	-0.0061799083
35	0xbce82a65	-0.028340528
36	0x3e18395b	0.1486563
37	0x3d25f542	0.0405171
38	0xbd890cea	-0.06691916
39	0x3930dd73	0.00016867164
40	0x3b6b1545	0.0035870832
41	0x3e1fcc3b	0.15605251
42	0x3d94e994	0.07271114
43	0x3caf007b	0.021362534
44	0xbcdbdb15	-0.026837865
45	0x3da82caf	0.08211648
46	0x3dbf8720	0.09351945
47	0x3d53afd7	0.051681366
48	0x3dc1af3e	0.09457253
49	0x3e2b6e41	0.16741277
50	0x3de3d03c	0.11123702
51	0xbd957719	-0.07298107
52	0x3cbfe498	0.023424432
53	0x3e2e32b8	0.17011535
54	0x3e0c29ed	0.13687868
55	0x3d9d90d9	0.07693643
56	0xbbad1dbe	-0.0052830866
57	0x3dce2a87	0.10066705
58	0x3e0926ac	0.13393658
59	0x3e15a513	0.14613752
60	0x3d618544	0.055058733
61	0x3da22c99	0.079186626
62	0x3db2213e	0.08697747
63	0x3dd6da99	0.10490913
64	0x3e2ca6dd	0.16860528
65	0xba9fdf97	-0.0012197372
66	0x3df2af1b	0.11849805
67	0x3dd8d32b	0.10587152
68	0x3dbc0bb7	0.09181922
69	0x3db8e720	0.090284586
70	0xbd70a18f	-0.058747824
71	0x3df3f0d0	0.11911166
72	0x3d021d21	0.03176606
73	0x3e309998	0.17246091
74	0x3c9f1696	0.01941995
75	0x3c362582	0.011117341
76	0x3d01e383	0.031711113
77	0xbb1affbf	-0.0023650972
78	0xbc038055	-0.008026202
79	0xbdc5a304	-0.096502334
80	0x3e1a7331	0.15083005
81	0x3e28dc2f	0.16490243
82	0x3e253308	0.16132748
83	0xbdcf71f0	-0.10129154
84	0xbd726270	-0.05917591
85	0x3dca07f0	0.09864795
86	0x3e1fc35f	0.15601872
87	0x3d5a9859	0.053367946
88	0xbd193cc6	-0.037411474
89	0x3e2e33b3	0.17011909
90	0x3d6e5f1a	0.058196165
91	0xbcdd8e3c	-0.027045362
92	0x3dc84e59	0.09780569
93	0xbdc29802	-0.095016494
94	0xbc8eb492	-0.017420087
95	0x3d6e0637	0.058111396
96	0x3dabefeb	0.0839537
97	0x3dbca2d7	0.09210747
98	0x3d83e04f	0.06439268
99	0xbcb4a7be	-0.022052642
100	0x3ccd44b0	0.025057167
101	0x3d79f3a0	0.061023355
102	0xbd406060	-0.04696691
103	0x3df44b46	0.1192842
104	0x3e4ceea4	0.20012909
105	0xbc9c23c6	-0.019060027
106	0x3cd4fbf2	0.025999043
107	0x3e28f99f	0.16501473
108	0x3d0dba53	0.03460152
109	0x3e0c7cab	0.13719432
110	0x3d2af74a	0.04173974
111	0xbd979937	-0.0740227
112	0x3e0e45cd	0.13893814
113	0x3ab24cb0	0.0013603177
114	0x3c5b81e0	0.013397664
115	0xbe1f9de6	-0.15587577
116	0x3dbf21f0	0.09332645
117	0x3dabd783	0.08390715
118	0x3e27920b	0.16364305
119	0x3e0076cd	0.12545319
120	0x3d858a49	0.065205164
121	0x3cc1452b	0.023592552
122	0x3dea5b25	0.11443166
123	0x3c6dfec0	0.014526069
124	0x3d2a2f92	0.041549273
125	0x3dd69928	0.10478431
126	0xbd68c04b	-0.05682401
127	0xbde9f804	-0.11424258

linear_relu_stack.10.weight f4 [1, 128]
0	0x3d4d30a6	0.050095223
1	0xbd447567	-0.047963526
2	0xbd2bfbde	-0.041988246
3	0xbd743d90	-0.059629023
4	0xbd851d09	-0.06499679
5	0xbd64b652	-0.055837937
6	0x3d4a3837	0.049370017
7	0x3ce5591e	0.027996596
8	0x3d2ba929	0.04190937
9	0x3d405950	0.046960175
10	0x3d2c7f06	0.042113326
11	0x3d8b1c16	0.06792466
12	0x3d5b63d4	0.053562
13	0xbd615bd0	-0.0550192
14	0x3d78e85d	0.060768474
15	0x3c386362	0.011254163
16	0xbd104f43	-0.03523184
17	0xbd979b0b	-0.07402619
18	0xbd84fbd1	-0.06493343
19	0xbd7ffc23	-0.062496316
20	0x3d8ca7a9	0.06867916
21	0x3d24ad4c	0.04020433
22	0x3caf1f07	0.0213771
23	0xbdd7593e	-0.105150685
24	0xbd58e6bf	-0.05295443
25	0x3d47199e	0.048608415
26	0xbd2a001a	-0.041504003
27	0x3d89e280	0.067326546
28	0x3d6d5f82	0.05795241
29	0x3d870fe0	0.06594825
30	0x3c91ec5f	0.017812906
31	0xbd073d55	-0.033017475
32	0xbd23b62c	-0.039968655
33	0x3d6a859b	0.057256322
34	0x3ce512b6	0.027963024
35	0x3d2748d7	0.04084095
36	0xbd72f164	-0.05931224
37	0xbccf2601	-0.025286676
38	0x3d3e7d9e	0.046506517
39	0xbd81ca8d	-0.063374616
40	0xbd4ead9d	-0.05045854
41	0x3cf3accd	0.029745484
42	0xbd70dca5	-0.058804173
43	0x3d3bc766	0.045844458
44	0x3d19e919	0.037575815
45	0xbdc139e2	-0.094348684
46	0x3dc62f86	0.09677033
47	0xbd92dbe9	-0.07170851
48	0xbd30b860	-0.043144584
49	0xbd668386	-0.056277774
50	0x3d8f255b	0.06989547
51	0x3d6e5bea	0.058193125
52	0x3cb77ca1	0.022398295
53	0x3d7844ba	0.060612418
54	0x3d823f15	0.06359688
55	0x3d55d0dc	0.052201137
56	0x3ca02053	0.019546663
57	0x3d6500a8	0.05590883
58	0xbe149f5d	-0.14513917
59	0xbd9bab5b	-0.07601043
60	0x3d6b877f	0.057502266
61	0x3ce82281	0.028336765
62	0x3d9f7d2f	0.07787549
63	0x3cb9af7a	0.022666682
64	0xbd29716d	-0.041367937
65	0xbd4cff62	-0.05004824
66	0xbd65e2a2	-0.056124337
67	0x3d47c83e	0.04877495
68	0xbd616664	-0.055029288
69	0xbd48004d	-0.04882841
70	0x3d0666c7	0.03281286
71	0xbd90b0d8	-0.0706498
72	0x3dbe5cbd	0.09295032
73	0x3d9ac025	0.0755618
74	0x3d988b19	0.07448406
75	0x3d05f136	0.03270074
76	0x3d01db6e	0.031703405
77	0xbdaf3a95	-0.085560955
78	0x3d4c7e42	0.049925096
79	0xbd44d710	-0.048056662
80	0xbdaca44d	-0.084297754
81	0x3da027b6	0.07820074
82	0x3d817f5c	0.0632312
83	0xbc870906	-0.016483795
84	0xbcfe5342	-0.03104556
85	0xbd2f097d	-0.042733658
86	0x3da1991e	0.07890533
87	0xbd44f0cb	-0.0480812
88	0xbdb40935	-0.087908186
89	0x3d404c42	0.046947725
90	0x3d9528c9	0.0728317
91	0x3d751f85	0.059844512
92	0xbdb09e22	-0.086239114
93	0xbc96fe8b	-0.018431922
94	0x3d3456f4	0.044028237
95	0x3d5c5dec	0.05380051
96	0x3d96e898	0.073685825
97	0xbd4bffb4	-0.049804404
98	0x3d1925c6	0.03738954
99	0xbd88a2bc	-0.06671664
100	0x3d300237	0.042970862
101	0xbd8898b9	-0.066697545
102	0xbd960c89	-0.0732661
103	0xbd668435	-0.056278426
104	0xbdaa62f0	-0.08319652
105	0xbd306636	-0.043066226
106	0xbd41ef62	-0.047347434
107	0xbdfe01f7	-0.124027185
108	0x3d5b4d8a	0.053540744
109	0x3d41b6f0	0.047293603
110	0xbc5d2019	-0.013496422
111	0xbd0b2301	-0.03396893
112	0xbd6fef75	-0.058577973
113	0xbdb33c12	-0.08751692
114	0xbd83dc23	-0.06438472
115	0xbd24a491	-0.040196005
116	0x3d565627	0.052328255
117	0xbd7e8ba2	-0.062144883
118	0xbd8242fb	-0.06360432
119	0x3d3fab6e	0.046794347
120	0x3d7fe5e0	0.062475085
121	0xbd5c0dea	-0.053724207
122	0x3d3369a5	0.043801922
123	0xbd90882d	-0.070572235
124	0x3d9022d7	0.07037895
125	0xbd858946	-0.065203235
126	0x3d1b7361	0.03795183
127	0xbd3a328a	-0.045458354
