saved_models/model60.pth (torch, 47599 bytes, 11 tensors)

linear_relu_stack.0.weight f4 [4]
00000000: 1313 883f 0dc1 8b3f 7eaf 723f 095f 853f
1.0630821 1.091829 0.9479903 1.0419627

linear_relu_stack.0.bias f4 [4]
00000000: 8ebf 1abd ff07 97bd a354 203c 4ed9 c3b9
-0.037780337 -0.07374572 0.009785804 -0.00037355203

linear_relu_stack.0.running_mean f4 [4]
00000000: 49ab c040 fb82 1941 7e5c 1f43 f6b0 5740
6.020909 9.594478 159.3613 3.3701758

linear_relu_stack.0.running_var f4 [4]
00000000: 9ed0 6d42 9363 dd40 fd8a b646 2e0f b040
59.453728 6.918405 23365.494 5.501853

linear_relu_stack.1.weight f4 [32, 4]
00000000: d5b3 9c3d d0b7 bfbd 01b0 ee3d 94e8 20be
00000010: 8a3c 9ebe 4d98 b8bd 6217 eb3e 080a aebc
00000020: 6806 9a3e 2616 69be 44a3 99be f63d fbbe
00000030: a60a ca3e 85b4 8bbc 1fb1 1d3e bc20 253e
00000040: 4e4f e53e 63ef ca3e 1173 c63e b5bb d03e
00000050: dc03 e93e 5313 003e 2c4b 10bf 62de ca3e
00000060: 98a5 e4bd 5df5 aa3e 424f 6cbc 9e1e 17bf
00000070: 9bc5 4a3e 789e 5bbe 159a 873e 711c 953e
00000080: 1b91 653d 2645 163f bcaa d33e 3020 aabe
00000090: bc8b c6be 74dd 2fbd a5fd 7fbb 3b9e a9be
000000a0: d972 d8be a487 193e 2948 b2be 81e1 9bbe
000000b0: c22c cc3e 3ac1 73be 3a60 f0bd 4b3d 75be
000000c0: 6e02 963d d0e9 f73e 31a2 b7bd f975 e83d
000000d0: d448 b33e 14ea 1d3e 98fb a43e f580 313e
000000e0: da53 63b9 5303 053f a0be 22be 8bbf b0be
000000f0: 1a39 d33e 3e0b cc3e 63b7 96be fa4b ebbe
00000100: 964f d139 9df0 13be bc6c 463e 9567 fabe
00000110: d9b0 ab3e fe73 a7be 2024 89be cb93 ef3e
00000120: ffc4 6d3d df9a 0e3f 52c1 023d c17a d33d
00000130: 0b79 c2bc fc78 5f3e 18f1 cdbe c0a8 e53e
00000140: f700 723e 0879 6b3e 96a7 8ebe 76f2 1f3e
00000150: 6d73 bbbd 827e a43e 7d21 cf3e 3fd0 19be
00000160: 4421 f73e 4ea9 71be 2dd3 abbe 07f6 90bd
00000170: af0d d3be 34e7 643e e7fe 5b3d 0088 a73c
00000180: 5252 023f 02a4 1c3d 0542 8d3e 4119 2e3e
00000190: 8b4b d3be f84c 20be acc9 6d3e 2843 88bc
000001a0: 6b8d c13d 77dd e93e 2c4d 573d ceb1 a0be
000001b0: 2167 a1be 44fb dabe 0235 e33e 9ac1 0fbe
000001c0: 11db 95be 2fb3 df3e 5ed1 af3e 9818 e5be
000001d0: f79e 98be f3ca 51be 6aff 9f3e 1b6d 05be
000001e0: 3c69 82be 751b 013f ed8c 8cbe 68c9 a2be
000001f0: 3521 c2be 7a3a 67be 3a1a 753e ff31 9abe
0.07651488 -0.09361231 0.11654664 -0.15713722 -0.30905563 -0.09013424 0.45916277 -0.021245018
0.30083013 -0.22762355 -0.30007374 -0.4907071 0.3946125 -0.017053852 0.15399598 0.16125768
0.44787067 0.39635763 0.38759664 0.4076821 0.45510757 0.12507372 -0.56364703 0.3962279
-0.11164397 0.33390322 -0.014423193 -0.59031093 0.19801943 -0.2144717 0.26484743 0.29123262
0.056046586 0.5869926 0.41341197 -0.33227682 -0.38778484 -0.042935804 -0.0039061096 -0.33128533
-0.42275122 0.14993149 -0.3482068 -0.30445483 0.39877898 -0.23804179 -0.11737104 -0.23949163
0.07324682 0.48420572 -0.089664824 0.113506265 0.350165 0.15421325 0.322232 0.1733435
-0.00021679644 0.519582 -0.1589303 -0.34521136 0.41254503 0.39852327 -0.29436788 -0.45956403
0.00039922883 -0.14447255 0.19377416 -0.48907152 0.33533362 -0.32705683 -0.26785374 0.46792445
0.0580492 0.55705065 0.031922646 0.10326148 -0.023739358 0.21823496 -0.40223002 0.4485531
0.2363318 0.22995389 -0.27862233 0.15619835 -0.09152875 0.32127768 0.40455237 -0.15020846
0.48267567 -0.23599741 -0.33559552 -0.07078176 -0.41221377 0.22353822 0.05370989 0.020450592
0.5090686 0.038242348 0.2758943 0.17001821 -0.41268572 -0.15654361 0.23221463 -0.016633585
0.094508015 0.45676777 0.05256383 -0.31385654 -0.31523994 -0.42769825 0.4437638 -0.14038697
-0.29268697 0.43691394 0.34339422 -0.44745326 -0.2980878 -0.20487575 0.31249553 -0.13029902
-0.25470912 0.5043252 -0.27451268 -0.31794286 -0.3791596 -0.22580901 0.23935786 -0.3011627

linear_relu_stack.1.bias f4 [32]
00000000: 92fe fe3b 82e4 40bd 3c34 dbbe bacd 2fbe
00000010: ffc6 e0be 72cb e73e a6b5 c5be 6278 9c3e
00000020: 5297 ac3e 6189 7cbe 1339 03be 4363 553e
00000030: f6cb 86be ab7d 5b3d 87ee 1abe 11b2 aabd
00000040: e3c3 b43c 3c7f eb3e cd79 813e ea0a 8dbe
00000050: c669 23bd 10af d83e 8367 c8be 8dd2 743e
00000060: 1d7b a1be ce6c 9a3c fbe6 933e 1fbe 50be
00000070: 1556 17be 56f0 0f3e aa85 653e 9206 e8bd
0.007781812 -0.047092922 -0.4281329 -0.17168322 -0.43901822 0.45272404 -0.3861515 0.30560595
0.33709198 -0.24661781 -0.12814741 0.20838647 -0.26327485 0.053586643 -0.15130053 -0.08334745
0.022066062 0.4599551 0.2528824 -0.2754739 -0.039895795 0.42321062 -0.39141473 0.23908444
-0.3153924 0.01885071 0.28887162 -0.20385025 -0.14778931 0.14056525 0.2241427 -0.11329378

linear_relu_stack.4.weight f4 [64, 32]
00000000: e204 673d 59b4 0e3e 6a88 a2bd d03d 37be
00000010: 7825 a13d 6cb3 6bbb 2434 3b3e b68f 963d
00000020: e135 303e 625e 793d 6e3a e9bc 87bc 963d
00000030: 5224 cbbd a61b 94bc 35f8 ff3d 6e07 bbbd
00000040: 9165 203d aae9 0fbd b4a9 133d c97f 3abd
00000050: 7076 15be fc71 993b 7cc7 c3bd 51f2 123e
00000060: 383f 86bd f8a0 0e3e a241 b83d abf5 01be
00000070: d4da 4f3e fc50 29bd 9448 283c 0a91 8f3d
00000080: fcc3 17bd 5df3 f9bd 738e 263e d547 1c3d
00000090: fa37 aebd 9255 283e 090e 84bd 6fc9 273e
000000a0: 9c79 2bbe 785b 3c3c 05bf 133d abdc 0a3e
000000b0: 4e65 18be e207 063e 545a 2dbb 912b 043e
000000c0: e90f 12bd fba2 c1bc af2e a3bd a823 be3d
000000d0: b7a2 dc3c acf9 38bd ccb9 c1bc 2c0e 1ebd
000000e0: a4d1 a3bd 75ac 583d ae1a d2bd ee5c 80bd
000000f0: ebaf 58bd 4bb3 25be 6bd8 f2bd 491f 07be
00000100: 4125 0e3e 6ec1 07bc c952 3cbe 9957 e4bd
00000110: 9d20 983c 83dc 053e f435 183d 810a d8bd
00000120: 8ed6 52be 69b0 9ebc 0893 0abe f9cb 2bbe
00000130: d3d5 b9bd 3330 f63d 66d2 693c d1f6 0dbd
00000140: b3d1 5f3d 69be d1bd 944c 50bd 7145 a9bd
00000150: d6c8 513d f816 503d 0255 d23d 165f d83c
00000160: 2a68 1e3d 6e95 683d d397 4a3e 5755 423c
00000170: e4b1 f23d da81 033b f3da 80bd d321 4ebd
00000180: 5d10 0b3e 1bdc 10be 7585 4bbd b0b9 a2bd
00000190: 1a47 923d 153a 333e 82b4 153e 2fde f5bd
000001a0: f5d7 31bd 7500 08be 5cee e8bc f062 563c
000001b0: c994 ee3d dbf3 f8bb aeb7 53bd 0ef9 6b3d
000001c0: 1dc7 8a3d baf1 82bc ad6c c4bb fed8 04bc
000001d0: c9d4 c7bc d761 103e aa46 313e d41f 2cbd
000001e0: c21f 103e c9ab 9f3c 724c 08be 9fe5 23bd
000001f0: 4d0a fb3d d214 66bd 9de9 23bd 5b22 f8bd
00000200: 3e1f 8cbb beef ce3c 0446 ff3d 9d0b 0ebc
00000210: b3aa 323e 86a0 a43d d338 91bb 4f59 fabc
00000220: 0fd5 413c cfa4 6abe 0110 d93c bca3 cfbc
00000230: 2af9 6a3c 9b6f ae3d d7b3 0abe ebdc 023c
00000240: e231 0dbd b897 403d e324 e7bd bd9a ef3d
00000250: daa4 29be 37f2 a5bd e673 063e 2604 4bbd
00000260: b4a0 11be e8e2 edbc 34e3 00be d639 ecbd
00000270: 4053 f5bd 2c9e 25be 5f8a 9d3d f89d 0dbe
00000280: b8e0 29be 074b 03be ffcf 80bd d098 143e
00000290: ade1 fa3d 9720 9f3d b2f5 80bd 968c bfbd
000002a0: 1c64 d63d 040b e8bb b3d2 e1bc f0dc 123e
000002b0: 3753 9f3c db80 1bbd da0c 29be 0d5b f53d
000002c0: b5ad 09be 74f6 60bd fb3f 133e 0c94 0b3d
000002d0: d7a2 05be 1926 67bd 8aec dbbd 6247 0e3e
000002e0: dd7c ec3b 89e8 b33d ef3c 133e 1dea 33be
000002f0: 1e71 dbbd c351 debd 1a98 26be ff6c 503d
00000300: e56b fabd 858b 25bd f4a0 9d3d dc26 883d
00000310: 4279 04be a7b3 53bb 0434 19be d347 d2bd
00000320: 59ab 0bbd 4846 8d3d 232c 9cbc 010d f8bd
00000330: da35 993c 6312 6c3d 68b1 d8bc 6f8d 7bbd
00000340: 0480 b9bd c0f2 863d 06b9 d3bc aadc 4b3e
00000350: 1656 e43d 6e01 94bd 4666 bd3d 1e14 1abe
00000360: ae9e 653d a702 3cbc c1fc 4dbd 1fdb f5bd
00000370: d152 bbbd 367f f63d c2a1 dabd ba6d 6e3d
00000380: 607b f43d 92cb 133e e7a4 163e 0929 243c
00000390: 873b 67bd efcb e53b 8f82 6dbd 0550 053d
000003a0: 3697 c63d ee66 c7bd 4a7d 01be 31b2 84bd
000003b0: fb22 29be 2377 183d f4db f53d d048 6cbd
000003c0: fc2e 60bd aba9 9b3d 294a 2abe 4a91 5d3c
000003d0: 2a80 0e3e 8ca7 f0bd c319 4dbd aff0 a43d
000003e0: 8c69 023c 4fd1 f2bd db96 c73d 2120 eebd
000003f0: 7c1c 91bd 0109 de3d 8542 ff3d 54d5 063d
0.05640114 0.13935985 -0.07936175 -0.17894673 0.07868475 -0.0035965098 0.18281609 0.073516294
0.17208053 0.060881026 -0.028470244 0.073601775 -0.09919037 -0.01807959 0.124985136 -0.091322765
0.03915936 -0.03513495 0.036050513 -0.04553202 -0.14595962 0.0046827774 -0.09559533 0.14350249
-0.06555027 0.13928592 0.089968935 -0.12691371 0.2029832 -0.041337 0.01027121 0.07010086
-0.03705214 -0.12204621 0.16265278 0.038154442 -0.085067704 0.16438892 -0.064479895 0.16385435
-0.16745609 0.011496417 0.036070842 0.1356074 -0.14882395 0.13088945 -0.0026451545 0.12907244
-0.035659704 -0.023637285 -0.079678886 0.09284145 0.026933057 -0.04515998 -0.023648165 -0.038587734
-0.0799897 0.052898843 -0.10258995 -0.06267725 -0.052902143 -0.16181676 -0.11857685 -0.13195528
0.13881399 -0.008285863 -0.18390955 -0.111495204 0.018570239 0.130724 0.03716083 -0.105488785
-0.20589659 -0.019371228 -0.1353265 -0.16777028 -0.09073987 0.12020912 0.014271354 -0.03465921
0.054643344 -0.10241396 -0.05085428 -0.08265198 0.051216923 0.050803155 0.1027012 0.026412528
0.038673557 0.056783132 0.19784479 0.011861167 0.11850336 0.0020066411 -0.06291761 -0.050325226
0.13580461 -0.14146464 -0.04968782 -0.07945573 0.07142468 0.17502625 0.1461964 -0.12005269
-0.043418843 -0.13281424 -0.028433971 0.013085112 0.11649472 -0.007597429 -0.051688842 0.057610564
0.06776259 -0.015984405 -0.0059944005 -0.008108376 -0.024393456 0.14099823 0.17312112 -0.04202254
0.14074615 0.019491093 -0.13310412 -0.040013906 0.12257824 -0.0561722 -0.040017713 -0.12115928
-0.0042761853 0.025260802 0.12464526 -0.008669761 0.17447929 0.0803843 -0.004431823 -0.030560164
0.011830582 -0.22914432 0.02649689 -0.02534663 0.014341632 0.08517381 -0.13545166 0.007987241
-0.0344714 0.04701969 -0.112863325 0.11699436 -0.16566792 -0.081028394 0.13130149 -0.049564503
-0.1422146 -0.029038861 -0.12586671 -0.11534469 -0.11978769 -0.16173619 0.07692408 -0.13829792
-0.1658963 -0.1282159 -0.06289672 0.14511418 0.122500755 0.07769888 -0.06296863 -0.093529865
0.10468313 -0.0070813913 -0.02756629 0.14342093 0.01944886 -0.037964683 -0.16508809 0.11980257
-0.1344517 -0.054922536 0.14379875 0.034076735 -0.130504 -0.056432817 -0.107384756 0.13894418
0.0072170333 0.08784587 0.14378713 -0.17569776 -0.10714935 -0.108554386 -0.1626896 0.050885197
-0.122276105 -0.04041626 0.07696715 0.06648037 -0.12936881 -0.0032303126 -0.14961249 -0.10267606
-0.034098957 0.06898171 -0.019064015 -0.12111855 0.018702436 0.057634722 -0.026451781 -0.06141418
-0.0905762 0.0658927 -0.025845062 0.19908395 0.11149232 -0.07226835 0.09248023 -0.15046737
0.056059532 -0.011475242 -0.050289873 -0.12004685 -0.09146655 0.12035982 -0.10675384 0.058210112
0.119375944 0.14433125 0.14711343 0.010019549 -0.056453254 0.007012836 -0.05798584 0.032547016
0.0969681 -0.09736429 -0.1264545 -0.064793 -0.1651725 0.037222993 0.12004843 -0.057686627
-0.054732308 0.07600721 -0.16629852 0.013523409 0.13916078 -0.11750707 -0.050073396 0.08053719
0.007959735 -0.11856329 0.0974557 -0.11627222 -0.07085511 0.10841561 0.124638595 0.03291829

linear_relu_stack.4.bias f4 [64]
00000000: b0b5 45bd d122 923d debe 843d 2052 6bbd
00000010: 50a5 3e3e 44fc 19be 5f09 0c3e c6a3 f23d
00000020: 3965 4f3d f564 933d a755 1b3d 239d 313e
00000030: 29ac e0bc 54b2 1c3e aead b8bc 0936 eabd
00000040: fe90 5a3e 979d 163e c3ca 19be 1304 2c3e
00000050: 4639 a9bd 63ee 36bb 9eee abbc 2a09 f73c
00000060: 6c1b f0bd 9538 073b f435 133e a919 bfbd
00000070: 3f2f 0ebe 2a8f 053e f037 1d3e 2819 c5bd
00000080: 1b11 fc3c 2102 6b3c 654d 103e 3516 13bd
00000090: e6df f33c 7ef4 8cbd d901 4e3b fd45 8fbc
000000a0: 6d0a 023e 15fb 583d 7508 adbd 2b41 c2bc
000000b0: 7fba 4b3b cdd8 5e3d e5da af3d 948a a2bc
000000c0: 5c96 073e 68dd 13be 405b bd3c 931f 12be
000000d0: 6106 05bd d31b 243e 32c4 67bd 757a d53c
000000e0: ea08 b03d d738 043e fb87 02be 1896 bbbc
000000f0: 79a9 653d ab38 96bd 5018 c9bd f853 023d
-0.048268974 0.07135547 0.064817175 -0.057451367 0.18617749 -0.15037638 0.1367545 0.118476436
0.050633643 0.071969904 0.03792348 0.17345099 -0.027425842 0.15302402 -0.022543754 -0.11436088
0.21344373 0.14708553 -0.15018754 0.16798429 -0.08262877 -0.0027913086 -0.020987805 0.030155737
-0.1172398 0.002063309 0.1437605 -0.09331066 -0.1388521 0.13042894 0.1535337 -0.09623939
0.030769875 0.014343769 0.14092024 -0.03590985 0.029769849 -0.06882571 0.0031434207 -0.017489428
0.1269929 0.052973825 -0.08448879 -0.023712715 0.0031086502 0.054405976 0.08586673 -0.01984147
0.13240951 -0.14439929 0.0231148 -0.14269857 -0.032476787 0.16026239 -0.05658359 0.026059369
0.0859545 0.12912308 -0.12747185 -0.022898719 0.056069825 -0.07335027 -0.0981909 0.03181836

linear_relu_stack.7.weight f4 [128, 64]
00000000: f0d4 baba 1c40 ec3d 065b 8b3d 0c16 a1bd
00000010: 68d3 723d 9d83 1abd 5a73 9d3c 9bd3 93bc
00000020: 8520 68bb fb51 10bd 01ff b43d 24ae 26bd
00000030: 195f a33d ada8 d03c 84b8 873d 083e 13bb
00000040: 7f7d 6fbd cb22 c13d f84a 723d 6806 d93d
00000050: 107d b43d d75e da3d 099c e93d 6597 903d
00000060: 7db4 a33d d104 c13b 40de 33bd 1a2d 18bd
00000070: 3243 e3bc 2973 e23d 4360 8a3b 9c23 e2bc
00000080: c286 9bbc 62d1 7c3d a7ea fa3d ad17 243d
00000090: 4b7b 0ebd 7f57 d03d 3ea7 76bd fb49 0ebe
000000a0: 5e19 5bbd 5942 e5ba f1cd c9bc 9cca aabd
000000b0: 110b cabd ed8d 35bc 5c8f f0bd 429b 8dbd
000000c0: 8b84 df3d 9f7c d9bc 7dec f03c 30b6 a43d
000000d0: fd2f a9bb 22c6 9c3d 9266 873d 69cc 8d3d
000000e0: e707 f8bd 56c7 bb3c 8f22 7bbd dc1b 9dbd
000000f0: d0e3 bf3d 7ea3 72bc d1b6 d9bd d3eb 98bd
00000100: f803 bcbd 3ada 813d f30b 973c 8a00 3abd
00000110: c877 b83d 58db f0bd 6879 24bc ef78 dc3d
00000120: 6210 d0bc 38ea 0e3c fa01 8abd 1b22 1f3e
00000130: 212b 5f3d 05c3 b83d 6f55 cebd d4c1 f0bd
00000140: d454 f53d c6ac 2b3d 508e 87bb ef2b 913d
00000150: 332b 293d e11e 43bd 3f2c 02bd 5dc5 a2bc
00000160: 930b 5c3d 2ad1 04bd 28c7 9abd d127 303d
00000170: d1de 84bd 3145 9b3c e291 d53c 53f4 e1bd
00000180: d1b4 1f3c ef67 483d ab27 43bd 7c24 b4bd
00000190: 0b34 963d 654e 6d3d 0864 e6bd f104 873c
000001a0: 150f 9a3d fbb1 ee3c d0d1 38bb d585 d8bc
000001b0: e668 85bd ae7a 18be e36d cfbc aae8 68bc
000001c0: 3f79 c53d d1c2 18bd 737c e23c 09ae d7bd
000001d0: accc 35bd 9991 603d 06dc 91bd baa2 a73d
000001e0: 8bc1 ce3c 77d3 9c3d 4197 db3c 2c0e f5bd
000001f0: 437f b3bd e0e3 55bd 682e 1ebe 4365 d0bd
00000200: 05f4 0b3d ef78 90bc 5f40 b2bd ab85 ddba
00000210: f59e d63d 51cc 093a b0d1 a73d ac98 81bd
00000220: 5190 d7bd 7dd3 683d 9a29 e5bb 4e61 0dbc
00000230: 5711 9e3d 7dd9 a6bd e89d f33d f2e3 f73c
00000240: 0e61 3bbc 040b 883c c861 8fbb a37a 6dbd
00000250: a3eb 78bd 3dce c93d 87e7 cfbc 9fa3 d0bd
00000260: b7d4 8f3d 1a8e 9fbd 0b72 00bd f9bd b5bd
00000270: 4ebe afbd 7fd0 ba3d f330 4ebd 4b2f a3bc
00000280: 3132 6abb 7a1d 273c a01a cd3d cbc8 b73b
00000290: e6ef 0cbd 4d38 0f3d 7aac c4bd e544 483d
000002a0: f413 0c3d 6655 f9bb 4b0a e4bd acdd ae3c
000002b0: 39dd d6bd d9a4 8cbd 07bc dabd de8f b53d
000002c0: 8054 72bd 5427 b4bc 3ba4 a5bd f780 113d
000002d0: 8097 e1bc 9652 2b3d 392b c3bd e6ba 743d
000002e0: a7e2 1dbd 3618 e13d 5959 d63d 0028 28bd
000002f0: 23d6 bb3d db41 c9ba 6ee3 05be 066a 8f3b
00000300: c873 9abc cc04 903d caa4 7b3d bf4a c03d
00000310: 45d6 0b3d 9de6 c13b 67b2 293c d096 50bd
00000320: d267 ff3d 1910 f8bc 5144 0c3b 7d30 05be
00000330: 9546 dabc 9164 12bd eb45 acbd 3788 fabd
00000340: 4a17 26bd ed43 133d 299f ddbb 1cf5 c13b
00000350: df3e 3b3c 9fe7 bc3d d006 bfbd 2db5 133c
00000360: 9d15 82bd abe5 05bc 04fe 893d c17e af3b
00000370: 1b2f 66bd 4383 cebd 421a f6bb 5e19 ee3d
00000380: 14ed cb3c d6e3 0d3b 020f 853d 3d90 75bc
00000390: 969d 75ba e29b 3c3d 641e df3d 70f2 073e
000003a0: 7ee1 643d f9bf 7dbc 3aa3 c7bd 3b18 943d
000003b0: 1efd c83c cdb2 153e ae4d e0bc fc0a 893d
000003c0: 923f a13d 8ecc 4f3d f557 ef3d c7cd c0bd
000003d0: 3a52 8fbd fba5 523c 1bcf 933d c5c6 9ebc
000003e0: a9fa 823d 8713 65bd c984 9c3c 6e7f d6bc
000003f0: 1377 cabd e0fc c5bc 63cc 153d 5be6 57bd
-0.0014254134 0.115356654 0.06804471 -0.07865533 0.059283644 -0.037723172 0.019220043 -0.018045237
-0.0035419774 -0.035234433 0.08837701 -0.040693417 0.07977123 0.025471056 0.066269904 -0.0022467393
-0.05846929 0.09430464 0.059153527 0.10596925 0.08812916 0.106626205 0.114067145 0.07060126
0.0799341 0.0058904667 -0.043913126 -0.037152387 -0.027742002 0.11057121 0.004222901 -0.02760487
-0.018985156 0.06172312 0.12251788 0.04006164 -0.03478555 0.101729386 -0.06021809 -0.13895409
-0.05349099 -0.0017491087 -0.024634333 -0.08339426 -0.09865392 -0.011081201 -0.11746094 -0.06914379
0.109139524 -0.026548682 0.029409641 0.08042562 -0.0051631914 0.07654978 0.066113606 0.06923754
-0.12110882 0.0229222 -0.061312255 -0.076713294 0.09369624 -0.014809487 -0.106305726 -0.07466855
-0.091804445 0.063404515 0.018438315 -0.04541067 0.090072215 -0.117605865 -0.010038711 0.10765254
-0.025398437 0.008722834 -0.06738658 0.15540354 0.05448449 0.09021572 -0.10074889 -0.1175572
0.1197907 0.041912816 -0.004136838 0.07088458 0.041300964 -0.04763687 -0.031780478 -0.0198695
0.053721976 -0.032426037 -0.07557517 0.043006722 -0.06487811 0.018953891 0.026070539 -0.11032929
0.0097477 0.048927244 -0.047645252 -0.08796021 0.07334145 0.05793609 -0.11249548 0.016481848
0.07522408 0.029137602 -0.002820123 -0.026431004 -0.065141484 -0.14890549 -0.025320953 -0.014215628
0.096422665 -0.037295166 0.027647233 -0.105312414 -0.044384643 0.054826353 -0.07122044 0.081853345
0.025238773 0.07657521 0.026805522 -0.11965594 -0.087645076 -0.05221927 -0.1544739 -0.10175564
0.034168262 -0.01763579 -0.08703684 -0.0016900798 0.104795374 0.0005256581 0.081942916 -0.06327948
-0.10525573 0.056842316 -0.0069934847 -0.008629156 0.07718151 -0.08146951 0.118953526 0.03026006
-0.011436714 0.016606815 -0.00437567 -0.057978284 -0.060771596 0.0985379 -0.025378956 -0.10187458
0.07022994 -0.077907756 -0.03135876 -0.08874125 -0.085812196 0.09121799 -0.05033965 -0.019920012
-0.0035735483 0.010199899 0.10014844 0.005608653 -0.034408472 0.034965802 -0.0960321 0.048893828
0.034198716 -0.0076090572 -0.11134776 0.021345936 -0.104914136 -0.0686738 -0.106803946 0.08865331
-0.059162617 -0.02199141 -0.08087965 0.03552338 -0.027538061 0.041826807 -0.095297284 0.059748553
-0.03854623 0.10990946 0.104662605 -0.041053772 0.09171703 -0.001535471 -0.13075039 0.0043766527
-0.018854037 0.07032165 0.061436452 0.09389257 0.03413989 0.005917384 0.010357476 -0.050925076
0.12470974 -0.030281113 0.0021403024 -0.13006778 -0.026644984 -0.03574044 -0.08411773 -0.12233012
-0.040549554 0.03595345 -0.006763358 0.005919112 0.011428564 0.09223866 -0.09327471 0.009015364
-0.06351779 -0.008172433 0.06737903 0.0053556864 -0.056197267 -0.1008363 -0.0075104544 0.11625932
0.024893321 0.0021650693 0.06497003 -0.014988002 -0.00093694904 0.0460471 0.108944684 0.13276076
0.05587911 -0.015487664 -0.0974793 0.07231184 0.024534758 0.14618988 -0.02738079 0.06691548
0.07873453 0.050732188 0.11686698 -0.09414249 -0.06998105 0.012856956 0.072172366 -0.01938189
0.06395466 -0.055926826 0.019106286 -0.02618381 -0.09885993 -0.024168432 0.03657187 -0.05270992

linear_relu_stack.7.bias f4 [128]
00000000: bf17 f6bb 1cfa 193d 1063 babc 30c3 933d
00000010: 2056 ef3d bd10 86bd 8213 483d 54a2 afbd
00000020: b6ee 2dbd 7ea4 c13d e5ea 08bd 5433 f6bc
00000030: 0cd5 a1bb 3ade 963b 2302 973d 41ef e83d
00000040: b51f 213e e428 37bc 10bb a83d 305e 0d3e
00000050: 26c0 d63d 7c83 323d 3a57 babd a8cc 4abd
00000060: fa38 60bd 42a8 d23d 9923 ad3d 7b9d dcbd
00000070: 3573 a3bd 8699 c8bd 6af2 c0bd 34b5 743c
00000080: 4c17 fc3c c871 adbd d787 1f3d 39dd cc3d
00000090: a9f9 9f3c 2563 17bd 845d 9f3d d40f e23d
000000a0: 37eb 2fbd 29d0 a9bd c6e5 b13b b31d fa3c
000000b0: be92 393d 41d9 2b3d 10da 57bd 1413 5abd
000000c0: 9a29 89bc 6e22 dc3d 9c2f 68bd a8e3 503e
000000d0: 8cd7 db3d c991 33bd b29b 1dbd d565 09bd
000000e0: a24c 4fbc 3dcb 113e 31b5 213e a329 87bd
000000f0: 3838 5e3d 3d2d 323c 38d9 903d 4b35 053e
00000100: 0a0e fdbd 94c1 bebd e985 bd3d e51b b7bc
00000110: 9cde e33c 4b4b 4d3d 08db 803d b5b2 b8bd
00000120: 0606 00ba 3181 953d d099 303d c684 033c
00000130: df46 5ebc eba6 733d 3a61 e03d d2de 34bd
00000140: 2770 8b3d 36b1 903c 8786 2c3d 327a 40bd
00000150: f1c9 bc3d 5437 d53d 1cb1 043d 1842 25bd
00000160: dad0 a2bc 79bd 6ebd d1e3 bd3d 2815 aabd
00000170: e112 803d 9967 cebc c742 033e 5ed0 913d
00000180: da05 023e b3d2 dc3d 5421 453d ea33 33bc
00000190: 101b 49bd 8a5f b7bc 38f9 7abb 84a6 bdbd
000001a0: d75c 4b3d b030 243e b37f 593d 85f2 2a3e
000001b0: 627f 9ebd eda5 b9bd 9de6 213d 5a2a 183c
000001c0: 2628 c9bd 1176 0c3e c1af 883d f53b 56bd
000001d0: 4797 e33d 685b 153e 768b 83bd 8c38 aebd
000001e0: e678 68bd 65f2 843d e5ac 5dbd 8e7b c43c
000001f0: d79f 1ebe c09e 9ebd 8419 833d 051f 203d
-0.007510155 0.03759204 -0.022752315 0.072149634 0.11686349 -0.06546161 0.04884673 -0.085758835
-0.04246398 0.094552025 -0.033427138 -0.030053772 -0.0049387272 0.004604128 0.073734544 0.11373759
0.15734752 -0.011179183 0.08238804 0.13805461 0.10485868 0.043582425 -0.090986684 -0.04951158
-0.054741837 0.10285999 0.08454055 -0.107722245 -0.07980958 -0.09794907 -0.09421237 0.01493578
0.030772828 -0.08468968 0.038947906 0.100031324 0.019528227 -0.036959786 0.077815086 0.11038175
-0.042948928 -0.082916565 0.0054290025 0.03053174 0.04530596 0.041955236 -0.052698195 -0.05324085
-0.01674347 0.107487544 -0.05668603 0.20399344 0.10734472 -0.043840203 -0.03847856 -0.03354438
-0.012652548 0.14237686 0.15791775 -0.065997384 0.054252833 0.010875043 0.07072681 0.13008611
-0.12356193 -0.09314266 0.09254057 -0.022352168 0.02781611 0.050120633 0.06291777 -0.09018461
-0.000488371 0.07300032 0.043115437 0.008027261 -0.013566702 0.059485357 0.109560445 -0.04415781
0.06808501 0.017662626 0.042120483 -0.046991535 0.09218205 0.104109436 0.032395467 -0.040346235
-0.019874979 -0.058286164 0.09271968 -0.083048165 0.06253601 -0.025195884 0.12818442 0.07119821
0.12697545 0.10782375 0.048127487 -0.01093767 -0.049098074 -0.022384424 -0.0038295519 -0.09260276
0.049649086 0.16034198 0.0531003 0.16694076 -0.0773914 -0.09064851 0.03952657 0.009287441
-0.09822111 0.13716914 0.066741474 -0.052303273 0.11112838 0.1458565 -0.064230844 -0.08506879
-0.056755923 0.064915456 -0.054119963 0.023984697 -0.15490662 -0.07745123 0.06401351 0.039092083

linear_relu_stack.10.weight f4 [1, 128]
00000000: ac55 3c3c 0dea a53d 3a2e 5c3d 38d1 77bd
00000010: 5c1b b43c a818 5d3d 93c5 c93c e482 87bd
00000020: 3be2 d13c 4266 81bd 3419 bdbc ce5e 1bbd
00000030: d3a1 38bd 5ec0 433d f661 87bd c97f c5bd
00000040: c8f1 223d 4075 e43b 852c a4bd c80b c4bd
00000050: a713 003d 5c5d f2bc 8833 8bbd d134 98bd
00000060: 33c5 93bd 39eb d3bc b195 5ebc 3aa8 0e3d
00000070: 3293 60bd 221c 603d ad81 76bd e0fa 31bd
00000080: 80f1 5abd 7b0e 07bd 2226 85bd 24a8 963d
00000090: b095 003d a904 ccbd 326f 863d 4790 a63d
000000a0: bc6f 693c 9d8e 333d c506 5dbd 0d65 023d
000000b0: 4855 54bd a54f 693d 76dc a4bc 337e 643d
000000c0: 5869 803c 92f9 00bd c6c2 57bd 01bf 053d
000000d0: 4fb9 a63d cbfa b8bd 1dba 29bd 2553 46bd
000000e0: 290b ffbc 74f7 b73d e2af 163d c4c1 403d
000000f0: 4c4a 04bd 9f8d c53d dd96 b4bd af08 93bd
00000100: 274d 773d c523 963d 25d1 98bd b1f6 22bd
00000110: 62d7 97ba 10f4 e93c f513 093d ed3f a4bd
00000120: b8a6 b53c 1dc8 a93d 2e32 83bd ecb8 b6bc
00000130: 26cd d6bc 6289 82bd b2a6 0c3d 5cf9 743d
00000140: 9150 a23c e0c2 7ebd f900 be3c d0c1 23bd
00000150: 7a91 0cbd de6b dc3c 0b1f 6d3c 962d 53bc
00000160: 2b55 193d 144a 6bbd 255e 36bd d51a 4c3b
00000170: 87d8 25bd 4080 023b 1e54 903d 7793 523c
00000180: 60d0 9c3d 3c56 91bd e9a0 10bd bc92 593d
00000190: 1f8a e23c 8555 8cbd a3fd 93bc cc81 a53b
000001a0: 7b0e 373d 30a9 683d 0b59 57bd 3640 4f3d
000001b0: e39f 89bd 2ae1 ca3c 4e33 623d 9bf4 54bc
000001c0: 31c1 993d 03da 4b3d 1a73 22bd a942 84bd
000001d0: c545 c7bc 061d 903d 0408 46bd 5e9e de3c
000001e0: 3d5f d0bc 5f10 48bd 1b25 3bbd af31 233d
000001f0: 7738 803c 9b91 61bd 6a56 493d 541a b4bd
0.011495035 0.08101282 0.053755023 -0.06050226 0.021985702 0.053978592 0.024630344 -0.06616762
0.02562057 -0.06318332 -0.023083307 -0.03793221 -0.045076203 0.047790878 -0.066104814 -0.09643514
0.03978136 0.006971985 -0.08016304 -0.095725596 0.031268742 -0.029585533 -0.06796938 -0.07431949
-0.07215347 -0.025868999 -0.013585494 0.034828402 -0.054827876 0.05471433 -0.060182262 -0.043452144
-0.05345297 -0.032972794 -0.06501414 0.07356289 0.031392753 -0.09961826 0.065641776 0.081329875
0.014247831 0.04383718 -0.053961534 0.03183465 -0.051839143 0.05696072 -0.020124655 0.055784415
0.015675232 -0.03148801 -0.052675985 0.03265286 0.081408136 -0.0903221 -0.041437257 -0.048419137
-0.031133251 0.08982745 0.03678883 0.04705979 -0.032297418 0.09646153 -0.088178374 -0.07179391
0.060376313 0.07331041 -0.07461766 -0.039786045 -0.0011584575 0.02855876 0.033466298 -0.080200054
0.022174224 0.08290122 -0.064060554 -0.022304974 -0.02622087 -0.0637386 0.03433866 0.05980812
0.019813808 -0.062197566 0.023193823 -0.039979756 -0.034318425 0.026906904 0.014472733 -0.0128892865
0.037434738 -0.057443693 -0.044523377 0.0031143923 -0.0404897 0.0019912869 0.07047294 0.012852541
0.07656932 -0.07096526 -0.035309706 0.053118452 0.027653752 -0.06852249 -0.01806528 0.0050508734
0.044691544 0.056801975 -0.052575152 0.050598346 -0.06719949 0.02476557 0.05522471 -0.012997772
0.075075515 0.04976846 -0.03966055 -0.06458027 -0.02432526 0.07036786 -0.048347488 0.027175125
-0.025436038 -0.048843738 -0.045689683 0.039842304 0.015651925 -0.0550705 0.049154676 -0.08794084
