saved_models/model30.pth (torch, 13429 bytes, 9 tensors)

linear_relu_stack.0.weight f4 [4]
00000000: d745 733f b7cf 833f 120d 6a3f cf2b 723f
0.9502844 1.0297765 0.91426194 0.94598097

linear_relu_stack.0.bias f4 [4]
00000000: 4e93 86bc 6fd8 663d e111 c23c a3e1 b03d
-0.016427662 0.05635875 0.023690166 0.08636787

linear_relu_stack.0.running_mean f4 [4]
00000000: 1faf b240 6cd0 1541 5887 1e43 2208 5340
5.583877 9.363384 158.52869 3.2973714

linear_relu_stack.0.running_var f4 [4]
00000000: 9d2d 5642 a90c d740 7993 c046 7459 aa40
53.544544 6.7202954 24649.736 5.3234196

linear_relu_stack.1.weight f4 [32, 4]
00000000: 3515 813e 98d3 c9bd 3bb7 f9be f5c4 c83e
00000010: 3f92 6d3d 70f2 873e ae4f 06be 1513 893e
00000020: 857d 39be 4adf fe3e 24cf 0f3d 19cf b3be
00000030: 60fe 13bf 805a 51be 8b90 ea3e 53dd 133e
00000040: 961e 913e f08f b1be 7cc4 c43e 805b a9bd
00000050: 9ea3 30be de8f a63e bf77 64be 7e9b 0f3e
00000060: 3bc1 c03e 88c5 e33d 94d1 d43d 3038 6fbe
00000070: cb13 cabe cee7 46be f05b 053e 07f4 8dbd
00000080: fc50 6abe f324 013f 1231 413e ea9b 7f3e
00000090: 4087 703e 2e76 6fbe 6ed6 e03e 4224 893e
000000a0: 2231 163e 2a04 57be 8507 9d3e fe16 af3e
000000b0: f9f8 c93c 0a57 c93e 4465 a63e e315 38bd
000000c0: d1d0 1e3e 4112 c9bd b119 5d3e 3c08 f3be
000000d0: 02c5 073e 3b72 bd3e 2303 3f3e 6cca 51be
000000e0: e285 3f3e 1fcb 66bc e559 c0be 71ea 063e
000000f0: 08d7 ff3c 02ce 083f 5228 0a3e 2f99 b9be
00000100: 25c3 543e 6ba7 87be 6a53 f4bd 62e2 b93e
00000110: c191 93be e709 21be 31d4 b9be 5232 f1be
00000120: 9caa e23e 2239 b3be 225c 073e 6e11 323e
00000130: b1fd 44be 712d 9b3e 6687 83be ffab 8ebe
00000140: 39c6 78bc a2ef bd3e 5e8b 3f3e 3b8f babe
00000150: 8da3 54be cdf8 293d d029 023e bc5f f0bd
00000160: 8367 c23e 6f96 50be e0b9 90bd 7e59 4cbd
00000170: 124e 0dbf b294 f7bd e42b dc3d ecda 86be
00000180: 8a20 d43e 3c58 6cbd cd58 a7be 0f10 7bbe
00000190: 38e9 4e3e b3e2 13be 9e56 99be d916 8f3e
000001a0: 0326 fcbe 1be1 d2be 23bc 143e 9797 103d
000001b0: 55c2 9bbe 5b55 1abe 39c8 7f3e 2498 f7be
000001c0: d051 abbd 5503 5abe 6034 bf3d d666 00bf
000001d0: aff2 133b 0ab0 4c3e cd2b 623e 7b70 9abe
000001e0: 8398 3ebc adf9 c73e 5b57 eebd 065d fabe
000001f0: 52f6 a6be f0bf 0e3f 94df 933e 9755 5bbe
0.25211492 -0.098548114 -0.48772606 0.39212766 0.0580008 0.26552153 -0.13116333 0.2677237
-0.18114288 0.4977973 0.035109654 -0.3511894 -0.5781002 -0.2044468 0.45813403 0.14439897
0.28343648 -0.34680128 0.38431156 -0.08269405 -0.17249915 0.32531637 -0.22311305 0.1402416
0.37647423 0.111216605 0.10391536 -0.23361278 -0.39468226 -0.19424364 0.13023353 -0.0693131
-0.22882456 0.50447005 0.18866375 0.2496182 0.23489094 -0.23384926 0.43913597 0.26785475
0.1466718 -0.20997682 0.306698 0.3419723 0.024654852 0.39324218 0.32499135 -0.044942748
0.15509345 -0.09817935 0.21591832 -0.4746722 0.13258746 0.37001213 0.1865354 -0.20487374
0.18703416 -0.014086514 -0.37568584 0.1317537 0.031230465 0.5343934 0.13491943 -0.36249682
0.20777567 -0.26494917 -0.119299725 0.3630553 -0.2882214 -0.15726434 -0.36294702 -0.47108704
0.4427079 -0.35004526 0.1321874 0.17389461 -0.192374 0.30308107 -0.25689238 -0.27865598
-0.015183979 0.37096888 0.18705508 -0.364374 -0.20765515 0.04149704 0.12711263 -0.1173701
0.37969598 -0.20369886 -0.07066703 -0.049890034 -0.5519725 -0.12088908 0.10750559 -0.263389
0.41431075 -0.057701334 -0.32684937 -0.24517845 0.20206153 -0.14441948 -0.29948896 0.2794712
-0.4924775 -0.41187367 0.14524893 0.035300817 -0.304217 -0.15071623 0.24978723 -0.48358262
-0.08365214 -0.21290334 0.093361616 -0.50156915 0.002257507 0.19989029 0.22087021 -0.3016394
-0.011633041 0.39057675 -0.116377555 -0.48899096 -0.32609802 0.55761623 0.28881514 -0.21419369

linear_relu_stack.1.bias f4 [32]
00000000: 38b7 ef3e 2d01 873e 8a7b 9d3e 75d4 4a3e
00000010: 0dc2 8bbe 27b1 27bd 4ac8 a13e 8672 a33e
00000020: 1d1c 6bbe d49c 05bf 4fb6 cfbc b30b 813e
00000030: f286 f2be 3365 023e daef 8e3e 12a4 d2be
00000040: 78e9 b1bd 0ad5 e03e 24cd cf3e 853c aa3d
00000050: 4358 283e 4911 b53c 5ce7 bb3e e56a 123e
00000060: 3b26 c1be 69ac b23e b08d bfbd 920c 9d3c
00000070: 7a7b 773e d1a6 a63e 2795 8bbe 9b11 7b3e
0.46819472 0.26368085 0.30758315 0.19807608 -0.27296486 -0.04094043 0.3159812 0.31923312
-0.22959943 -0.52192426 -0.025355486 0.25204238 -0.4736858 0.12733917 0.27917367 -0.411408
-0.08687109 0.43912536 0.40586197 0.083123244 0.16439919 0.022102969 0.3669995 0.1429859
-0.3772448 0.34897164 -0.093531966 0.019171033 0.24168196 0.32549146 -0.27262232 0.24518435

linear_relu_stack.4.weight f4 [64, 32]
00000000: a2c9 2cbd 3ad5 96bd 1e75 1cbe 9ca7 9b3e
00000010: 4efd f93c 3e6f dc3d d9d3 1abb bf48 b53d
00000020: dc35 8cbd 14ca 44bd 51d3 c5bd 503c a03d
00000030: 7cf5 a63d 78f4 c2bd 5ac8 1cbe 659b 293e
00000040: a301 dbbd 1e63 f53d 8a16 9ebb 8384 233e
00000050: d28b f43d 606c 723e ee70 dfbc 7297 343e
00000060: 2bb2 5f3d 2cdc 74bb a986 a13d 863d 093e
00000070: d161 50bd ab15 b7bd 95a0 23be c93a 023e
00000080: 7a3c 10be 0ac4 a93d 7334 2cbd 1b97 ac3d
00000090: b730 af3d 551d 15be 0e72 033d 54a7 c0bb
000000a0: e0c2 06bc 2764 e3bd 1688 133e b6f8 b6bd
000000b0: 5d4e 0d3c eb45 483e 267a 1abe 4911 75bd
000000c0: ac61 243b a63f e43d beca 64be 5025 9cbb
000000d0: 2cd1 f23d 9e59 253e 186b 0abe 62b5 89bd
000000e0: c538 a1bd 250e 0fbd 2027 b73d 7069 8d3d
000000f0: 8d75 49be 9d2d 2abd 8288 d5bd 3f7c 30be
00000100: a4a8 0c3e e78f 73bc 3434 763d 4ba0 eb3d
00000110: 1555 01be dc8f e4bd 88bd 0ebe 3bde 5bbe
00000120: 9367 093e 6597 8cbd 9ccf 8e3e 436d 0ebd
00000130: 1645 0cbb 07e0 68bd 09e7 95bd 067e 183e
00000140: 4548 d8bd 85db 2cbe 1fae 913d eace 92bd
00000150: 0e10 8dbe 4462 b23d de01 4bbb 1bdb b33d
00000160: 4dc0 97bd 08c7 213e f8fe ef3d e9cf 1f3d
00000170: c62d 90bc 66db b1bc 0f64 7fbe d361 ffbd
00000180: 5273 10bd c790 d2bd d532 a63d 02f6 7a3d
00000190: 03f5 123e 6296 773d 60d7 0b3e 44e0 0ebe
000001a0: 6fdc 153e b970 21bd 1415 65bd 86a4 ef3c
000001b0: f357 7b3e 9a6a 813e d177 62bd cb9b 0dbe
000001c0: e78d cbbd 4fb3 89bd 9c78 09be 365c f33b
000001d0: 3696 953d 231f 4b3e a3f5 2dbd ce2d c73d
000001e0: 25e8 bbbc 6700 2d3d 4f43 12bd aa81 963c
000001f0: 0c1b efbc 3d7d 19bc b6da 3dbd 752a 033e
00000200: 6872 c23c 282c a53d e8f2 5dbd eabb 493e
00000210: f5df a7bc 4a0f 3f3d 6833 083e 5153 9fbd
00000220: 4a43 e73d ff37 3bbd 7a14 7fbc ddcb 46bc
00000230: ad59 2f3e acd8 dabb bec8 a33d 6374 ce3d
00000240: 8730 853b c5df 8b3c 1bc4 23be 3501 9dbd
00000250: 6ca1 df3d 47c2 033c de08 5abd 4a4c 0d3e
00000260: 129f 043d 595b 2bbe d665 f93d b0b1 373e
00000270: 86cb d4bd 40fa 0e3e 6b9a d43d 390f 923e
00000280: fa69 3abe 8f4c f33b 33e0 bc3d 62ad 5fbe
00000290: c40a a93d 2741 513e 7426 4d3d 6b27 443d
000002a0: d397 48be 3713 043e e09f 513e 5cc0 f3bd
000002b0: d896 1f3b 6a1e 093e 020b 113e c0b8 3abe
000002c0: 31cb d0bd f35e babd 3881 afbc 6c84 9a3c
000002d0: 51f8 abbd d644 753c e52c 033d a8ad 3c3e
000002e0: d1dc 113e a72b 5b3c a69e 0fbe e196 3fbe
000002f0: 6f45 3c3e 29d6 5cbd 73a7 6abe eab7 aebd
00000300: 46f7 1dbe 54aa d83d 8dcc 8d3d a298 90bd
00000310: 6ec2 8a3d fc07 783e 3881 b1bd 52ac 883d
00000320: 06d6 34bd 6d86 3e3c 2b8f 01be 142b 273e
00000330: 0329 40be a8ba 37bd 391b c73d 64a2 3dbd
00000340: 928f cc3c 5c5a 12be 2e5b 4cbe ef62 97bc
00000350: 61ed 9d3d 21c1 713e b3b6 623d 4e0f 02bd
00000360: cd5e 49be b2df 5b3c 4318 043e 1263 f6bd
00000370: 6196 783c 2505 583e 5657 b6bc 32ae cabd
00000380: e4de c63d 26fa d53d 2c18 71be 5a3e c5bd
00000390: c99a b73d 4137 73be 3b03 28be 66cb a5bd
000003a0: 2eab f33c 8729 1d3d 1c8d 51bd e3c3 263e
000003b0: 176f b13c 552b cf3d 4d8b 29be 144a 703d
000003c0: fa5d d3bd 391c 7dbd 7f9d 4e3e 2452 553d
000003d0: 0ce7 7c3d 5fb0 0fbe 6717 053e fc4a 0cbd
000003e0: 82d9 333e 7b56 e73c 76a6 ad3c 96ce 60bd
000003f0: a1cb 30be ccf3 b53d 8e0b 8bbd 4332 773d
-0.04218448 -0.073648885 -0.15279052 0.30401313 0.030516293 0.10763405 -0.0023624806 0.08851766
-0.0684621 -0.04804428 -0.09659446 0.07824004 0.08152291 -0.09519285 -0.15310803 0.16563185
-0.106936716 0.11981796 -0.004824464 0.15968518 0.11940731 0.23674154 -0.027275529 0.17635897
0.054613274 -0.0037362678 0.078870125 0.13402376 -0.050874535 -0.0893968 -0.15979226 0.12717737
-0.1408557 0.082893446 -0.042042207 0.084272586 0.085542135 -0.1456197 0.032091193 -0.005879322
-0.008225173 -0.11103087 0.14407381 -0.089341566 0.00862464 0.19557922 -0.15085658 -0.059830938
0.002508263 0.111449525 -0.22342965 -0.00476519 0.118563026 0.16147467 -0.13517416 -0.06724049
-0.07872156 -0.0349256 0.089430094 0.06904876 -0.19673748 -0.041547406 -0.104264274 -0.17234896
0.13736206 -0.014865852 0.06010838 0.11505183 -0.12630112 -0.111602515 -0.13939488 -0.21471493
0.13418417 -0.06864814 0.27892768 -0.03477217 -0.0021403483 -0.056854274 -0.07319457 0.14891824
-0.10560659 -0.16880615 0.07113289 -0.07168372 -0.2755131 0.08710149 -0.0030976455 0.087820254
-0.07409725 0.1579858 0.11718553 0.039016638 -0.017599951 -0.021711063 -0.24940513 -0.1246983
-0.035266228 -0.1028152 0.08115164 0.061269768 0.14351277 0.06044615 0.13656378 -0.13952738
0.1463487 -0.03941414 -0.055928305 0.029253256 0.24545269 0.25276643 -0.055290047 -0.13828962
-0.09939175 -0.067236535 -0.13424915 0.007426764 0.07304041 0.19836096 -0.042470586 0.097255334
-0.022937844 0.04223671 -0.03570872 0.018372376 -0.029187702 -0.009368238 -0.046351157 0.12809165
0.023736194 0.08065063 -0.05418673 0.1970059 -0.020492533 0.04664544 0.1330086 -0.07779563
0.11292131 -0.0457077 -0.015568847 -0.012133566 0.17124052 -0.0066786613 0.07997273 0.10080793
0.004064623 0.017074475 -0.15992777 -0.07666246 0.10919461 0.008041925 -0.053231113 0.13798633
0.032378264 -0.16734065 0.12177627 0.17938876 -0.103903815 0.1396265 0.103810154 0.2852724
-0.1820449 0.007424898 0.0922245 -0.21843484 0.082540065 0.2043501 0.0500855 0.047889154
-0.19589166 0.12897955 0.20471144 -0.11901924 0.0024351384 0.13390508 0.14164355 -0.18234539
-0.10195006 -0.091001414 -0.021423921 0.018861972 -0.08396972 0.014970025 0.032025237 0.1842562
0.14244391 0.013377107 -0.14025363 -0.187099 0.18385862 -0.053915177 -0.2291544 -0.085311726
-0.15426359 0.105793625 0.069237806 -0.070603624 0.06775366 0.24221796 -0.08667225 0.066734925
-0.04414942 0.011628729 -0.1265227 0.16325027 -0.18765645 -0.044855744 0.09721989 -0.046297446
0.024970803 -0.14292282 -0.19956657 -0.018479792 0.07711292 0.23608829 0.055350017 -0.031752877
-0.1966507 0.013420032 0.1289988 -0.12030615 0.015172572 0.21095712 -0.022258442 -0.09896506
0.09710482 0.10448103 -0.23544377 -0.09631033 0.0896507 -0.23751546 -0.16407482 -0.08095436
0.02974471 0.03836968 -0.051159963 0.16285662 0.021659417 0.10115687 -0.16557045 0.058664396
-0.10320659 -0.061794493 0.20177267 0.05208029 0.06174378 -0.14032124 0.12997209 -0.0342512
0.17563441 0.02823948 0.021197539 -0.054884516 -0.17265178 0.08884391 -0.06789313 0.060350668

linear_relu_stack.4.bias f4 [64]
00000000: b638 64bb c0ff 9b3d 7ab1 ed3b 7e74 b43d
00000010: 1e55 223e f50f b9bd 8f08 86be 9fb5 cd3d
00000020: 4c95 e2bc 0dca 6abd 2a72 6fbe f49f f83d
00000030: 58a7 a03d 2c4f 063e a3db 2dbc 02c4 55be
00000040: 6b33 80bd 0918 16be 153d 05be 5517 e5bd
00000050: cee1 1cbd 085b 8bbd f98b 363e 9d1a 193e
00000060: 026f 84bd 37ae 143e 2db1 acbd a040 903d
00000070: 6229 95bd be27 00be 696c a03d 64f2 b63c
00000080: d3f0 10be 4fad acbc cd60 8c3d 6950 51be
00000090: 2581 a73d e4fe ee3d 484d a3bd 1eb4 0a3e
000000a0: 8877 e4bd fa19 f6bd 75f0 bcbd 05b0 95bd
000000b0: 66ad 87bd 8d4b b93d 4fbb a03d 89ea 5f3e
000000c0: 1514 143e e456 0dbd fc15 923d acc6 3ebc
000000d0: 1244 62bd 8b35 67bd 61ce 0a3e 2a10 7cbd
000000e0: cced 033e 8425 f43d ffcf f63c 0ae9 1dbe
000000f0: 2a5d cd3d 0d92 5cbd cb48 75be c96c 7d3e
-0.0034823841 0.0761714 0.007253823 0.088112816 0.15852782 -0.09036247 -0.26178405 0.10044407
-0.02765908 -0.057321597 -0.23383394 0.12139884 0.07844418 0.13116139 -0.0106114475 -0.20875552
-0.06259807 -0.14657606 -0.13011582 -0.11186091 -0.03830128 -0.06804472 0.17826833 0.14951558
-0.064664856 0.14519583 -0.08432231 0.07043576 -0.07283284 -0.1251516 0.078331776 0.022332378
-0.14154367 -0.021078734 0.06854401 -0.2044083 0.08178929 0.1166971 -0.079737246 0.13545272
-0.11155611 -0.120166734 -0.09225551 -0.07308964 -0.0662487 0.09047613 0.07848226 0.21866812
0.14460786 -0.034506693 0.071330994 -0.011644047 -0.0552407 -0.056447547 0.1355529 -0.061538853
0.12883681 0.11921218 0.030128477 -0.15420929 0.10027535 -0.053850222 -0.2395355 0.2474853

linear_relu_stack.7.weight f4 [1, 64]
00000000: e7e7 babd 6c1a 8abc 2eff 28bd 3240 77bc
00000010: 5312 80bd 69b8 ef3d accc a03c 18dd 30bc
00000020: 1853 703d f34d 8cbc fda4 473b fddb 883c
00000030: 7087 b2bd e679 0cbe 1042 41bb 1c4a c2bc
00000040: d02d 12be 2efa 04bd 7c13 483c f12a 3cbd
00000050: 9fe1 f1bc b6ca 853c 4ab0 76bd ded8 1e3c
00000060: 032f 063d 0eea 14bd b7ae 15bd e091 7c3d
00000070: a3e9 96bd 4850 d03c f0d9 523d f6b1 123d
00000080: 5089 02bc a89e 9bbd 50b9 92bd 4e7e 93bc
00000090: 3221 99ba 50bb debd 7d77 8ebd 1dac 493d
000000a0: 050a 7abd c3d5 283c 1bce 91bb 328a 38bd
000000b0: 6bfb ebbb eb30 b2bd 73b4 bb3d e8bc d7bd
000000c0: 8b84 bebd 9373 95bd 68a3 c13d 6c81 3e3d
000000d0: 6fca 573d 3c54 333b 1c64 24bd af13 b4bd
000000e0: 01d4 013e 708f c5bd 0546 febc b35f a23c
000000f0: 356f 6e3d e8b7 9e3d 3d7b 2a3c 48c9 9d3d
-0.09126263 -0.016858302 -0.041258983 -0.015090989 -0.06253495 0.11705095 0.019628845 -0.0107949
0.058672994 -0.017127013 0.003046333 0.016706461 -0.08717239 -0.13718376 -0.002948884 -0.023716979
-0.14275289 -0.032465152 0.012211677 -0.04593939 -0.02952653 0.016332012 -0.060226716 0.00969526
0.032759678 -0.036356024 -0.036543574 0.061662555 -0.073687814 0.025428906 0.051477373 0.035814248
-0.007967308 -0.07598621 -0.07164252 -0.018004563 -0.0011682867 -0.10875571 -0.06956384 0.049236406
-0.06104471 0.010304871 -0.0044496185 -0.04505367 -0.007201602 -0.087007366 0.09165277 -0.10534078
-0.09302624 -0.07297435 0.094549954 0.046510145 0.05268329 0.002736344 -0.040134534 -0.08792817
0.1267853 -0.09646499 -0.031039247 0.019821024 0.058211524 0.07749921 0.010405359 0.07704407
