saved_models/model40.pth (torch, 47599 bytes, 11 tensors)

linear_relu_stack.0.weight f4 [4]
00000000: cb55 813f 00cd 853f 7617 723f 47cc 803f
1.0104307 1.0453186 0.9456705 1.006234

linear_relu_stack.0.bias f4 [4]
00000000: 39d1 ad3d 11bc 37bd 5b20 47bd f1c3 953d
0.08487172 -0.04485709 -0.04861484 0.073127635

linear_relu_stack.0.running_mean f4 [4]
00000000: 4450 c240 a3be 1a41 ff7d 1f43 c0c4 5640
6.072298 9.671542 159.49217 3.3557587

linear_relu_stack.0.running_var f4 [4]
00000000: c6cc 8042 9c60 ce40 f0ee b046 5ebf ad40
64.39995 6.449293 22647.469 5.4296103

linear_relu_stack.1.weight f4 [32, 4]
00000000: cbb4 ac3e 6419 47be 6db9 62bd df4f 483e
00000010: c023 12bf ab0f 87be 8f6d 4c3e d5ed 3ebe
00000020: a267 1a3d dfa4 c13e d3a9 993e 0e06 4abe
00000030: b251 e9be 1d4a ba3c 974e 1bbe 918f 663e
00000040: 8875 da3e 549a ed3e db9a 573d 6f05 f0bc
00000050: 1d85 ba3e 88f0 b1be 6300 9abe 348e c93d
00000060: c978 c23e c180 d63d 39d7 f4be 4db1 b7be
00000070: 9c1f 69bd 78a5 2d3d 46f0 503e 3809 9b3e
00000080: ca4a 8c3e cf26 f2bd 5841 e0be c77e 2c3e
00000090: 1bea 36be 633a 793d 251c 36be d677 c23e
000000a0: 19ca 3f3c 7e17 9abe 6ac0 edbe 63ee 603e
000000b0: 0865 cbbd f88c 623e 311b 043d f31f 44bd
000000c0: f47d ae3e 6828 70be ae6e dabd a82b 6e3e
000000d0: b3cb 863d 315b 9abe 61e8 fdbe 8227 3d3e
000000e0: f2cd aabd fe34 f4be 435d 0bbf e5e5 2dbe
000000f0: 58e0 5ebe b38d 2abe 8bec 43be 0bab 3fbe
00000100: f852 cebe edd2 653e 51a0 0f3e d4c0 01bf
00000110: d295 993d 5108 b93e c3f2 8dbe 1005 633e
00000120: 37d8 bdbe 219c dbbe 8f4b 8dbd 9f3e cd3e
00000130: 574c a1be 3ebd 743c 3118 8c3e 64b9 54be
00000140: 773e 00bf 2508 e2bd ff9e 8f3e 8367 72be
00000150: a33d a73d 7363 8dbc d372 afbe a4e8 bdbe
00000160: d3f4 c93e f04e 863e 0190 39be 4cd1 dfbe
00000170: e097 8dbe d8ae 073e 77c8 0ebf ac15 f53e
00000180: 0684 11bf c269 77be 8c07 993e 8fe6 edbe
00000190: 50d2 b13e ed3d afbe 4f5b bb3e c2bd 813d
000001a0: bba5 fbbe 2910 853e 0676 c7bd 5b8f b7be
000001b0: d8ab 02bf 5830 093f 7cd1 74be 890e d5be
000001c0: 1e31 04bf b819 d43e c7d6 1ebe 5fa1 03bd
000001d0: 6a4d d4be abe6 383d dd3b acbe aad5 d1be
000001e0: e734 81be 4b38 1ebe e7c6 cebe 97f3 5bbe
000001f0: 4a31 7fbe 65bc 8fbe dc5d a73e 96a2 a3be
0.33731684 -0.1944328 -0.055352617 0.19561718 -0.570858 -0.2637914 0.19963668 -0.18645413
0.03769649 0.378211 0.30012378 -0.19728872 -0.4557014 0.022740418 -0.15166698 0.22515704
0.42667794 0.46406806 0.052637916 -0.029299466 0.36429682 -0.34753823 -0.3007842 0.09841576
0.37982777 0.104737766 -0.47820452 -0.35877457 -0.05691491 0.04239413 0.20404157 0.3028047
0.2740081 -0.118238084 -0.43799853 0.16845237 -0.17862742 0.060846698 -0.17784174 0.37982053
0.011705899 -0.30096048 -0.46435863 0.21965937 -0.099313796 0.22124088 0.032252494 -0.04788203
0.3408047 -0.23452914 -0.10665642 0.23258841 0.06581821 -0.301477 -0.49591354 0.18472102
-0.08340062 -0.4769668 -0.5443918 -0.16982229 -0.21765268 -0.16655616 -0.19133203 -0.18717591
-0.40297675 0.22443743 0.14026 -0.5068486 0.07499279 0.36139157 -0.27724275 0.221699
-0.3707902 -0.42892554 -0.06899177 0.4008684 -0.31503555 0.014937697 0.27362207 -0.20773846
-0.50095314 -0.1103671 0.28050992 -0.23672299 0.08166053 -0.017259335 -0.3426729 -0.37091553
0.394446 0.262321 -0.1812134 -0.43714368 -0.27654934 0.13250291 -0.55774635 0.47868097
-0.56842077 -0.24161437 0.2988857 -0.46464965 0.34730768 -0.34226933 0.365931 0.063350216
-0.4914988 0.25988892 -0.09739308 -0.3585156 -0.5104346 0.5358939 -0.23908037 -0.41612652
-0.51637447 0.41425872 -0.15511619 -0.032136317 -0.41465312 0.045141857 -0.33639422 -0.40983325
-0.25235674 -0.15451162 -0.40386125 -0.21479641 -0.24921146 -0.2807342 0.32688797 -0.3195998

linear_relu_stack.1.bias f4 [32]
00000000: c372 6b3e 6c86 a43c 70b0 1f3e 58b3 873e
00000010: 97c2 d1be 59c2 953e ae9a 1a3e 4bcb 78be
00000020: 373b a63d 06dc c43d 3cc5 ba3d 4ad8 603e
00000030: 448e be3e 54cd 6b3e 9f2c 54bd 80ce d9be
00000040: f9ac 96bd 73b7 ac3c a486 01bf 3ec7 a73e
00000050: 7bff a73d 2ef4 dcbd 5080 01bf 7e93 543e
00000060: ae26 4e3e 4561 60be 411a 98be 924e 493d
00000070: d205 54be b18c 65be 5f3a 8f3e e48a 9d3e
0.22992997 0.020083629 0.1559465 0.26504016 -0.40968773 0.29249838 0.15098068 -0.242963
0.08116763 0.09612279 0.09119651 0.21957508 0.37217915 0.23027545 -0.051800366 -0.4254036
-0.07357211 0.02108357 -0.5059607 0.32769197 0.08203026 -0.10788761 -0.50586414 0.20759389
0.20131943 -0.21912105 -0.2970753 0.049147196 -0.20705345 -0.22416951 0.2797422 0.30770028

linear_relu_stack.4.weight f4 [64, 32]
00000000: 2dff b2bd abac 00be a84f e83d 2fba dc3d
00000010: 445e 353e a919 a7bd e062 1fbd dfe3 ae3c
00000020: eb38 d0bd faa5 27be 194b c33b 5a66 39bd
00000030: 7c6f bdbd ab87 39bd 8f46 033e b09c 7b3e
00000040: 04dc 4c3e dd54 273e a501 a23d 1901 3f3e
00000050: afc5 3d3e 44bc b53c 7452 09be 5132 93bd
00000060: 9b2d 823d 0aad cebd a441 3d3e 6674 313e
00000070: b9c7 243e 0aab 6dbd 2d7e c73c bc20 f6bd
00000080: 0fa4 29bd 7fff 2dbe 7568 043e 2315 49bd
00000090: 4cf5 f63d 6dad 1bbe aa87 f1bd bd2e 0abe
000000a0: 84b0 17be ae5b f8bd ff95 343e 79d6 32be
000000b0: 6e46 6bbd 2728 bfbd 5bc4 373e abd0 26be
000000c0: 0306 f73d 74b6 10bd 2e66 01be 0161 1dbe
000000d0: 5d9c 3a3d e18f cbbd 0241 14ba 22fe d2bd
000000e0: 0d5a 96bd d634 cdbd 2a72 02be ea24 4cbc
000000f0: cd3c 15be 160e 4c3d 3ad5 923d c5b3 98bd
00000100: 9876 a2bc f414 863d b83c b13d 3348 06be
00000110: e603 b5bd e738 3fbd 2f6b 9d3d 292f 2a3d
00000120: 69c4 5f3c 5d4b 113e 9be0 0ebe 3471 be3d
00000130: 562b 1abe 4d73 f0bd 2d06 3dbe a4f3 19bd
00000140: 4633 3d3e 5c36 e53d cefc 29be 3e72 ffbd
00000150: 8c2d 0b3e 72ec 11bc c377 f23c 4cac 39bd
00000160: 7f5d 5b3d 5b07 8f3d bc41 313d 0708 1b3e
00000170: 2fdd a0bd b941 553e a1b5 8ebd 9244 053e
00000180: 5998 733c 737c 1cbd 8688 9ebd a199 17be
00000190: b7bb 333e bf22 e9bd b77a ff3d f71b c7bc
000001a0: f375 043e de1b 273d 40dd 003c ce11 0ebe
000001b0: dac4 cbbd 0d3d 10be c902 d43d 92c3 48bc
000001c0: 2c37 a33d 8525 3bbe a5e5 0b3e d30c b3bc
000001d0: 4412 3a3d ab99 d4bc b08e c5bc d042 bbbd
000001e0: 058d c4bd a407 823d 1373 40bb 9526 973d
000001f0: 7a4c 503e 12fd 483e 3ed1 143e 565e 89bc
00000200: 9464 debc def7 2b3d 93f6 0fbe 0d57 033d
00000210: 541d ccbc a38e f73d 432b 84bd d5cb 993c
00000220: ab5d 293e 807d e7bd b70f 3c3e 2b7f 02bd
00000230: d7c6 463d 3172 33bc 66db 58bd 2bac 8cbd
00000240: ceea 90bc cd2b 8c3d 21e4 ea3d 41f3 853c
00000250: a739 20be 5a7c 7e3d 0a5a 21be 8467 223d
00000260: bd57 5b3d 0e8b 3bbc 8d40 293d 98c3 08be
00000270: 60ee d1bd 2a29 87bd adbe 333d 86e7 15be
00000280: 0132 63be 8ac0 c23a 93bb 2f3d 6d8e c6bd
00000290: c514 babd 9297 c2bd 2a59 9e3d 9977 e2bd
000002a0: 433f da3b 4c15 d0bc bcd3 aebd 026b 223e
000002b0: 6664 7dbe 1ae2 5fbe 3451 ab3c f4a7 3ebc
000002c0: efb5 1a3e 6d95 14be dfbc 0b3e c34e 9bbd
000002d0: 67b5 8e3d 1fe2 673d e3e8 1c3e 3277 d3bd
000002e0: 5cef d83d 0ac8 12be ac55 403e 6762 c5bd
000002f0: 53bf 7d3e 41e3 403e d11b 83bd 7323 d83c
00000300: fcaf 18be 776d 8ebd 3032 cabd 0204 853d
00000310: 220e 22bd 0d97 49be 8d0e a5bd dc83 a5bd
00000320: 2018 eabd dd0a 463d 0fbf 223c f80c f03d
00000330: cbb6 19be 5be7 cabd fd15 64bd 0a2e cf3d
00000340: 0619 643e 84aa 20be 0997 143d 8cc2 0abe
00000350: 52f1 edbc 40b4 07bc 4f80 f73d 4b25 cebd
00000360: 9050 dc3d 5a63 a5bd ef60 65bd 80e9 d03d
00000370: 8b7d 01be ec11 933c f740 f9bd 01f4 a63d
00000380: 92ee 12be 3ad5 1a3e 447d ba3d 41f7 b53d
00000390: 2e65 1d3e 5482 a03c ab7f 85bd 0526 64bd
000003a0: 84d4 8ebd 4aff db3d 4b75 243d 51ab 23be
000003b0: c671 55bd b4fd 923c 1e43 23bd 1570 ef3d
000003c0: c652 00be 31d9 e2bd 5b0a fbbd 51b4 02be
000003d0: 5ce3 75bd 887b 3abe 2ecb 973d a980 aebd
000003e0: f09b 043e 0818 d3bd 268e 8fbd 9d9d 263e
000003f0: 903a 94bd 6a92 aa3d 2fae 073e 04f2 2b3e
-0.08740077 -0.12565868 0.11343318 0.10777699 0.1771174 -0.08159191 -0.038912654 0.021348892
-0.10167106 -0.16371909 0.00595988 -0.045263626 -0.092497796 -0.0452954 0.12819885 0.2457149
0.20005804 0.16340967 0.0791047 0.18652762 0.18532442 0.022184499 -0.1341036 -0.071873315
0.06356355 -0.10091598 0.18482071 0.17329559 0.16091813 -0.058024444 0.024352157 -0.12017962
-0.041416224 -0.16991995 0.12930472 -0.049092423 0.120585054 -0.15202875 -0.11793454 -0.13494392
-0.14813429 -0.121268615 0.17635344 -0.17464627 -0.057440214 -0.0933383 0.17945997 -0.16290538
0.120616935 -0.03533025 -0.12636635 -0.15369035 0.045559276 -0.09939552 -0.0005655439 -0.10302378
-0.073413946 -0.10019843 -0.12738863 -0.012459973 -0.14573975 0.04981812 0.07169576 -0.07456163
-0.01983194 0.06546965 0.08654159 -0.1311348 -0.08838634 -0.046685126 0.07686459 0.04154888
0.013657668 0.14188905 -0.13952868 0.092989355 -0.15055594 -0.11740742 -0.18459387 -0.03758587
0.1847659 0.11192009 -0.16600344 -0.12472962 0.13591594 -0.008906471 0.029598122 -0.04533033
0.05355596 0.06983825 0.04327558 0.15139781 -0.078546874 0.20825852 -0.06968237 0.13014439
0.0148678655 -0.03820462 -0.077408835 -0.14804699 0.17552076 -0.113835804 0.12474578 -0.024305327
0.12935619 0.04079806 0.00786525 -0.1387398 -0.09949656 -0.14085789 0.10352094 -0.012253659
0.079695076 -0.18276031 0.13661821 -0.021856701 0.045427576 -0.02595218 -0.02411589 -0.09143603
-0.0959721 0.063491136 -0.0029365465 0.07380406 0.20341673 0.19627789 0.14532945 -0.016768616
-0.027147569 0.04198443 -0.14058904 0.03206544 -0.024916328 0.12087753 -0.06453564 0.018773952
0.16539638 -0.11303234 0.1836537 -0.031859558 0.048529472 -0.010952518 -0.05294361 -0.06868776
-0.017690089 0.06844292 0.114692934 0.016351344 -0.15646993 0.06213031 -0.15757003 0.0396495
0.05355047 -0.011446727 0.041321326 -0.13355863 -0.102505445 -0.06599648 0.043883014 -0.146391
-0.22187044 0.0014858407 0.042903494 -0.09695134 -0.09085993 -0.09501566 0.077318504 -0.11057968
0.0066603734 -0.02540078 -0.08536479 0.15861133 -0.2474533 -0.21863595 0.020912744 -0.011636723
0.15108465 -0.14510126 0.13646267 -0.07583382 0.069681935 0.05661213 0.15323214 -0.10325469
0.10592529 -0.14334121 0.18782681 -0.096379094 0.24780016 0.1883669 -0.0640179 0.026384091
-0.14910883 -0.069544725 -0.09872854 0.06494905 -0.03956426 -0.19686528 -0.08059416 -0.08081791
-0.11430383 0.048350204 0.009933247 0.117212236 -0.15011136 -0.09907409 -0.055685032 0.10116203
0.2227517 -0.15690047 0.03627685 -0.13550776 -0.029045735 -0.008282721 0.1208502 -0.10065707
0.107575536 -0.080755904 -0.056000646 0.102007866 -0.12645547 0.017952882 -0.12170594 0.08152009
-0.1434882 0.15120402 0.09105924 0.088850506 0.15370628 0.019593395 -0.06518491 -0.05570032
-0.06974128 0.10742052 0.04015092 -0.15983321 -0.052110456 0.01794324 -0.03985893 0.116913
-0.12531576 -0.11076582 -0.122578345 -0.12764098 -0.06003128 -0.18211186 0.074118 -0.08520634
0.1295011 -0.10307318 -0.070095345 0.16271062 -0.072377324 0.083287075 0.1325004 0.1679154

linear_relu_stack.4.bias f4 [64]
00000000: ec90 053e cc6c bdbd 5c07 003e 1606 09be
00000010: 2b03 953d e6b6 293e 1db1 b13c ed9d 23bd
00000020: 34f0 19be 682b 6abd 295f ee3c 335b 073e
00000030: e43b 34be cc0f acbd 72e2 153e 5a2a 89bd
00000040: 1e97 e4bd ff2f b63d 5449 e7bc b2b8 923d
00000050: fa50 e73d f3e3 c3bd bdd3 083e ad99 10bd
00000060: 6221 8abd cb4f 213e f4b8 e23d c2f1 5e3d
00000070: deb7 11be f884 963c f554 f9bd 68e8 823d
00000080: a77f 073d 4f42 383d b981 a13d 5db6 a73d
00000090: b5ed 5b3d 6210 68bd 5d17 053e 4eb7 1ebe
000000a0: 4b1b 1f3e 00e9 c73d 08f4 c63c c024 bbbc
000000b0: 6d88 24bd d37c 283e f7dc 03bd 1180 2b3e
000000c0: 63e1 1f3e c4ca e73d 4463 1b3d 51d7 d93c
000000d0: 85d9 063e e304 a73d d0cb 993d eb43 bf3d
000000e0: 2e87 d9ba 45cd 703d 4fbd bbbd 5503 433e
000000f0: 4136 b7bd 664d b83d 7f33 6a3d 18ba ccbd
0.13043565 -0.09249267 0.12502807 -0.13381228 0.07275995 0.16573676 0.0216909 -0.03994553
-0.15033036 -0.0571703 0.02909811 0.13218383 -0.17600971 -0.084014505 0.14637163 -0.06697531
-0.11161636 0.08895873 -0.028233208 0.07164134 0.11294742 -0.09564962 0.13362022 -0.035302807
-0.067446485 0.15753095 0.11070433 0.054429777 -0.14230296 0.018373951 -0.121744074 0.06391984
0.033080723 0.04498511 0.07886071 0.0818908 0.053693492 -0.05665625 0.12997194 -0.15499613
0.15537755 0.09761238 0.024286285 -0.022844672 -0.04016917 0.16453867 -0.03219315 0.16748072
0.15613322 0.11317971 0.037936464 0.026591929 0.13168915 0.08155229 0.07509577 0.09339126
-0.0016596073 0.05878951 -0.09166967 0.1904424 -0.08945895 0.089991376 0.057178017 -0.09996432

linear_relu_stack.7.weight f4 [128, 64]
00000000: c1d8 19bd 111f 6cbd 1822 bfbb 51a2 b33d
00000010: 6bb7 163e c93e 24bc 7fce c8bd f149 06bd
00000020: 792b 82bc 6588 b23c 3a3a e53d e4e9 58bd
00000030: 7376 c73d 45cf b9bd fc75 7c3d d20b 023d
00000040: fd7f 8e3d d199 c53d 2b7e 2d3e f230 ea3a
00000050: e478 793d 50c2 5dbd 0ead cfbd 053f 84bc
00000060: 13bd eabd 53c3 8dbd 1413 d63c ffad de3c
00000070: 322d 2d3b d2bb cc3c 9267 1b39 68b5 0cbc
00000080: 83a4 7fbd 5cb1 2b3b 7e4c 3a3c c2dd f0bd
00000090: 8c33 5ebd 420f b93d 3b47 dc3c 0faf b4bd
000000a0: c8c4 813c e00d 9fbd 8739 f2bd cc25 5bbc
000000b0: eae0 f43d 6cdf b63d d36c d53d a688 eabc
000000c0: d897 be3d 9900 72bd 5de8 3c3d 85dc 013e
000000d0: 67cb dc3d 479e 1dbd 871a a2bd 1ca6 793d
000000e0: 45d1 09bd 5e80 af3d eca3 ddbd 9642 9abb
000000f0: 4311 cb3c 2f9b 0abe 847a 0fbd 3fc2 0b3c
00000100: e809 233c f627 f33d fe79 1cbd 2053 d33d
00000110: 2379 c73d 5ade 743c b4ca b6bd 4c57 9f3c
00000120: 07fc 8bbd 8ed5 603d 72f2 78bc b38e 0f3d
00000130: 6701 04be 3cec f6bb 8e0e a33d c42f 4dbc
00000140: a7fd 4e3d cade 033e 82cb 91bd 8188 f93d
00000150: d4ac aebc 325f 8f3d 355d aabd ebc3 01be
00000160: 9e4c 493d fc65 25bd f8e9 46bd b5c0 503d
00000170: f128 b6bd d572 3fbd d60d b4bd 9b4b cdbd
00000180: 7165 bdbd 5482 9fbd 9ebc cebd d366 14bd
00000190: 1d2a a83c 8a3e e7bd bcd2 febb 9c01 993d
000001a0: ffcc c9bd 9344 01be e98f e1bd ca72 993c
000001b0: ae71 e93d 1faf 023d 1d33 063d a0ff 7d3d
000001c0: d7ef 79bd ff96 34bd f708 073e 9674 f8bc
000001d0: d98d 70bd b0f5 c33d 72a9 c63b 3e74 34bd
000001e0: 2cfb 56bd 3deb ddbd 56ab 973d 9107 fabd
000001f0: eaf3 373d 72cd 7a3d 6e98 7bbd cb26 2fbd
00000200: 05c0 bfbc c14a a9bd 1526 1f3e b60a 243d
00000210: b5d4 ee3c a751 5f3d 6022 9e3a 2b53 23bd
00000220: d26b 783c 5dc6 c0bc 53f5 4ebd d4e9 cb3d
00000230: 6eac 123d 2904 cfbc e987 853d acd8 5e3d
00000240: 6e8a 18bc adc8 3bbc d412 c6bd 31a7 2ebd
00000250: 9528 9abc cdb5 f4bd acdb 0b3d 98ea 4bbc
00000260: bc08 e33d 5a0a 853d 3291 87bd 37e2 3c3d
00000270: d54f b0bd 8a3f c33d 36f1 0cbe 5bd6 423d
00000280: 67c7 3a3c 1443 8b3d 3a53 aabd 977e e63d
00000290: 24c6 253e 5828 30bc 67b0 2fbd e831 a23d
000002a0: e9b8 86bd 3ae4 a03c 16bd cb3d 8113 5cbd
000002b0: 49a0 ac3d 9e0e a73d df5c b73d e060 dbbb
000002c0: ad83 093d 4ef5 c53d 562f 0fbd 5733 5f3d
000002d0: 3ea5 3d3d 5ff0 8dbc 52c6 583d 2539 033d
000002e0: 893a 203c 478c 853d febb da3d b11f 943d
000002f0: 6c8b e8bd e6f0 b6bd 5f9b c9bd c378 5b3c
00000300: 4c20 00be ac5f 6bbd 1185 babd c9df 45bd
00000310: e82f 77bd 6766 febd 62df 863b 2f56 a5bd
00000320: 9619 e23d 6786 f2bb 70a5 06bd 9d6b 1d3d
00000330: 3b70 0c3e 7735 a4bc df65 6f3d a2fb 94bd
00000340: abe9 2a3c fa75 4c3d 6452 423d 1557 0cbd
00000350: b902 58bb 4a3e fa3c da68 513d 1865 bfbd
00000360: b340 a13d de18 d2bd 5c4f b3bb a585 f83c
00000370: 619b 2b3d 63b7 593d 7bb1 093d 6743 f63c
00000380: 6018 f2bc 3c4c 253d 81bd 853d 4714 0cbd
00000390: 6932 72bd 015a bc3d 3679 6b3c 8229 93bd
000003a0: 6537 bfbd 2e97 68bd ed4b d2bd 39f2 3d3d
000003b0: 7b74 d73d ae64 a83d 606b c63d d0a5 7cbd
000003c0: 3c14 593d f4ce 9f3d 72f2 e33d c207 a43c
000003d0: 56a7 833d 853f a53d 6c00 4d3d 6f21 2dbd
000003e0: 512c 78bc 764a 053e 6b3f 35bd e6d8 15bd
000003f0: d852 17bd 2535 c0bd 0b46 083d 0687 f63d
-0.03756023 -0.057646815 -0.0058329217 0.08771194 0.14718406 -0.010024735 -0.09805011 -0.03278536
-0.01588987 0.021793554 0.111927465 -0.05295743 0.09739389 -0.09072737 0.061635956 0.031749554
0.069580056 0.09648479 0.1694266 0.001786737 0.060906306 -0.05414039 -0.101404294 -0.016143331
-0.11461844 -0.06922021 0.026132144 0.027182577 0.0026424644 0.024991903 0.00014820535 -0.0085881725
-0.06241275 0.0026198244 0.011370776 -0.11761047 -0.054248378 0.09036113 0.026889434 -0.08822452
0.015840903 -0.07766318 -0.11827379 -0.013375711 0.119569615 0.08929333 0.10421147 -0.028629612
0.09306306 -0.0590826 0.046120036 0.12681778 0.107809834 -0.038481023 -0.07915216 0.06094943
-0.03364684 0.08569406 -0.10822281 -0.0047076447 0.024788504 -0.1353576 -0.03502895 0.008530199
0.009951092 0.11872856 -0.03820228 0.10318589 0.09739902 0.014945591 -0.08925381 0.019450806
-0.0683518 0.05489116 -0.015194522 0.035048198 -0.1289116 -0.0075354856 0.079617605 -0.012523595
0.05053487 0.12877956 -0.07118894 0.12184239 -0.021322645 0.07000579 -0.08318559 -0.12672393
0.049145333 -0.040380463 -0.048562974 0.05096503 -0.08894528 -0.04674037 -0.087917015 -0.10024186
-0.09247864 -0.0778853 -0.100945696 -0.036230873 0.020527894 -0.11291225 -0.0077765863 0.0747101
-0.09853553 -0.12623815 -0.11013777 0.018731494 0.11398636 0.03190529 0.03276359 0.06201136
-0.061019745 -0.044089314 0.13187014 -0.03032903 -0.058729026 0.095683455 0.00606268 -0.04405617
-0.05248563 -0.10835884 0.074057266 -0.122084744 0.04491035 0.061231084 -0.061424665 -0.042761605
-0.023406992 -0.08266211 0.15541871 0.040049277 0.029154161 0.05452123 0.0012064688 -0.039874237
0.015162425 -0.023532087 -0.05052693 0.099567086 0.035808973 -0.025270538 0.065200634 0.054405853
-0.009310348 -0.011461419 -0.0967156 -0.042639915 -0.01881818 -0.11948738 0.034145042 -0.012446068
0.1108565 0.06496115 -0.06619491 0.046114173 -0.08608977 0.095336035 -0.1376389 0.047567707
0.01140008 0.067999035 -0.083166555 0.11254614 0.16188866 -0.010751806 -0.04289284 0.07919675
-0.065782376 0.019640077 0.09948175 -0.053729538 0.084290095 0.08157085 0.08953261 -0.006694898
0.03357284 0.09665929 -0.034957252 0.05449232 0.046300165 -0.017326532 0.052923508 0.03203692
0.009779581 0.065208964 0.10680388 0.07232607 -0.113547176 -0.089326665 -0.09844088 0.013395491
-0.1251232 -0.057464287 -0.09107412 -0.04830912 -0.06034842 -0.124218754 0.004115985 -0.08073079
0.110400364 -0.007401276 -0.032872617 0.038432706 0.13714688 -0.020045025 0.05844676 -0.07274558
0.010431687 0.0499172 0.047441855 -0.034262735 -0.0032960607 0.03054728 0.051125385 -0.09345454
0.078736685 -0.10258649 -0.005472107 0.030337164 0.041896228 0.053153407 0.033616524 0.030061437
-0.029552639 0.040355906 0.065302856 -0.034199025 -0.059130106 0.091968544 0.014372161 -0.07185651
-0.093367375 -0.0567848 -0.10268388 0.04637358 0.10520264 0.08222328 0.09688449 -0.06168157
0.052997813 0.07803145 0.11130227 0.02002323 0.06428401 0.08068756 0.05004923 -0.042268213
-0.015147285 0.13016686 -0.044249933 -0.036583804 -0.03694424 -0.093851365 0.033269923 0.120374724

linear_relu_stack.7.bias f4 [128]
00000000: e86e ac3c 5dda 62bd 672b 16be dc79 693c
00000010: fcf3 60bb 6134 01bd cd91 6c3d fa1e 47bd
00000020: 690a 3c3e 5351 e1bc b7f8 5abd f593 4d3c
00000030: 3349 59bd 0593 023e 95fa 0d3e 8ee5 07bc
00000040: a18f f63d b49f 013e 075d 543d 70f4 0abd
00000050: 31eb 093d dec0 853d 40bf 553d 5051 313d
00000060: 34e0 033e 9a09 c93d d79c babb 104a efbb
00000070: 6315 8cbd 59b9 c03d d22a 91bb dad2 e3bd
00000080: c665 72bd 3ffe a73d ab69 143d d8b9 e9bc
00000090: f36d 9abc 29e8 e83d 8daa e2bd 584b 993d
000000a0: 7916 74bc 3f64 e13d fb58 85bd ace2 c13d
000000b0: a0a8 133e 013e 97bd 568c e43d ec66 bf3d
000000c0: 2a38 773d 7b00 f7bd c198 17bd 048e d83d
000000d0: 94d3 443c f853 5e3d 0bb8 cdbd 39e3 8f3c
000000e0: a04c 04be 25bd 813d 8ecf a23d a293 b33d
000000f0: e32f be3d d416 2e3b 4544 683c 2988 e2b9
00000100: 55b0 82bd 72f2 17be 5409 2a3c 0547 9a3d
00000110: 40ea 9e3d f825 56bd 40af 543d 2a98 18bc
00000120: 8d7b 843d 314e 6cbd ec5d 403d 5e32 1f3c
00000130: 23f3 05bd 0559 bc3c f4c1 033e 6cea febc
00000140: edef 8abd a626 b4bd 855d 1abe 204f 293d
00000150: 18f6 733d 4dc3 aa3d ba74 ba3d 703e 57bc
00000160: 1537 733d 5653 053e 3c35 e93d d6d8 9d3d
00000170: e14d 91bd 9b76 8e3c 3ebf c93d 6372 1c3e
00000180: 7ad8 0bbd ad84 80bd 6df0 45bd c90d bd3d
00000190: cc16 123e cf94 043d 5083 de3d d8cc a4bd
000001a0: f634 a73d 98fa b53d 2fa7 a23d 165b 91bd
000001b0: 9fbc 3dbc c848 38ba cdf2 873c d9ac 1b3e
000001c0: 288f 473d 96e5 ee3d 1477 97bd 959e b43d
000001d0: 8869 f03b b0b6 18be 6e6c 2c3d 0957 8ebd
000001e0: d8d2 aa3d da13 cd3d 73d8 1c3c 8f26 ff3d
000001f0: 10b7 e33d d73b 83bd 7a43 dc3d f6ee a1bd
0.021048978 -0.05538403 -0.14664994 0.014250245 -0.0034325114 -0.031544093 0.057756234 -0.048613526
0.18363346 -0.027504599 -0.05345985 0.012547483 -0.053048324 0.12751396 0.1386512 -0.008294476
0.12039114 0.12658578 0.05184653 -0.03392452 0.03367156 0.06530927 0.052184343 0.043290436
0.12878495 0.098162845 -0.0056949663 -0.00730253 -0.06840017 0.09410352 -0.0044301534 -0.11124201
-0.05917909 0.082027905 0.036233585 -0.028531 -0.018851256 0.11372406 -0.11067686 0.07485074
-0.014897936 0.110054485 -0.06511112 0.09467062 0.14419794 -0.07384873 0.111595795 0.09345803
0.060356297 -0.120606385 -0.03701091 0.10573962 0.012013335 0.054279298 -0.10044869 0.017564403
-0.12919855 0.063349046 0.07949744 0.08768393 0.092864774 0.00265639 0.014176433 -0.00043207526
-0.06381289 -0.1483858 0.010378201 0.07533077 0.077595234 -0.052282304 0.051924944 -0.0093136225
0.06468878 -0.057691757 0.04696457 0.009716598 -0.032702576 0.022991667 0.12866956 -0.03111764
-0.067840435 -0.08796434 -0.15074737 0.041335225 0.059560865 0.08338032 0.09104295 -0.013137445
0.059378702 0.13020071 0.11387107 0.07707374 -0.07094932 0.01739054 0.0985093 0.1527801
-0.034141995 -0.06275306 -0.04832499 0.09231145 0.14266509 0.032368477 0.108648896 -0.08046883
0.08164398 0.088856876 0.07942044 -0.070974514 -0.011580615 -0.0007029888 0.016595269 0.15202655
0.04872051 0.11664884 -0.07395759 0.088193096 0.007336799 -0.1491344 0.042095594 -0.069501944
0.083409965 0.10013552 0.00957309 0.12458526 0.11118901 -0.06407898 0.10755058 -0.07906906

linear_relu_stack.10.weight f4 [1, 128]
00000000: 4d0b 2a3d ca5b 113c 7d87 c3bc 1a0f 3f3d
00000010: d7ba 363d bb83 153d a133 e53c fdd5 f7bc
00000020: cbca 913d a1b4 7a3b 5cca a5bd cf9c 8ebd
00000030: b561 563c fc24 5b3d 2cc8 193d 6642 c2bd
00000040: 3ff6 fb3c dba0 7d3d e40c 2d3d 6fd8 e7bc
00000050: a6a0 8ebd 3463 193d 1d85 7ebd 8653 1ebc
00000060: 8490 68bd 90ec 963d 71a3 83bd d9be b4bd
00000070: c5be fc3c 6c69 073c 94b2 6fbd 0171 813d
00000080: c831 893d d2f7 69bc b335 483d f20f 743d
00000090: f2cf c53c 40dd f3bc 3282 dd3b fc2e 8cbc
000000a0: 5cc8 54bd 94b7 92bd 2d57 65bc 59dc 2d3d
000000b0: f2b1 8fbd 75d9 33bd f664 8bbd 42cf 4a3d
000000c0: fc4c 10bd 7082 08bd 7cf2 9f3c f763 e23c
000000d0: 6331 a53c 9ce4 8f3d c4bd 483d bca0 2b3d
000000e0: eb56 07bb 9615 823d 1a63 723d 63b8 a33c
000000f0: 8c1c 303d c004 173d f48a 86bd c9bf 22bd
00000100: fb67 583d 169d 063d 3b2b 843c c36a 8ebd
00000110: c705 2fbd 0383 cdbb 53cf 8ebd a5cb f13c
00000120: b891 853d 58f1 65bc d2ba aebd 8f6e 7b3d
00000130: 8009 92bd 8deb 9fbd e747 22bd 5951 e0bc
00000140: 3c9b b2bd f16f 35bd a9ca 03bd 071a 8bbd
00000150: f7db b23c a961 a2bd c4b6 b1bd 60ed aebc
00000160: 5545 613d 7c01 57bd 6b97 483d 4b33 e7bc
00000170: 4414 6f3d 1f01 533d a09a 3cbd 8a0d b7bd
00000180: 9472 5e3c 279d 513c 5de4 89bd db5e 833d
00000190: 1907 8d3d 5979 a73d 6c40 753d a35e abb8
000001a0: 09f6 a03d ed42 81bd c602 7fbd 6916 e6bb
000001b0: fcda 66bd 2959 31bd 1745 fbbc e2b7 7a3d
000001c0: 8ef9 c8bc 0f88 8a3d b46e ac3c 9cd0 0ebc
000001d0: 3b71 66bd 4357 223d 0270 b4bd 1e43 b33c
000001e0: 4ddd 953c 1806 68bd c81a aabc 61b7 713d
000001f0: 1298 95bd 337e 70bd b6b2 b8bc ac3b e63c
0.041514684 0.008871982 -0.023868317 0.04664526 0.044611778 0.03650258 0.02797872 -0.030253405
0.07118758 0.0038254636 -0.080952376 -0.069635026 0.013084819 0.053502068 0.037544414 -0.09485321
0.030757068 0.06192098 0.04224862 -0.028301446 -0.06964235 0.037448123 -0.062138665 -0.009663468
-0.056778446 0.073693395 -0.06427658 -0.08825464 0.030852685 0.008264881 -0.058519915 0.06320382
0.06698948 -0.014280276 0.048879337 0.05958552 0.024147008 -0.029768586 0.0067599053 -0.017112248
-0.05194889 -0.07163921 -0.013997835 0.042446468 -0.07016362 -0.043908555 -0.06806366 0.049514063
-0.035229668 -0.03332752 0.019524805 0.027635558 0.020165151 0.07026026 0.0490091 0.041901335
-0.0020651172 0.063517734 0.059176542 0.019985383 0.042995974 0.036869764 -0.06569472 -0.03973368
0.05283354 0.032864653 0.016133895 -0.06953957 -0.04273012 -0.0062717213 -0.06973138 0.02951605
0.06521934 -0.014034592 -0.08531727 0.061384734 -0.07130718 -0.078085996 -0.039619353 -0.02738254
-0.08721015 -0.04429621 -0.032175694 -0.06792074 0.021833403 -0.079287834 -0.08677438 -0.021353424
0.05499776 -0.05249165 0.04897253 -0.0282227 0.058368936 0.05151474 -0.0460459 -0.08938129
0.013577122 0.012793816 -0.0673301 0.064145766 0.068861194 0.08177442 0.05987589 -8.171543e-05
0.078594275 -0.06311593 -0.062258504 -0.0070217145 -0.056361184 -0.04329792 -0.030672593 0.06121052
-0.02453306 0.06764232 0.021048881 -0.008716729 -0.05626033 0.039634 -0.08810426 0.02188259
0.018294001 -0.056646436 -0.020764723 0.059012774 -0.07304396 -0.058714103 -0.022546154 0.028104626
