saved_models/model80.pth (torch, 48175 bytes, 11 tensors)

linear_relu_stack.0.weight f4 [7]
1.0 1.0 1.0 1.0 1.0 1.0 1.0
00000000: 0000 803f 0000 803f 0000 803f 0000 803f
00000010: 0000 803f 0000 803f 0000 803f

linear_relu_stack.0.bias f4 [7]
0.0 0.0 0.0 0.0 0.0 0.0 0.0
00000000: 0000 0000 0000 0000 0000 0000 0000 0000
00000010: 0000 0000 0000 0000 0000 0000

linear_relu_stack.0.running_mean f4 [7]
0.0 0.0 0.0 0.0 0.0 0.0 0.0
00000000: 0000 0000 0000 0000 0000 0000 0000 0000
00000010: 0000 0000 0000 0000 0000 0000

linear_relu_stack.0.running_var f4 [7]
1.0 1.0 1.0 1.0 1.0 1.0 1.0
00000000: 0000 803f 0000 803f 0000 803f 0000 803f
00000010: 0000 803f 0000 803f 0000 803f

linear_relu_stack.1.weight f4 [32, 7]
-0.2963305 0.27843174 -0.35022974 -0.29603347 -0.1948596 -0.08284711 0.12860756 0.07095539
0.020684531 -0.19506435 -0.28826085 0.28746754 -0.2729768 -0.19674586 -0.005812427 0.25688308
0.3734995 0.03347816 -0.30241987 -0.26701477 -0.08341719 -0.11155422 -0.1961744 0.25967064
-0.22318888 0.32537058 0.33173296 -0.09827373 0.062078282 0.33433235 0.24486867 0.26582605
-0.23636757 0.20320556 -0.099949375 0.23346594 -0.18480338 -0.29405293 -0.37761354 0.3619289
-0.18598306 -0.19072281 -0.25523275 -0.18671437 -0.07224879 -0.13835779 0.37658632 0.36754858
-0.2565664 0.33128095 0.118495844 0.05621075 0.15951535 -0.12913673 0.15268414 0.17790987
0.25856912 0.18653911 -0.0033639462 0.15182054 -0.3429021 -0.3145388 -0.21269679 0.35216886
-0.35920545 -0.17418227 -0.26307905 -0.2763386 -0.30997327 0.34857076 -0.17874673 0.27033922
-0.22427134 0.13674234 0.21982452 -0.37046966 -0.22963353 -0.13808148 -0.052168407 0.10730741
0.20739108 0.15814139 -0.09273433 -0.29728866 -0.14454104 -0.07041047 -0.15834914 -0.23443125
0.28344795 -0.23271437 0.06957124 -0.028341856 0.33345237 -0.28611982 0.2516606 0.25310534
-0.058302853 0.36673865 0.24510863 -0.21893345 0.16915216 -0.052744005 0.2656201 0.07226253
-0.23829907 0.19556816 0.3263391 0.24272779 0.26207805 0.23503923 -0.092931926 0.18426988
-0.010044281 0.32172376 -0.31952757 0.29957184 0.08413502 -0.30466208 0.15425794 -0.24847461
-0.34183267 0.015955586 0.16330436 0.1712241 -0.15380992 -0.07267956 -0.3083318 -0.14097369
0.13664368 0.07412951 0.22380418 -0.17790224 0.1749608 -0.34335124 -0.08123248 0.3054331
-0.31798416 -0.038417317 -0.25746536 -0.14383005 0.30613697 -0.03120272 -0.27069342 0.33193517
-0.3271352 0.35851 -0.066526316 -0.25248528 0.1780549 0.085288204 0.29401788 -0.13459334
-0.3226493 -0.16723748 0.3338189 0.36105886 0.35187054 -0.21521844 0.31002024 -0.0900345
-0.30444634 -0.27199584 0.24208911 -0.27479276 -0.08069418 0.3609254 -0.04691493 0.2893448
0.083899595 -0.32143924 -0.29945734 0.27409124 -0.2882014 -0.35879186 0.3197836 0.33770087
0.37314215 -0.1272538 0.32720074 0.22051439 -0.10582567 0.16391687 -0.36051005 -0.33265254
-0.042858552 0.022489147 0.34072182 0.065654084 0.15531948 0.053503327 0.35801557 -0.24209443
-0.07238784 0.19509861 -0.033113807 -0.07486752 0.26085407 0.322919 0.2631143 0.042272046
-0.076054 -0.1682599 -0.16312666 -0.15015689 0.17994463 0.28430077 0.23192328 -0.28412253
-0.26238889 -0.19980375 0.34139073 0.08890307 0.08882886 0.053563435 0.33504882 -0.36600912
0.06737959 -0.1280074 0.22329769 -0.32361463 -0.011095256 -0.2457286 -0.35861704 0.28446758
00000000: a2b8 97be 9b8e 8e3e 5051 b3be b391 97be
00000010: 4689 47be bfab a9bd b3b1 033e 0f51 913d
00000020: 9b72 a93c f3be 47be ed96 93be f22e 933e
00000030: 9dc3 8bbe bf77 49be 2c76 bebb 2e86 833e
00000040: 543b bf3e 6520 093d c7d6 9abe 29b6 88be
00000050: a2d6 aabd 8a76 e4bd f1e1 48be 8df3 843e
00000060: a08b 64be f996 a63e e7d8 a93e bd43 c9bd
00000070: cc45 7e3d 9c2d ab3e dabe 7a3e 5a1a 883e
00000080: 570a 72be 1e15 503e 42b2 ccbd b211 6f3e
00000090: 193d 3dbe 1b8e 96be 9056 c1be bf4e b93e
000000a0: 5872 3ebe d74c 43be dead 82be 0d32 3fbe
000000b0: 2cf7 93bd aaad 0dbe eccf c03e 542f bc3e
000000c0: ac5c 83be a89d a93e f3ad f23d 3e3d 663d
000000d0: fe57 233e 6b3c 04be 3b59 1c3e 012e 363e
000000e0: 2c63 843e 1c04 3f3e a775 5cbb d876 1b3e
000000f0: dd90 afbe 3b0b a1be 30cd 59be 7a4f b43e
00000100: c7e9 b7be d65c 32be 4cb2 86be 417c 8dbe
00000110: d1b4 9ebe de77 b23e 6209 37be e769 8a3e
00000120: 63a7 65be 2f06 0c3e ae19 613e 33ae bdbe
00000130: 0d25 6bbe 3b65 0dbe 8aae 55bd fdc3 db3d
00000140: 545e 543e d1ef 213e 7feb bdbd 3836 98be
00000150: 9102 14be 5d33 90bd 4726 22be bf0e 70be
00000160: 1720 913e ad4c 6ebe 5e7b 8e3d 2e2d e8bc
00000170: 45ba aa3e 4c7e 92be a8d9 803e 0697 813e
00000180: f9ce 6ebd 2bc5 bb3e c2fd 7a3e 1730 60be
00000190: 3936 2d3e 190a 58bd 5cff 873e 61fe 933d
000001a0: ac04 74be 0543 483e eb15 a73e a28d 783e
000001b0: 182f 863e 20ae 703e 1853 bebd 3eb1 3c3e
000001c0: c590 24bc fab8 a43e 1e99 a3be 7b61 993e
000001d0: fb4e ac3d abfc 9bbe cbf5 1d3e 2170 7ebe
000001e0: b104 afbe 4ab5 823c 4239 273e 5f55 2f3e
000001f0: 5980 1dbe 05d9 94bd aadd 9dbe 685b 10be
00000200: 52ec 0b3e 36d1 973d ec2c 653e 012c 36be
00000210: ed28 333e bccb afbe 375d a6bd ba61 9c3e
00000220: d2ce a2be 7a5b 1dbd 80d2 83be 2f48 13be
00000230: fcbd 9c3e d99c ffbc 5498 8abe 68f3 a93e
00000240: 447e a7be 9f8e b73e f33e 88bd c045 81be
00000250: 0654 363e 95ab ae3d 8389 963e d6d2 09be
00000260: 4a32 a5be 4d40 2bbe 50ea aa3e b5dc b83e
00000270: 6028 b43e 3962 5cbe f9ba 9e3e 0264 b8bd
00000280: 64e0 9bbe 0a43 8bbe 35e6 773e a3b1 8cbe
00000290: fe42 a5bd 37cb b83e df29 40bd 0025 943e
000002a0: 8dd3 ab3d af93 a4be 7952 99be b055 8c3e
000002b0: 228f 93be 91b3 b7be adba a33e 21e7 ac3e
000002c0: 7d0c bf3e d24e 02be db86 a73e 86ce 613e
000002d0: 21bb d8bd d3d9 273e c694 b8be 6f51 aabe
000002e0: 738c 2fbd 293b b83c 1773 ae3e a675 863d
000002f0: 120c 1f3e 4e26 5b3d d14d b73e 9ae7 77be
00000300: 1340 94bd eec7 473e 58a2 07bd 2454 99bd
00000310: aa8e 853e a455 a53e ebb6 863e 7425 2d3d
00000320: 33c2 9bbd 534c 2cbe ad0a 27be bac2 19be
00000330: 6843 383e df8f 913e 4c7d 6d3e 8278 91be
00000340: d657 86be 5b99 4cbe c4ca ae3e d012 b63d
00000350: e8eb b53d 5565 5b3d 858b ab3e 8c65 bbbe
00000360: 4ffe 893d 5f14 03be 26a8 643e d1b0 a5be
00000370: e0c8 35bc 47a0 7bbe a79c b7be bca5 913e

linear_relu_stack.1.bias f4 [32]
0.31475493 -0.17161894 -0.3476342 0.031244962 0.35839874 -0.19423369 -0.024852088 0.15318544
0.0018063752 -0.0439715 -0.19677824 0.14541322 0.06913784 0.14498474 0.32229385 0.19154057
-0.021406678 0.13020626 0.16813207 0.2379131 0.23018076 -0.16423056 0.035009824 -0.35229924
-0.34863073 0.06631714 0.24049246 0.22829792 -0.022066131 0.044492807 0.35968196 0.009967617
00000000: 8f27 a13e e0bc 2fbe 1cfd b1be 6ff5 ff3c
00000010: 0a80 b73e 32e5 46be 9b96 cbbc a5dc 1c3e
00000020: e5c3 ec3a 761b 34bd 3c80 49be 34e7 143e
00000030: 2498 8d3d e176 143e b303 a53e 3623 443e
00000040: 0f5d afbc ca54 053e d02a 2c3e 7e9f 733e
00000050: 81b4 6b3e 0e2c 28be 7666 0f3d 9160 b4be
00000060: ba7f b2be 48d1 873d a843 763e eec6 693e
00000070: 08c4 b4bc 173e 363d 3c28 b83e 374f 233c

linear_relu_stack.4.weight f4 [64, 32]
-0.04497542 0.15252185 0.028290018 -0.17160293 -0.08585929 -0.17299631 0.15550588 -0.13406849
0.13658409 -0.13208574 0.1170611 -0.17606765 -0.08475851 -0.14866096 -0.0077993795 -0.02439332
0.07873396 0.16436586 -0.15274547 -0.00089715887 -0.16027229 0.1318479 -0.15551005 0.12104979
-0.13667485 0.13889943 -0.12707926 -0.01276118 -0.06895561 0.100353055 0.058853056 0.014067859
0.031336665 -0.101667635 -0.069340065 0.06401887 0.1419035 0.020032376 -0.12970147 -0.0972759
-0.16133282 0.08978733 -0.0015035466 0.0738229 0.069326654 0.13414073 0.12147541 0.018567689
0.061583076 0.10300032 -0.044304494 -0.07958702 0.1122765 -0.075612225 -0.15493542 -0.17207229
0.06586237 -0.12121009 0.11747757 -0.06145962 0.055761904 -0.1311023 0.022647819 0.018667597
0.049049553 -0.05178168 0.11581594 -0.13305545 -0.08921777 -0.11436981 -0.11030494 -0.011978745
-0.12878996 0.09109253 0.15288824 -0.1474659 0.058774307 -0.16124542 -0.11935788 -0.05775683
0.07998085 0.12092061 -0.13039653 -0.009690308 0.1003617 0.05133568 0.16740543 0.069267794
0.014601944 -0.110205695 0.15296423 0.0970526 0.06437847 -0.06863624 -0.111235976 -0.0620598
0.07795955 0.07363092 -0.041467663 -0.1330083 0.17401336 -0.1000253 0.020274425 -0.09417163
0.082504794 -0.025665512 0.042009026 -0.08743972 -0.005030669 0.17358759 0.004014445 0.053476363
-0.09597394 0.018390166 -0.035314105 0.09002718 0.1623737 -0.10793067 0.17374273 -0.049855676
-0.11928833 0.08718017 0.12577379 0.1135835 0.105997406 -0.052241135 -0.08861154 0.116070904
0.08360946 0.0035881086 -0.12714756 -0.14707236 -0.07354722 -0.125437 0.08541038 0.13755795
0.15358357 -0.05808272 0.005761664 -0.08795195 0.07438232 0.052988157 0.018253358 0.15247884
-0.057369445 0.07966772 -0.018023014 -0.15328343 -0.04952511 -0.15408708 -0.122571304 0.047323998
0.15881196 -0.1272239 -0.11448021 0.065305024 -0.09603305 -0.080801725 0.0649436 0.036150005
0.087400466 0.004425777 0.12647867 0.09098128 0.08107277 -0.019396486 0.13302843 -0.16366027
-0.13614357 -0.10465383 -0.017517546 0.06913742 0.09331017 0.122925624 0.07936703 -0.1527488
0.011875886 0.1326468 -0.026725559 0.054568935 0.11628587 0.122995734 -0.07587035 0.0385584
-0.060553346 -0.16328415 0.012354379 0.046369012 -0.13511723 0.16525757 0.02947053 0.16114207
-0.14133842 -0.14194205 0.09568051 0.14777267 0.029287592 -0.0422154 0.16907811 -0.049352884
0.17103823 0.0589866 0.01589364 -0.11032968 -0.1723307 -0.093440555 -0.02252867 -0.17633942
-0.0536899 -0.119207546 -0.05783028 0.013115635 0.14459004 -0.086020134 -0.17204121 0.0734204
-0.006497579 -0.040994804 0.05268577 0.06961205 0.07667533 0.13874331 -0.08814281 0.073363036
-0.14512444 0.10389514 0.06020711 -0.0795403 0.122897044 0.118434265 -0.125904 0.0093613
-0.17633794 0.16858204 0.102934256 0.10126261 0.13973656 0.16945149 0.005216768 -0.093119085
0.08818711 -0.16340026 -0.16375005 -0.072160535 0.15519872 -0.056117885 -0.1005614 -0.003311088
0.072372146 0.06338951 0.088253394 -0.13905697 0.046136826 0.14990398 -0.085723 -0.13843828
00000000: 2538 38bd b02e 1c3e 78c0 e73c aeb8 2fbe
00000010: ffd6 afbd f225 31be ef3c 1f3e 4049 09be
00000020: b3dc 0b3e 7c41 07be bbbd ef3d 144b 34be
00000030: df95 adbd 943a 18be f091 ffbb 80d4 c7bc
00000040: 453f a13d 864f 283e 4f69 1cbe 502f 6bba
00000050: 6b1e 24be 2303 073e 073e 1fbe f4e8 f73d
00000060: 7ef4 0bbe a73b 0e3e 1121 02be 4514 51bc
00000070: 9938 8dbd e785 cd3d e70f 713d e17c 663c
00000080: e05a 003d 1f37 d0bd 2a02 8ebd 531c 833d
00000090: 274f 113e f01a a43c 76d0 04be 9638 c7bd
000000a0: 6e34 25be 6be2 b73d a712 c5ba 7630 973d
000000b0: 22fb 8d3d 305c 093e 1ac8 f83d 441b 983c
000000c0: 893e 7c3d d5f1 d23d a178 35bd 85fe a2bd
000000d0: 39f1 e53d 95da 9abd 64a7 1ebe b833 30be
000000e0: dae2 863d ff3c f8bd 1598 f03d 15bd 7bbd
000000f0: 9866 643d ae3f 06be eb87 b93c caec 983c
00000100: 2fe8 483d 0719 54bd e830 ed3d b03f 08be
00000110: ceb7 b6bd b83a eabd 8ee7 e1bd 8042 44bc
00000120: 84e1 03be b88e ba3d bc8e 1c3e 4d01 17be
00000130: 54bd 703d 851d 25be e771 f4bd 6d92 6cbd
00000140: 00cd a33d 3aa5 f73d ab86 05be 19c4 1ebc
00000150: 6f8a cd3d 5d45 523d 546c 2b3e 46dc 8d3d
00000160: fe3c 6f3c 86b3 e1bd a8a2 1c3e 83c3 c63d
00000170: dcd8 833d 2891 8cbd b0cf e3bd 6b32 7ebd
00000180: 42a9 9f3d cfcb 963d ffd9 29bd 5433 08be
00000190: 8f30 323e 11da ccbd 8d16 a63c 0edd c0bd
000001a0: 46f8 a83d 7b40 d2bc a811 2c3d 9913 b3bd
000001b0: 4fd8 a4bb f2c0 313e 9b8b 833b 080a 5b3d
000001c0: fc8d c4bd f9a6 963c 86a5 10bd 2c60 b83d
000001d0: 4b45 263e c10a ddbd 9de9 313e 7735 4cbd
000001e0: 714d f4bd 848b b23d d8ca 003e 779e e83d
000001f0: 2b15 d93d cdfa 55bd f879 b5bd 95b6 ed3d
00000200: 703b ab3d 7926 6b3b f832 02be 239a 16be
00000210: ed9f 96bd 8f72 00be a3eb ae3d fedb 0c3e
00000220: 0345 1d3e 25e8 6dbd 57cc bc3b 2720 b4bd
00000230: c255 983d 1c0a 593d 1188 953c 6a23 1c3e
00000240: 39fc 6abd d428 a33d 00a5 93bc 55f6 1cbe
00000250: d7da 4abd 01c9 1dbe aa06 fbbd cfd6 413d
00000260: 9a9f 223e fb46 02be 9a74 eabd a4be 853d
00000270: faac c4bd 607b a5bd 2601 853d 0712 143d
00000280: 04ff b23d 1c06 913b a083 013e 6554 ba3d
00000290: 7b09 a63d 61e5 9ebc 9b38 083e 8f96 27be
000002a0: 3869 0bbe bf54 d6bd f580 8fbc eb97 8d3d
000002b0: 6719 bf3d 6ec0 fb3d 2e8b a23d 2e6a 1cbe
000002c0: 1393 423c 90d4 073e 8fef dabc ad83 5f3d
000002d0: 4927 ee3d 30e5 fb3d ea61 9bbd 6aef 1d3d
000002e0: c906 78bd f633 27be 056a 4a3c 6fed 3d3d
000002f0: 2c5c 0abe 4839 293e 2e6c f13c 6d02 253e
00000300: 05bb 10be 4259 11be 25f4 c33d b851 173e
00000310: 88ec ef3c 0eea 2cbd d022 2d3e 4026 4abd
00000320: a524 2f3e ef9b 713d 6133 823c 87f4 e1bd
00000330: 7677 30be c35d bfbd 0c8e b8bc 5292 34be
00000340: f1e9 5bbd 1623 f4bd 72df 6cbd f6e2 563c
00000350: 690f 143e 532b b0bd 922b 30be 6f5d 963d
00000360: a5e9 d4bb 2bea 27bd 09cd 573d c390 8e3d
00000370: f507 9d3d ba12 0e3e 3884 b4bd 5c3f 963d
00000380: 809b 14be fac6 d43d bb9b 763d 06e6 a2bd
00000390: 72b1 fb3d aa8d f23d faec 00be 2360 193c
000003a0: ef91 34be c5a0 2c3e 32cf d23d c562 cf3d
000003b0: 1a17 0f3e b184 2d3e 6cf1 aa3b 38b5 bebd
000003c0: 729b b43d 6652 27be 18ae 27be e7c8 93bd
000003d0: 6aec 1e3e dedb 65bd 23f3 cdbd d7fe 58bb
000003e0: d937 943d 5cd2 813d 32be b43d f364 0ebe
000003f0: f8f9 3c3d 6e80 193e 8a8f afbd c4c2 0dbe

linear_relu_stack.4.bias f4 [64]
-0.060519714 0.14244568 0.08621237 -0.15959428 0.030936334 -0.040566824 -0.0067387223 -0.036183827
0.06200151 -0.0244628 0.05501706 -0.009964569 -0.105786555 0.09110087 0.14446698 0.06652937
-0.05813531 0.12219731 -0.03850321 -0.005909631 0.17540142 0.1223782 -0.086687475 0.017400958
0.028504103 0.11343633 0.02308817 -0.09209937 -0.079950154 -0.17571568 0.0244779 -0.021116223
0.16447815 0.11504277 -0.078041025 -0.049398478 0.15293844 0.08441365 -0.14069168 -0.047748554
0.17457987 -0.09727661 -0.13448858 0.14703111 0.051771775 0.050945383 -0.17461371 -0.071233906
0.1048508 -0.12411016 0.13568711 0.06304711 -0.16041008 0.12042391 -0.09626506 0.104099005
-0.08874578 -0.12618396 -0.05055156 -0.107146904 -0.017525556 0.067913935 0.048212327 -0.10634758
00000000: 85e3 77bd 48dd 113e 1c90 b03d af6c 23be
00000010: 326e fd3c 6629 26bd 80d0 dcbb 7e35 14bd
00000020: 4cf5 7d3d 3666 c8bc 9259 613d 6e42 23bc
00000030: 9fa6 d8bd 1893 ba3d 27ef 133e 8d40 883d
00000040: 4a1f 6ebd 9542 fa3d 8bb5 1dbd 94a5 c1bb
00000050: 6e9c 333e 6ca1 fa3d 3489 b1bd 748c 8e3c
00000060: 7081 e93c 4e51 e83d 6723 bd3c 989e bcbd
00000070: e8bc a3bd d0ee 33be e085 c83c eefb acbc
00000080: f66c 283e 8b9b eb3d f9d3 9fbd 0f56 4abd
00000090: e59b 1c3e 10e1 ac3d 7b11 10be fd93 43bd
000000a0: 11c5 323e f638 c7bd 60b7 09be 538f 163e
000000b0: a40e 543d 1bac 503d f0cd 32be 15e3 91bd
000000c0: 04bc d63d 782d febd 90f1 0a3e d81e 813d
000000d0: 8a42 24be d0a0 f63d 9e26 c5bd dc31 d53d
000000e0: 59c0 b5bd 5e36 01be 270f 4fbd d66f dbbd
000000f0: c191 8fbc 7616 8b3d 4a7a 453d c3cc d9bd

linear_relu_stack.7.weight f4 [128, 64]
0.04945244 0.0361927 -0.12093325 -0.09701268 -0.11002611 -0.09009095 0.12189138 -0.12378938
0.11086485 0.06494492 0.061055884 0.059601024 -0.080464825 -0.10964587 -0.09728785 -0.031395346
0.08393045 0.03673023 -0.025957793 -0.11543742 -0.11788226 0.043899268 -0.032806814 -0.061873302
0.11223699 0.025437027 -0.09657429 0.04110785 0.12265299 0.11978568 0.120729476 -0.0005965531
0.0009468198 -0.05399818 -0.0822772 -0.03825201 0.043119386 -0.025348514 0.044165358 -0.057951212
-0.11462533 -0.11634001 0.045148984 0.07330644 0.09389581 -0.002129458 -0.0813787 -0.028138615
0.06660214 0.061489776 0.0525247 0.101281956 -0.028124213 -0.02248156 -0.12187788 -0.038154945
-0.089478604 0.016019538 0.10640745 0.013599515 -0.052346982 -0.030160338 -0.11937676 0.07935983
-0.070747584 0.019190118 0.08509311 0.02479367 0.060627744 -0.025218926 0.07258448 0.10514884
-0.03824494 0.015686974 -0.10730423 -0.12367975 -0.053972416 -0.11587219 0.11911386 0.026540413
0.04887651 -0.0837826 -0.12320087 -0.0021749884 -0.025724642 0.003856644 -0.053940512 -0.09604749
-0.12479109 0.0057070553 0.029794812 0.06875865 -0.12143678 0.10967842 0.094947875 -0.05105725
0.018693596 0.037804693 0.10883406 -0.026350848 -0.029314645 0.046569124 -0.10088332 0.019492313
-0.012980178 -0.120648004 -0.10006733 -0.10029523 0.042079106 0.10093561 -0.088229 -0.08567625
-0.09105677 0.08477394 -0.014226064 0.07500093 -0.012419939 0.05833952 -0.0469532 0.008186355
0.07644108 0.019973159 -0.026836373 0.045192406 -0.0365332 0.008633882 -0.0328459 0.018106595
0.0030722022 0.033386633 -0.061027177 -0.12323717 -0.09514701 -0.04761868 -0.123378724 -0.006440729
0.09240581 0.1146494 0.11925748 -0.06482676 0.0025265962 0.11807203 -0.01778569 -0.124614194
0.036164507 -0.10874629 -0.10704903 -0.022048786 -0.06746635 0.09793873 0.017216057 0.089580506
0.12278314 0.05277717 -0.11764351 0.048648566 -0.04724104 -0.0009093955 -0.078774005 -0.104703665
-0.031217702 -0.05878084 -0.06422524 -0.029885165 0.086226836 -0.08411473 -0.07596114 -0.09881419
0.04365462 -0.051059105 0.09202257 0.05508153 0.060994923 0.042705595 0.09816766 -0.06037864
-0.08092551 -0.10333976 0.05405812 -0.04694988 0.0106551945 -0.034760192 0.020361915 0.08761901
0.09584725 0.013501689 0.041789412 0.016665936 -0.04859072 -0.0037102178 0.11352338 0.063978255
-0.06823541 0.022629112 -0.011051513 -0.032145225 -0.050584704 -0.113361366 0.0040492266 0.042592824
0.06706984 -0.057675987 0.12289882 0.030958995 -0.074066594 0.0055014044 0.059466094 0.013457879
0.048576355 0.015072316 -0.04354041 0.116724804 -0.117374055 0.08859259 -0.013682634 -0.011230603
-0.00041430444 0.096002996 -0.111687295 0.034795627 -0.0025155246 0.07388081 0.04652284 0.07005662
-0.009409048 0.0043951124 -0.02339854 -0.076453134 -0.08609773 0.055418745 -0.10756259 -0.11729269
-0.04282876 0.084870085 0.085555166 -0.056601733 0.050662577 0.08910161 0.08815411 0.08744107
-0.025445089 -0.04866027 -0.038099915 0.096719235 0.08181071 0.020548388 -0.11757744 -0.048047498
0.009600446 0.0995518 0.11910705 -0.11300043 -0.08296764 -0.11018343 -0.032047316 0.086966366
00000000: a48e 4a3d cc3e 143d daab f7bd 95ae c6bd
00000010: 5f55 e1bd 9b81 b8bd 30a2 f93d 4985 fdbd
00000020: 1c0d e33d d801 853d bc15 7a3d 3420 743d
00000030: beca a4bd 048e e0bd da3e c7bd 6898 00bd
00000040: bae3 ab3d 7072 163d 70a5 d4bc 746a ecbd
00000050: 416c f1bd b8cf 333d 7060 06bd dc6e 7dbd
00000060: 82dc e53d 5061 d03c bec8 c5bd b460 283d
00000070: 7e31 fb3d 3252 f53d 0441 f73d 0062 1cba
00000080: 0034 783a 322d 5dbd f380 a8bd 24ae 1cbd
00000090: f49d 303d b0a7 cfbc bce6 343d 405e 6dbd
000000a0: afc0 eabd ac43 eebd 24ee 383d b021 963d
000000b0: 724c c03d 608e 0bbb e0a9 a6bd f482 e6bc
000000c0: b466 883d b4dc 7b3d 2424 573d ea6c cf3d
000000d0: c064 e6bc 402b b8bc 1c9b f9bd 5c48 1cbd
000000e0: 8f40 b7bd 683b 833c 26ec d93d 80d0 5e3c
000000f0: ca69 56bd d012 f7bc ce7b f4bd 6887 a23d
00000100: 1ce4 90bd 9834 9d3c 4c45 ae3d 181c cb3c
00000110: cc54 783d ec97 cebc 2ca7 943d 4658 d73d
00000120: baa6 1cbd f881 803c 52c2 dbbd cf4b fdbd
00000130: 2e12 5dbd 664e edbd f8f1 f33d 486b d93c
00000140: bc32 483d 3696 abbd bd50 fcbd 408a 0ebb
00000150: 7cbc d2bc c0bf 7c3b baf0 5cbd 8cb4 c4bd
00000160: 7992 ffbd 4002 bb3b 4014 f43c 56d1 8c3d
00000170: d9b3 f8bd 149f e03d 0874 c23d 6821 51bd
00000180: 5023 993c 18d9 1a3d 64e4 de3d bcdd d7bc
00000190: 4425 f0bc 44bf 3e3d ea9b cebd 58ae 9f3c
000001a0: d0aa 54bc 4d16 f7bd 1af0 ccbd 9667 cdbd
000001b0: 245b 2c3d 54b7 ce3d 68b1 b4bd 0877 afbd
000001c0: f97b babd f69d ad3d 7014 69bc 169a 993d
000001d0: 007d 4bbc 6cf5 6e3d 0052 40bd 1020 063c
000001e0: 248d 9c3d c09e a33c f4d7 dbbc ac1b 393d
000001f0: d6a3 15bd 2075 0d3c 6c89 06bd 4854 943c
00000200: 0057 493b 6cc0 083d a2f7 79bd c563 fcbd
00000210: 70dc c2bd ce0b 43bd fcad fcbd c00c d3bb
00000220: 423f bd3d 4ecd ea3d 443d f43d e4c3 84bd
00000230: 4095 253b c0cf f13d 4cb3 91bc ba35 ffbd
00000240: 3c21 143d 60b6 debd 863c dbbd a89f b4bc
00000250: cc2b 8abd 1a94 c83d b008 8d3c fc75 b73d
00000260: ba75 fb3d e02c 583d 15ef f0bd b843 473d
00000270: d27f 41bd 8064 6eba 4454 a1bd e06e d6bd
00000280: 44bc ffbc 2ec4 70bd 8688 83bd bcd1 f4bc
00000290: b297 b03d 5844 acbd 8491 9bbd 185f cabd
000002a0: 30cf 323d 5a23 51bd 5476 bc3d 2c9d 613d
000002b0: d0d5 793d 10ec 2e3d 200c c93d 984f 77bd
000002c0: 46bc a5bd cca3 d3bd 0c6c 5d3d 844e 40bd
000002d0: 2093 2e3c b460 0ebd 08ce a63c 9871 b33d
000002e0: 904b c43d 3036 5d3c 602b 2b3d 0087 883c
000002f0: 1007 47bd 2027 73bb f27e e83d 0807 833d
00000300: 02bf 8bbd b060 b93c 6811 35bc b6aa 03bd
00000310: e831 4fbd 012a e8bd 60af 843b d075 2e3d
00000320: ea5b 893d a83d 6cbd 60b2 fb3d b89d fd3c
00000330: 3ab0 97bd 2045 b43b b892 733d 707e 5c3c
00000340: 00f8 463d e0f1 763c 6e57 32bd 6a0d ef3d
00000350: cf61 f0bd 0870 b53d 202d 60bc 9000 38bc
00000360: 0037 d9b9 389d c43d 4fbc e4bd dc85 0e3d
00000370: 80db 24bb d24e 973d bc8e 3e3d d879 8f3d
00000380: 6828 1abc e004 903b 4cae bfbc 7693 9cbd
00000390: 0254 b0bd c4fe 623d c649 dcbd 2637 f0bd
000003a0: 366d 2fbd 5ed0 ad3d 8c37 af3d 38d7 67bd
000003b0: 9083 4f3d e87a b63d 248a b43d 4e14 b33d
000003c0: 3872 d0bc fe4f 47bd a80e 1cbd bc14 c63d
000003d0: 608c a73d 1855 a83c 71cc f0bd 74cd 44bd
000003e0: 304b 1d3c d0e1 cb3d 66ee f33d c56c e7bd
000003f0: f0ea a9bd daa7 e1bd 0c44 03bd 6c1b b23d

linear_relu_stack.7.bias f4 [128]
-0.018824875 0.11474568 0.014947727 -0.04181765 0.027938023 -0.040613033 0.11787863 -0.025310315
-0.03780718 -0.11752954 0.05364205 -0.09728788 -0.0431375 0.09158291 -0.08756857 0.06508213
0.11782153 -0.048079915 -0.041728757 0.07863833 0.039375484 0.10722162 -0.004694596 0.09866977
-0.09877636 0.027337924 0.10300024 -0.04318165 -0.094902426 0.07075453 -0.071133465 0.046665877
-0.12392696 -0.06683553 -0.0183298 0.07293671 0.071066424 0.021947503 0.044177487 0.060059577
0.044801667 0.08355531 -0.07863559 0.099189594 0.124823675 -0.02952975 -0.08120325 0.1196602
0.10509162 -0.06065356 0.10951401 -0.11390598 -0.047850855 -0.048338942 -0.011256196 0.10358173
0.124406695 -0.036175713 -0.019704126 0.11655547 0.103354484 -0.06614429 -0.08819207 0.095222816
-0.0228758 0.052500322 0.073952824 0.07236725 -6.133318e-05 -0.07141344 -0.046638206 0.08513209
-0.051937215 -0.013897635 0.07726744 0.10368672 -0.08302083 0.078882754 0.09521122 -0.08829408
0.12128234 0.07245736 -0.07260365 0.101453856 -0.030676775 -0.124786325 0.042941183 -0.07928771
-0.08867282 0.004240006 0.05337517 0.08136754 0.0545028 0.07848045 -0.06244403 -0.052335262
0.045901164 0.11309302 -0.11160026 0.049397662 0.021407396 -0.03578092 -0.119678676 -0.05978045
-0.10873474 0.038003877 0.096714765 -0.033870645 -0.046196006 0.0004608631 0.11958565 0.11541858
0.113413334 -0.0810522 0.099164486 -0.06545353 -0.07719635 0.0646725 -0.07958098 3.4719706e-06
-0.07455558 -0.11192954 0.08379121 0.077120066 0.09138641 -0.08420172 0.10409978 0.023563787
00000000: a036 9abc c8ff ea3d 50e7 743c fc48 2bbd
00000010: 48de e43c da59 26bd 5a6a f13d 9457 cfbc
00000020: b4db 1abd 54b3 f0bd c4b7 5b3d de3e c7bd
00000030: f2b0 30bd d28f bb3d 2757 b3bd c849 853d
00000040: 6a4c f13d 72ef 44bd c6eb 2abd 220d a13d
00000050: 3048 213d 0297 db3d 20d5 99bb 6013 ca3d
00000060: 434b cabd c8f3 df3c caf1 d23d 3edf 30bd
00000070: 345c c2bd c0e7 903d 6cae 91bd b824 3f3d
00000080: 6bcd fdbd 11e1 88bd 6028 96bc d85f 953d
00000090: 468b 913d 40cb b33c 74f3 343d 0801 763d
000000a0: f481 373d 0c1f ab3d b20b a1bd ea23 cb3d
000000b0: 8ea3 ff3d 60e8 f1bc e44d a6bd 6810 f53d
000000c0: 463a d73d de6f 78bd e248 e03d 8a47 e9bd
000000d0: 42ff 43bd 0eff 45bd e86b 38bc a822 d43d
000000e0: f0c8 fe3d fc2c 14bd 8c6a a1bc a2b4 ee3d
000000f0: 84ab d33d a876 87bd 0b9e b4bd 2e04 c33d
00000100: 0866 bbbc 940a 573d 9474 973d 4835 943d
00000110: 00a0 80b8 3641 92bd b407 3fbd bc59 ae3d
00000120: 1ebc 54bd e8b2 63bc 643e 9e3d b459 d43d
00000130: d306 aabd 488d a13d 1afe c23d 87d3 b4bd
00000140: e062 f83d 8664 943d 39b1 94bd 0ac7 cf3d
00000150: dc4d fbbc f98f ffbd 18e3 2f3d 9861 a2bd
00000160: 189a b5bd c0ef 8a3b ec9f 5a3d 06a4 a63d
00000170: 543e 5f3d 5cba a03d 50c5 7fbd 805d 56bd
00000180: dc02 3c3d 509d e73d ad8e e4bd 3455 4a3d
00000190: 905e af3c 048f 12bd 181a f5bd 58dc 74bd
000001a0: 52b0 debd f4a9 1b3d 6412 c63d f2bb 0abd
000001b0: 0638 3dbd 00a0 f139 52e9 f43d 9460 ec3d
000001c0: 4045 e83d b2fe a5bd c016 cb3d 800c 86bd
000001d0: 1f19 9ebd 0473 843d 5afb a2bd 0000 6936
000001e0: 99b0 98bd 513b e5bd ba9a ab3d 20f1 9d3d
000001f0: cc28 bb3d f471 acbd 4432 d53d d808 c13c

linear_relu_stack.10.weight f4 [1, 128]
-0.018650217 -0.08689322 -0.0004748211 -0.012826087 -0.007975058 0.04468095 0.06852679 0.028510466
0.027946174 0.043207135 0.08074453 0.081907615 -0.0016920642 0.010832109 -0.086355954 0.056550216
-0.07673615 -0.041428883 -0.082477495 -0.011715032 -0.07441813 -0.03318076 0.046448555 -0.0741941
-0.06474905 0.07915633 0.07626776 0.07016076 0.07116986 -0.016854435 0.07492179 0.03424662
0.015956039 -0.0510146 0.083311476 -0.058205172 0.00776994 0.009399273 -0.054562155 0.08139329
0.049034327 -0.08613383 0.024553258 -0.084954776 0.08566323 -0.009667433 0.029094359 0.01859558
-0.009755409 -0.0134688 0.015495794 0.023052482 0.027490513 -0.029449651 -0.054525107 0.048611235
-0.021296097 -0.02051324 -0.026771842 -0.0023310368 -0.025764432 -0.02970257 -0.020064676 -0.083878584
0.024133591 0.06992032 -0.0015454459 0.038786817 0.055045173 -0.06530501 -0.030707413 -0.05415991
0.016772855 -0.07386173 -0.052758206 0.067742504 0.01781761 0.020580517 -0.062761836 0.055435654
0.05645253 0.04264007 0.06992701 -0.014071974 0.018564612 0.06677875 0.020745743 0.023822632
-0.06814817 0.028400643 0.064634636 -0.013203253 0.00044153037 -0.07960638 0.08267495 -0.07852054
-0.013484468 0.017355124 0.05908279 -0.029199263 0.020337014 0.03581208 -0.015847942 -0.013909977
-0.05094036 0.008451286 0.0432331 -0.08718494 0.05180038 0.07278117 -0.03101567 0.07022439
-0.07427598 -0.00945004 0.031781454 0.02105566 0.01906381 0.067900665 -0.03780949 -0.08589762
0.014631194 -0.058985107 0.03161415 0.001085471 -0.051151842 -0.054275554 -0.011497486 -0.058867108
00000000: 57c8 98bc 13f5 b1bd 69f1 f8b9 8224 52bc
00000010: d1a9 02bc 5f03 373d c657 8c3d c88e e93c
00000020: 60ef e43c f7f9 303d 635d a53d 2ebf a73d
00000030: 41c8 ddba 2879 313c 64db b0bd 33a1 673d
00000040: d827 9dbd 55b1 29bd f6e9 a8bd 68f0 3fbc
00000050: 8868 98bd 8ce8 07bd d740 3e3d 14f3 97bd
00000060: 269b 84bd b71c a23d 4532 9c3d 72b0 8f3d
00000070: 81c1 913d 5012 8abc 9870 993d 2f46 0c3d
00000080: 3db6 823c aff4 50bd 359f aa3d 8c68 6ebd
00000090: fb9a fe3b 69ff 193c 917c 5fbd 86b1 a63d
000000a0: 38d8 483d ef66 b0bd ea23 c93c c5fc adbd
000000b0: 3470 af3d 2764 1ebc 4b57 ee3c c255 983c
000000c0: 27d5 1fbc 3eac 5cbc 12e2 7d3c 8fd8 bc3c
000000d0: c933 e13c 6540 f1bc b855 5fbd 931c 473d
000000e0: 2775 aebc 620b a8bc 9f50 dbbc 4fc4 18bb
000000f0: ee0f d3bc ce52 f3bc ad5e a4bc 89c8 abbd
00000100: cfb3 c53c 6232 8f3d 8f90 caba edde 1e3d
00000110: 0c77 613d a2be 85bd 1d8e fbbc c8d6 5dbd
00000120: 3a67 893c d244 97bd fd18 58bd 95bc 8a3d
00000130: 3df6 913c 7998 a83c 4789 80bd 7f10 633d
00000140: c53a 673d 5ba7 2e3d e435 8f3d 238e 66bc
00000150: d014 983c 4cc3 883d faf2 a93c ae27 c33c
00000160: 4591 8bbd 77a8 e83c 2a5f 843d 7552 58bc
00000170: 347d e739 ab08 a3bd 7c51 a93d 60cf a0bd
00000180: f5ed 5cbc 552c 8e3c cc00 723d 4b33 efbc
00000190: cf99 a63c b0af 123d 8bd3 81bc ace6 63bc
000001a0: d7a6 50bd 4377 0a3c 3115 313d 058e b2bd
000001b0: a32c 543d 4b0e 953d 9314 febc ced1 8f3d
000001c0: 011e 98bd 57d4 1abc 452d 023d eb7c ac3c
000001d0: b52b 9c3c 810f 8b3d 20de 1abd 17eb afbd
000001e0: adb7 6f3c 5e9a 71bd d77d 013d 5d46 8e3a
000001f0: 9884 51bd 0b50 5ebd f45f 3cbc a31e 71bd
