saved_models/model21.pth (torch, 13429 bytes, 9 tensors)

linear_relu_stack.0.weight f4 [4]
0.8409072 0.84943837 0.8245908 0.87253594
00000000: b245 573f cb74 593f 6218 533f 845e 5f3f

linear_relu_stack.0.bias f4 [4]
0.10298617 -0.004491383 -0.100160725 -0.050930586
00000000: 6aea d23d 742c 93bb 1121 cdbd 979c 50bd

linear_relu_stack.0.running_mean f4 [4]
5.713724 9.576187 158.66585 3.3382635
00000000: d4d6 b640 1038 1941 75aa 1e43 1ca6 5540

linear_relu_stack.0.running_var f4 [4]
48.776463 6.4713764 22399.115 5.458496
00000000: 191b 4342 8415 cf40 3bfe ae46 00ac ae40

linear_relu_stack.1.weight f4 [32, 4]
0.17201942 -0.31159058 0.4055391 0.20853896 -0.29758537 0.36949635 0.17178844 -0.169444
-0.3398831 -0.36817658 0.14177552 -0.5811867 -0.10785527 0.1509393 0.11183032 -0.03441592
0.32233986 -0.4225997 -0.101130396 0.0011085066 -0.30140877 -0.28326845 -0.070303746 -0.21403202
-0.15559365 0.37651405 0.18724054 -0.24557248 -0.26812938 0.37928525 0.1827888 -0.0012802614
0.03999583 0.013759738 0.24986063 0.50971526 0.0070779864 -0.35284692 -0.287094 0.19264656
-0.13614833 -0.2776935 -0.21223828 -0.19159831 0.38819548 0.27433282 0.44335678 0.3227312
0.44100264 -0.15628526 0.25930393 0.16119811 0.070832565 0.608421 0.45235372 -0.087533385
-0.026456736 -0.1484261 -0.19819097 0.2216906 -0.14071196 0.39378563 0.20664924 -0.40562057
-0.004788216 0.33532494 0.41254687 -0.09403532 -0.0055776252 -0.2226039 0.0146168405 0.25163135
0.2204958 -0.08241369 -0.18442623 -0.069900826 -0.43856958 0.035444196 0.08259086 -0.24258374
0.3264049 -0.24593675 0.011122158 -0.2618609 -0.4888105 -0.17043191 0.20685823 -0.47778976
-0.2943017 0.3601404 0.44310105 -0.23110032 0.3196948 -0.21050389 -0.48253304 -0.20963463
-0.3438352 -0.21931104 0.20911087 -0.5883521 0.1051058 -0.10107715 -0.5814831 0.08921568
-0.41801828 0.16150472 0.33511817 0.12730284 -0.529446 0.3769449 0.3393685 -0.26052463
0.020955915 -0.07452186 -0.0268911 0.45381507 0.11405842 0.010988641 -0.54171 0.19175078
0.50005615 -0.10422881 0.08496526 -0.065222934 -0.34865257 0.20279865 -0.22007482 0.05325376
00000000: dc25 303e cd88 9fbe d2a2 cf3e 3d8b 553e
00000010: 1c5d 98be a02e bd3e 4fe9 2f3e ba82 2dbe
00000020: 2805 aebe a481 bcbe 9a2d 113e a7c8 14bf
00000030: 39e3 dcbd d58f 1a3e 4b07 e53d b5f7 0cbd
00000040: bb09 a53e fd5e d8be 741d cfbd 4f4b 913a
00000050: 4052 9abe 9008 91be 69fb 8fbd 362b 5bbe
00000060: f153 1fbe 73c6 c03e fcbb 3f3e 5a77 7bbe
00000070: 4148 89be ad31 c23e fd2c 3b3e 72ce a7ba
00000080: abd2 233d 8670 613c 77db 7f3e b37c 023f
00000090: 74ee e73b 5aa8 b4be fcfd 92be 2445 453e
000000a0: 786a 0bbe d82d 8ebe fe54 59be 5932 44be
000000b0: 8fc1 c63e 5a75 8c3e a9ff e23e 063d a53e
000000c0: 19cb e13e 3e09 20be 7cc3 843e 1e11 253e
000000d0: aa10 913d 7bc1 1b3f e89a e73e b444 b3bd
000000e0: ccbb d8bc 03fd 17be 93f2 4abe dc02 633e
000000f0: cc16 10be 459e c93e dc9b 533e 80ad cfbe
00000100: 78e6 9cbb b6af ab3e 5839 d33e 9795 c0bd
00000110: 83c4 b6bb 47f2 63be 797b 6f3c d3d5 803e
00000120: a7c9 613e 82c8 a8bd 3bda 3cbe 2a28 8fbd
00000130: 318c e0be ef2d 113d 6625 a93d df67 78be
00000140: 8b1e a73e d8d6 7bbe b639 363c a212 86be
00000150: 5f45 fabe b485 2ebe a5d2 533e dca0 f4be
00000160: b6ae 96be 5364 b83e 24de e23e 90a5 6cbe
00000170: 09af a33e 558e 57be 920e f7be 76aa 56be
00000180: 2b0b b0be 1393 60be 2921 563e 3e9e 16bf
00000190: b641 d73d 8901 cfbd 14dc 14bf b6b6 b63d
000001a0: 7e06 d6be 7e61 253e 9c94 ab3e ad5b 023e
000001b0: c689 07bf ecfe c03e b5c1 ad3e 7c63 85be
000001c0: bdab ab3c eb9e 98bd b94a dcbc 735a e83e
000001d0: 7697 e93d b309 343c 82ad 0abf 515a 443e
000001e0: ae03 003f ea75 d5bd 4402 ae3d 9a93 85bd
000001f0: 9782 b2be 73aa 4f3e 4b5b 61be 9d20 5a3d

linear_relu_stack.1.bias f4 [32]
-0.6288563 -0.031034447 -0.45636794 0.28153297 0.2905589 -0.14730625 0.050820235 0.26782864
-0.2681852 0.11535862 -0.24239673 -0.58446455 -0.10447104 0.15067792 0.08111014 0.02159287
0.24560878 0.1446542 -0.094934106 0.059992954 -0.25587937 -0.04256703 0.23696929 -0.12919265
-0.3244471 -0.17211886 0.077562295 0.038538598 0.08943605 -0.22884418 -0.01936835 -0.5928524
00000000: bafc 20bf f43b febc 0fa9 e9be 1725 903e
00000010: 23c4 943e 73d7 16be e128 503d d620 893e
00000020: 924f 89be 2441 ec3d d936 78be 789f 15bf
00000030: eaf4 d5bd 504b 1a3e 131d a63d 88e3 b03c
00000040: de80 7b3e 3b20 143e d06c c2bd 2cbb 753d
00000050: 9f02 83be c45a 2ebd 14a8 723e 144b 04be
00000060: ee1d a6be ed3f 30be fbd8 9e3d a6da 1d3d
00000070: 3f2a b73d 2156 6abe 60aa 9ebc 2dc5 17bf

linear_relu_stack.4.weight f4 [64, 32]
-0.09606547 -0.1176226 0.28541103 -0.30122757 -0.0036834278 0.25029877 -0.139916 -0.2096294
-0.09208753 0.1273436 0.089394 0.041479137 -0.047789827 -0.121335596 0.079370335 -0.30047405
-0.2157939 0.06881843 0.028434861 0.06532478 -0.067003965 -0.11721624 -0.15547518 0.09220969
0.1816939 -0.10536308 -0.16475451 -0.027182613 -0.15682156 0.14835933 -0.14861068 -0.059942108
-0.08362771 -0.15858833 -0.11939068 0.07608072 -0.06525664 -0.039399225 -0.08356639 0.007662098
-0.1545156 -0.080737956 0.02187572 0.1372002 -0.1357649 -0.13160868 0.11891219 -0.17433564
0.077880874 0.16622606 0.038319148 -0.17130455 -0.14505963 -0.09818403 -0.13017851 -0.114362024
-0.09092125 -0.08815309 0.06838821 -0.056455567 0.05482514 -0.16245243 -0.0036437903 0.06728043
-0.0056570857 0.19820409 0.16782692 -0.09601376 -0.07378784 0.11539617 0.0977131 0.15373455
-0.30421197 -0.11038499 0.19175997 0.023067858 -0.32978117 -0.022069858 0.040834535 0.095529206
-0.13864574 -0.15091582 -0.13480808 -0.39321178 0.17944929 0.25690335 0.15028453 -0.07837427
-0.11142058 -0.022400476 -0.10559074 0.04264644 -0.22626425 -0.050056845 -0.006870839 0.073496
-0.007378571 -0.23140499 0.24385104 -0.31258786 0.09211363 0.24779254 0.2646961 -0.17220964
-0.045165468 0.03807992 0.009494393 -0.29314628 -0.14476585 -0.17947766 0.18578944 -0.067621216
-0.30430496 0.029942192 0.025815506 -0.04425699 0.17349204 0.20568733 -0.09968242 0.09764271
0.15278283 -0.0390757 0.096530296 0.33476728 -0.1293087 -0.22491556 0.22599024 -0.07022665
-0.15898369 0.01607197 0.01183917 -0.14297108 0.2042911 -0.027543962 -0.13916844 -0.09673002
-0.18954922 -0.09943269 -0.07679343 0.12535444 0.25750178 -0.094611965 0.08670949 -0.062421948
-0.21000242 -0.05750455 0.10684841 0.03890829 -0.020396886 -0.20118742 -0.020923603 -0.06040939
-0.0071921814 0.2559859 -0.13079475 -0.005391576 0.20489022 0.14865051 0.1323806 -0.07827346
-0.20078398 0.005080138 -0.071945176 -0.116656646 -0.08963549 0.08517922 -0.003977367 -0.16844568
-0.020307798 0.055617176 0.050551753 0.06083746 0.07330645 -0.119285375 -0.21458541 -0.13770883
0.055857133 -0.053110473 0.20006076 -0.2296825 0.014761821 -0.1325704 -0.17594576 -0.16622044
-0.21000357 -0.19347382 -0.1296373 -0.17737745 -0.04643435 -0.024609063 0.009198912 -0.073339835
-0.13056207 0.029735712 -0.057666853 -0.11566338 -0.07442381 -0.06385901 -0.04074769 -0.025824483
-0.20607683 -0.03015022 -0.0526479 0.04495978 -0.06865885 -0.052783623 -0.1485929 -0.14310917
0.07079919 -0.077826016 -0.2262361 -0.054109074 -0.21678443 -0.17112884 -0.036022022 -0.23012505
-0.10041346 -0.14192018 -0.16193731 -0.09486486 -0.059641078 -0.07433441 0.16555575 -0.08580773
-0.06731096 0.051009502 0.18395533 0.14923841 -0.12836733 -0.0026019888 0.07277426 0.07167893
-0.30201092 -0.11496796 0.03406146 -0.21691911 -0.16975191 0.06800791 -0.24298985 0.32390913
0.15388219 -0.047274143 0.06363161 0.0487735 -0.29878342 0.04085278 -0.11298787 -0.45203865
0.17807639 -0.061464544 0.12951565 0.21382019 -0.193422 -0.21666625 -0.2384456 -0.19564025
00000000: f9bd c4bd 1ee4 f0bd 6521 923e 803a 9abe
00000010: aa65 71bb 2927 803e 2446 0fbe 17a9 56be
00000020: 6398 bcbd 5c66 023e 3414 b73d 07e6 293d
00000030: 44bf 43bd cc7e f8bd ea8c a23d bcd7 99be
00000040: 13f9 5cbe adf0 8c3d 3af0 e83c 00c9 853d
00000050: 6039 89bd 110f f0bd e334 1fbe 6fd8 bc3d
00000060: f70d 3a3e 99c8 d7bd 68b5 28be 12ae debc
00000070: d595 20be 82eb 173e 662d 18be db85 75bd
00000080: 0145 abbd fb64 22be 1a83 f4bd 35d0 9b3d
00000090: 46a5 85bd 1561 21bd db24 abbd 5612 fb3b
000000a0: 5639 1ebe f159 a5bd b634 b33c 367e 0c3e
000000b0: f405 0bbe 6dc4 06be 3c88 f33d 0b85 32be
000000c0: 0280 9f3d 2a37 2a3e 8af4 1c3d 766a 2fbe
000000d0: 838a 14be b514 c9bd 844d 05be a336 eabd
000000e0: ec34 babd 9b89 b4bd 1e0f 8c3d f43d 67bd
000000f0: 5390 603d ee59 26be a8cc 6ebb 52ca 893d
00000100: 135f b9bb 03f6 4a3e d2da 2b3e dda2 c4bd
00000110: 141e 97bd d454 ec3d ce1d c83d 976c 1d3e
00000120: acc1 9bbe 8711 e2bd ba5c 443e cef8 bc3c
00000130: 14d9 a8be d9cb b4bc 1d42 273d d1a4 c33d
00000140: 26f9 0dbe ad89 1abe 210b 0abe 0e53 c9be
00000150: 8ec1 373e d688 833e 30e4 193e b082 a0bd
00000160: 7930 e4bd 3481 b7bc f53f d8bd 09ae 2e3d
00000170: d1b1 67be 6808 4dbd c624 e1bb 1285 963d
00000180: f1c7 f1bb 6ef5 6cbe 16b4 793e 840b a0be
00000190: 12a6 bc3d 54bd 7d3e 3f86 873e b957 30be
000001a0: 6dff 38bd b1f9 1b3d 5f8e 1b3c 4517 96be
000001b0: 803d 14be fec8 37be 963f 3e3e fe7c 8abd
000001c0: dccd 9bbe 5449 f53c 0a7b d33c d146 35bd
000001d0: e6a7 313e b39f 523e 4c26 ccbd e7f8 c73d
000001e0: 1a73 1c3e d70d 20bd adb1 c53d 9e66 ab3e
000001f0: 8069 04be 4450 66be fc69 673e fdd2 8fbd
00000200: 9fcc 22be 5da9 833c 14f9 413c 0367 12be
00000210: b031 513e e0a3 e1bc 2c82 0ebe 641a c6bd
00000220: 3119 42be 5ea3 cbbd e045 9dbd ea5c 003e
00000230: 46d7 833e ebc3 c1bd bf94 b13d 28ae 7fbd
00000240: e00a 57be e489 6bbd 57d3 da3d 4d5e 1f3d
00000250: 5f17 a7bc 1304 4ebe fa67 abbc d66f 77bd
00000260: 64ac ebbb 9510 833e 0fef 05be d1ab b0bb
00000270: bece 513e d737 183e c88e 073e d64d a0bd
00000280: 519a 4dbe 4977 a63b fe57 93bd aee9 eebd
00000290: d092 b7bd 7172 ae3d 9354 82bb 067d 2cbe
000002a0: 8a5c a6bc d6ce 633d 5b0f 4f3d b330 793d
000002b0: b121 963d e44b f4bd 47bc 5bbe 8b03 0dbe
000002c0: 73ca 643d 5e8a 59bd badc 4c3e e431 6bbe
000002d0: 91db 713c 89c0 07be 202b 34be b135 2abe
000002e0: 2d0b 57be 001e 46be a4bf 04be 6fa2 35be
000002f0: f231 3ebd f298 c9bc 09b7 163c 3233 96bd
00000300: 10b2 05be 4f98 f33c 1434 6cbd ece0 ecbd
00000310: 836b 98bd 83c8 82bd 0de7 26bd de8d d3bc
00000320: ce05 53be 98fd f6bc 53a5 57bd bf27 383d
00000330: 039d 8cbd a433 58bd bd28 18be 368b 12be
00000340: 2aff 903d 3f63 9fbd 70aa 67be 7aa1 5dbd
00000350: bdfc 5dbe 663c 2fbe d48b 13bd e7a5 6bbe
00000360: 92a5 cdbd 8653 11be e5d2 25be 8248 c2bd
00000370: 344a 74bd a43c 98bd 7287 293e f7bb afbd
00000380: 54da 89bd 57ef 503d c95e 3c3e f4d1 183e
00000390: ba72 03be 2186 2abb ac0a 953d 67cc 923d
000003a0: 2da1 9abe 5274 ebbd 0884 0b3d 0b20 5ebe
000003b0: 72d3 2dbe bb47 8b3d 55d2 78be 6bd7 a53e
000003c0: 4b93 1d3e 88a2 41bd 4a51 823d b9c6 473d
000003d0: 24fa 98be 3f55 273d 2f66 e7bd 9c71 e7be
000003e0: a859 363e 3fc2 7bbd c09f 043e aef3 5a3e
000003f0: 6b10 46be c2dd 5dbe 152b 74be eb55 48be

linear_relu_stack.4.bias f4 [64]
-0.30366525 -0.12468563 0.13386631 -0.101120226 0.07445482 -0.010434741 -0.13704158 0.15535071
-0.19317043 0.04367553 0.070344426 0.27897656 0.061857887 0.010028967 0.18644051 0.21019866
0.191015 -0.046064407 0.11896221 -0.116827 0.16790023 0.22052693 0.21086203 -0.17038949
0.023550691 0.096636765 -0.2134214 -0.16346417 0.26080462 0.050455544 0.02798916 -0.06160873
0.25402272 0.231747 0.026770823 0.26928544 0.22773308 -0.11134951 0.13087617 -0.30324873
-0.2899664 0.040464014 -0.1319697 0.053011496 -0.2803477 0.15971074 0.22351687 0.11991939
0.33416307 0.2879819 0.07016964 0.33298236 0.13778456 0.22427602 0.051036082 -0.20903225
0.06750356 0.17470099 -0.29077145 0.2657973 -0.11208459 0.22440739 0.10864324 -0.22036426
00000000: 037a 9bbe 2e5b ffbd 4014 093e 1f18 cfbd
00000010: c57b 983d 7af6 2abc a154 0cbe 4214 1f3e
00000020: 78ce 45be 1de5 323d bd10 903d 04d6 8e3e
00000030: b25e 7d3d 8950 243c 43ea 3e3e 513e 573e
00000040: 7099 433e 08ae 3cbd 76a2 f33d ff42 efbd
00000050: 0aee 2b3e d0d1 613e 37ec 573e 957a 2ebe
00000060: 61ed c03c 7fe9 c53d 248b 5abe 2763 27be
00000070: 2f88 853e 79aa 4e3d 8649 e53c 7059 7cbd
00000080: 440f 823e 164f 6d3e 7c4e db3c c8df 893e
00000090: dc32 693e 360b e4bd 6704 063e 6b43 9bbe
000000a0: 7a76 94be 98bd 253d 1123 07be 9522 593d
000000b0: bc89 8fbe 368b 233e 9be1 643e 4c98 f53d
000000c0: 6c17 ab3e 5d72 933e 1ab5 8f3d aa7c aa3e
000000d0: 6517 0d3e 9da8 653e 360b 513d 8d0c 56be
000000e0: 4e3f 8a3d d1e4 323e ffdf 94be 9516 883e
000000f0: 9b8c e5bd 0dcb 653e 5980 de3d 2ba7 61be

linear_relu_stack.7.weight f4 [1, 64]
-0.111442134 0.04701307 -0.070375025 -0.092399605 0.049889807 0.015673697 -0.14454016 -0.093958184
0.085014164 0.08204118 -0.061929386 0.09773617 -0.15623763 -0.03520418 -0.061475534 0.05375835
-0.041583136 0.04546008 -0.031527244 0.04581977 -0.06813653 0.10628865 0.11402154 0.01441729
-0.08447468 -0.062955305 0.034031317 -0.0016494557 0.079496816 0.06758301 0.09708035 -0.051376186
0.09411415 0.13396183 -0.060445298 -0.09090346 0.104901776 -0.052383684 -0.09921101 -0.0005702798
0.016608456 -0.06530878 -0.04683612 -0.024925992 -0.01159659 -0.06718016 -0.105748974 0.07634202
0.11802086 0.09606084 0.027757175 -0.07421504 -0.08508872 0.085693605 -0.08361342 0.026855728
-0.06501164 -0.075653955 -0.0014618865 -0.069267154 -0.035304237 0.0921075 -0.049459286 -0.0067529
00000000: c63b e4bd c790 403d c820 90bd 013c bdbd
00000010: 4159 4c3d 2066 803c 5602 14be 266d c0bd
00000020: e81b ae3d 3505 a83d aba9 7dbd e729 c83d
00000030: c2fc 1fbe 4232 10bd c5cd 7bbd b731 5c3d
00000040: 1453 2abd 5934 3a3d b622 01bd 83ad 3b3d
00000050: 2a8b 8bbd ddad d93d 2084 e93d 7f36 6c3c
00000060: 1001 adbd b6ee 80bd 6c64 0b3d 8d32 d8ba
00000070: 3acf a23d f668 8a3d 10d2 c63d d66f 52bd
00000080: ebbe c03d 4a2d 093e 7d95 77bd 982b babd
00000090: bed6 d63d 4690 56bd 242f cbbd d47e 15ba
000000a0: 750e 883c 9cc0 85bd 3bd7 3fbd 9831 ccbc
000000b0: a0ff 3dbc c095 89bd eb92 d8bd 3459 9c3d
000000c0: ecb4 f13d 8cbb c43d 0463 e33c 0efe 97bd
000000d0: ff42 aebd 2180 af3d 833d abbd 8b00 dc3c
000000e0: d324 85bd 76f0 9abd c59c bfba f0db 8dbd
000000f0: 2d9b 10bd dba2 bc3d d295 4abd 6e47 ddbb
