saved_models/model11.pth (torch, 12917 bytes, 9 tensors)

0.weight f4 [3]
00000000: fc1c 623f 065d 683f 8724 4b3f
0.88325477 0.9076694 0.7935261

0.bias f4 [3]
00000000: 5cdb b1bd 94f0 4abd 0bf6 373e
-0.086844176 -0.04954584 0.17964952

0.running_mean f4 [3]
00000000: 0312 c140 8e13 1b41 b83b 2343
6.0334487 9.692274 163.23328

0.running_var f4 [3]
00000000: c43b 7942 8185 bc40 922a b346
62.308365 5.891297 22933.285

1.weight f4 [32, 3]
00000000: 5f09 45be d593 d43e de3f 8c3d 4bca 3f3e
00000010: 27d8 9cbd 9b73 ee3d 8702 3f3e ce8b a9bd
00000020: fabf dabe 3b5e 4ebf 5f4d db3e 5f8f c13e
00000030: 13ff 6e3e 3298 80be 24af ca3d e538 babe
00000040: 37a8 f73e 8984 0e3e f7dc bebe 8986 0ebe
00000050: 8beb 6cbe 43f2 0c3f 3e8f cebc 471c 3bbe
00000060: fd19 913e d5b9 cbbe d416 91bd 9a23 f23d
00000070: 65ac 203e d83a 21bf 9413 20bd ab86 9ebe
00000080: 198e 50be e5c2 943e ca2e 74be 67b4 483d
00000090: 7652 b53e 62b4 79be c98e ebbd c28e 07be
000000a0: a1c0 8c3d 29cf 8fbe c28f e9be b049 e1be
000000b0: 4236 b03d 42cb 7c3e 9e0a 1e3f 632a 4c3e
000000c0: dcdb 473e 83a5 16bf ccf1 5d3e 275b ebbe
000000d0: df0d 01be 485e 4b3e b1d2 823e 23f7 4d3e
000000e0: 31af 32be dbfb b93c 66bb afbd 25d6 21bf
000000f0: 58f3 c0be 908a c73e 02a4 c03e 05b0 843e
00000100: b245 6f3e c56f 9abe 29d3 883e ba6c 023f
00000110: 222b d53c d7a8 95be 89d5 b4be 8642 f03d
00000120: c956 0cbf 6a09 063f f1cf 80be f419 803e
00000130: 17f5 6ebe de46 f4be 1494 a33e 130d b1bd
00000140: 654f c5be a01a ec3d 7fb3 083f d599 583e
00000150: 1169 1bbf c691 993d 4965 923c 6ea3 0ebf
00000160: 6e12 e93e a977 9d3e 54d8 603d a591 cd3e
00000170: 38fd b0be d28a 883e 8337 0ebd 42bd b1bb
-0.19241856 0.41519037 0.06848119 0.18729512 -0.07658415 0.11643144 0.18653308 -0.08278619
-0.42724591 -0.80612534 0.42832467 0.37804696 0.2333949 -0.25116116 0.09896687 -0.36371532
0.48370525 0.13917746 -0.37277958 -0.13918509 -0.23136728 0.5505716 -0.025214788 -0.18272506
0.2834014 -0.39790216 -0.07084432 0.11823197 0.15690763 -0.62980413 -0.03908117 -0.30962119
-0.20366706 0.29054943 -0.23845974 0.04900017 0.35414475 -0.24385217 -0.115018435 -0.13238052
0.068726785 -0.28087738 -0.4561749 -0.44001532 0.08604099 0.24686912 0.6173495 0.19938044
0.19517463 -0.588463 0.2167427 -0.4596798 -0.12602948 0.19860184 0.2555137 0.20113806
-0.17449643 0.022703102 -0.08580665 -0.63217384 -0.37685657 0.38972902 0.37625128 0.25915542
0.2336643 -0.30163398 0.26723602 0.50947154 0.026021544 -0.29230377 -0.35319164 0.11731438
-0.54819924 0.52358115 -0.25158647 0.250198 -0.23335682 -0.47710317 0.31948912 -0.08645072
-0.38537136 0.11528516 0.5339889 0.21152432 -0.60707194 0.07498507 0.017870562 -0.55718124
0.45521873 0.30755356 0.054893807 0.4015018 -0.3456819 0.26668411 -0.03472091 -0.0054241726

1.bias f4 [32]
00000000: 4fa6 493e baca 7f3e 2fce 483e 2dcf 8cbe
00000010: 49d2 a3be 6c23 2cbe eecc 1ebd 07ac 963e
00000020: abca 16bf abe8 28bd e67a 873e ab1a f3be
00000030: f337 af3e 5c64 02be 919b d7be fe2d f73d
00000040: e890 c4be 3df4 ed3d e963 24bf 0ae3 983e
00000050: bd4d 213e f249 463d a6e2 01be 5390 08bf
00000060: 4a0a 57be c90f 2b3e bf4c e33e 9788 ac3c
00000070: 5742 473e f371 9fbe a131 1abf 440d d3be
0.19692348 0.24979678 0.19609903 -0.27501813 -0.31996372 -0.16810387 -0.038769655 0.2942812
-0.58902997 -0.041237514 0.26460952 -0.47481284 0.34222373 -0.12733597 -0.42110875 0.12069319
-0.38391805 0.116188504 -0.6421495 0.29860717 0.15752311 0.048410363 -0.12684116 -0.5334522
-0.21000019 0.1670524 0.4439449 0.021061225 0.194589 -0.31141624 -0.6023198 -0.41221058

4.weight f4 [64, 32]
00000000: adb0 f73d 00c8 813d e640 483d 491f 3c3e
00000010: 6e7e d7be f2d5 333d 1fd5 8a3d 3a6a bbbd
00000020: 5119 23be 3514 d93c 54d7 d4ba 93b0 b1bd
00000030: 41dd 11be 0893 8a3b 061c 9bbd 3f2b da3d
00000040: 8808 82be a38a 92bd 1345 ae3d 815a 793d
00000050: 0150 e13d 9c81 36bc 7f3d d2bc 207e 5f3c
00000060: 64c4 813d cac9 acbe 0790 aabd 982f 2b3c
00000070: 6553 ea3d e391 06bd 2175 99be 3748 7abe
00000080: 6b3e 0abd 843d 9f3d 9db5 223e 9b75 77bd
00000090: 93e4 53be 5034 17bd 121b 38be 00d7 26be
000000a0: 45c8 26be 70a9 0bbd f9ba e3bd 7008 58bd
000000b0: b4b6 943d 5acd f3bd 40a3 54be fce9 6abe
000000c0: 7999 35be f628 ddba acc5 6e3c 5ff3 083d
000000d0: 68ba 36be bbc7 e1bd b8e4 34bd 0b9a 50bd
000000e0: 6d08 11be c599 e5bd 4c0b 723e fe0a aebd
000000f0: 9c1a 82bd 94ae d3bd 31de f2bd ed7f 313d
00000100: bcca 5d3d d809 af3c 6cd6 09be 9be4 17be
00000110: 53a7 f0bb 16cf 6dbc 274f a0bd cc45 45be
00000120: 9272 1a3e 1f88 a0bd d9bd 48bd 94b7 b33d
00000130: b3c6 17be 3529 23be 81d8 26bd a941 24be
00000140: c0fb bdbc 3e90 c5bc 429e c23d 8c92 a7bc
00000150: b571 2ebe d717 db3d 3e6f 62bd 0d5c ebbd
00000160: 1f45 973c 3d77 30be 38fb 693d 4526 48bc
00000170: 2651 f0bd b341 513d bc15 77be e77d e83d
00000180: 4c36 47bd f395 ecbd 36ba 70bd 63b5 adbc
00000190: ba5e 83be 96f0 483e cdd5 31be 0d38 76bc
000001a0: 716d 9cbe 6f08 11be 117e c5be 38c7 18bd
000001b0: 023a 95be 1cf0 bebb 6235 25be 643d 30bd
000001c0: b50c 2fbd 31f6 1d3e c2f3 563c 131b fc3d
000001d0: a5bc be3d 9172 8b3d af04 cbbd ec6b 8ebe
000001e0: b51a 5b3e 22bc b3bd 4738 5dbe 9226 843e
000001f0: 6425 da3d 239a 17bd 07cc a1bd aa9e f2bd
00000200: e45b 7fbd 8666 123e 8071 06be 8534 1ebc
00000210: fa30 26be 06df a43d aaaf febd f74b 803e
00000220: 247e a2bb 0b1a 00be b136 0cbd c85c 9ebd
00000230: 5c68 34be c9bd da3c 7b3f 5e3d 1067 733c
00000240: 6f04 833d c9f2 d7bd 1abb ce3d 5416 a7bc
00000250: 40cd 3cbd b42b 2d3c 3a08 24be 536e e5bb
00000260: 6c40 67be 110a a63d 7c29 1dbe ea39 83be
00000270: 4a46 08be 9be0 45be 428f 5dbe 305b e43c
00000280: 3b1d 3d3c 148f 7dbe 4f0f 72be ecb3 f6bd
00000290: 10bf 81be 57e5 24be 6c98 b0bd 1e8f cbbd
000002a0: 0a96 7cbe e0a5 1abe 83c3 073e 7998 93be
000002b0: b40d c7bd b552 a23d 2fac edbd 300a 1dbe
000002c0: 204e 013d 6bc7 7d3d 1339 a13d aaa4 803d
000002d0: de3d 55bd d43c af3d d59b 10be d569 91be
000002e0: 1f2d e53c 9206 f23c 1866 a73d 03f2 7abd
000002f0: 118b 3d3e 902e 16be ae55 513d 6068 11bd
00000300: 148e bbbb bd49 8fbd 381d 01be 808c c03e
00000310: b6fa 84be a4ec 013e b818 27be 5423 36be
00000320: 7307 f4bd 3236 c1bd 8a4b 55be 18eb 223e
00000330: cb11 343d 7f14 413c 1488 94be 1abb 633e
00000340: 568c 6abe c618 b73d 17b0 d83d 89c8 4ebd
00000350: 9c28 833b d106 a33d 555d 92bd cd53 7ebd
00000360: ab00 d5bd 7b02 3cbe 1753 ab3c 27a2 6e3d
00000370: 19e8 273e db04 e63d 69dd 4c3d f4a9 4a3e
00000380: 263d efbd f027 cf3c a473 a33d dd5d 00be
00000390: 0928 90be 7b04 1abe 0d48 d5bd d697 313e
000003a0: 5824 953a 2a3f 253a 0a19 ab3d d24c a63d
000003b0: e922 2d3e 2b68 cf3d a431 b2bc 832c 4ebe
000003c0: 90b3 443e e67a e3bd 09b1 0c3c eb26 a33e
000003d0: 2310 81be f4ba de3d 8306 6c3d 564d 073b
000003e0: d1a6 08be 0e53 dd3d af16 1cbe e57a a3bd
000003f0: 1afe 0abe 7a65 babe 8d82 74bd ec1d 29be
0.12094245 0.06336975 0.048890017 0.1837131 -0.42088646 0.043905206 0.06778931 -0.091511205
-0.15927626 0.026498893 -0.0016238489 -0.08676257 -0.14244558 0.0042289533 -0.075737044 0.1065278
-0.25397134 -0.07155349 0.085092686 0.060877327 0.11001588 -0.0111393 -0.02566409 0.01364091
0.06336287 -0.33747703 -0.08328252 0.010448359 0.114416875 -0.032853972 -0.29972175 -0.2444161
-0.033750933 0.07775405 0.15889592 -0.06041489 -0.20692663 -0.036915123 -0.17979077 -0.16292953
-0.16287334 -0.034097135 -0.111196466 -0.05274242 0.0726141 -0.11904402 -0.207654 -0.2294082
-0.17734326 -0.0016873169 0.014573496 0.03343522 -0.17844546 -0.11024424 -0.044163436 -0.050928157
-0.1416337 -0.1121097 0.23637122 -0.0849819 -0.063527316 -0.103360325 -0.11858786 0.04333489
0.05414842 0.021366999 -0.13460702 -0.148333 -0.0073441654 -0.014514705 -0.07827597 -0.19264907
0.15082768 -0.07838463 -0.049009178 0.08775249 -0.14821891 -0.15933688 -0.040733818 -0.16040672
-0.023191333 -0.024116632 0.095028415 -0.020455621 -0.17035563 0.106979065 -0.05528187 -0.11492167
0.018465577 -0.17232986 0.057124346 -0.012216155 -0.11734228 0.051088046 -0.24129385 0.11352139
-0.048635766 -0.11552038 -0.058771335 -0.021204656 -0.25658208 0.19623026 -0.17366715 -0.015028012
-0.30552247 -0.14163373 -0.38572744 -0.037299365 -0.2914582 -0.005826963 -0.16133645 -0.043027297
-0.042736728 0.15425946 0.01311964 0.123098515 0.09313325 0.06808961 -0.09913003 -0.27816713
0.21396907 -0.08776118 -0.216035 0.25810677 0.10651663 -0.03701223 -0.07900243 -0.11846669
-0.062343493 0.14296922 -0.13129234 -0.009656076 -0.1622962 0.08050351 -0.12435849 0.25057957
-0.004958885 -0.12509935 -0.034231845 -0.0773254 -0.17617935 0.026701825 0.05425976 0.014856115
0.0639733 -0.105443545 0.100942805 -0.020396389 -0.04609418 0.010569502 -0.16018763 -0.007001677
-0.22583169 0.08107389 -0.15347856 -0.25630122 -0.13308063 -0.19323961 -0.2163668 0.027875513
0.011542614 -0.24761611 -0.23638652 -0.12046036 -0.25341082 -0.16103111 -0.08622822 -0.09939407
-0.2466661 -0.15102339 0.13258176 -0.28827265 -0.097194105 0.07925931 -0.11605107 -0.15335917
0.031568646 0.061957758 0.07872214 0.06281407 -0.052060954 0.08556524 -0.14121945 -0.28401056
0.027975617 0.029544149 0.0817377 -0.061265957 0.18510081 -0.146662 0.0511071 -0.03549993
-0.005723724 -0.06996486 -0.12608802 0.37607193 -0.25972527 0.12687927 -0.16318023 -0.17786914
-0.11915483 -0.09434165 -0.20829597 0.15909994 0.04396228 0.011784672 -0.2901007 0.22239342
-0.22905096 0.08940272 0.105804615 -0.050484214 0.0040026437 0.079602845 -0.07146708 -0.062091637
-0.10400518 -0.18360321 0.020913644 0.05826011 0.16397132 0.11231395 0.05001584 0.19791394
-0.11681585 0.025287598 0.07981041 -0.12535806 -0.28155544 -0.15040772 -0.10414133 0.17343077
0.0011378629 0.00063036627 0.08354385 0.08120121 0.16907848 0.1012729 -0.021752186 -0.20134167
0.19209123 -0.111074254 0.00858713 0.3186563 -0.25207624 0.10875502 0.057623398 0.002064546
-0.13344885 0.10806857 -0.15243028 -0.07982425 -0.13573495 -0.36405545 -0.059694815 -0.1651532

4.bias f4 [64]
00000000: de7e 083e e9e8 bfbd 77d6 ad3d 39a9 393e
00000010: 2bd6 873d 201c 29bc 6339 673e 5799 a93d
00000020: 6fa6 64bc ccfb 5c3d 2ab2 30be 2fb4 103d
00000030: 954f ff3c d732 42be eb80 fabc 3f47 5c3d
00000040: b6d9 b2be f563 50bc b479 523d fc40 fabd
00000050: 27eb b03e 91a9 1abe 3971 823e f1a3 783e
00000060: 3fd0 5fbe b65e dd3d d760 6c3e 4bca 29bc
00000070: 3598 453e d60e 2ebe f380 863e 7989 093e
00000080: 44e4 38be 88e7 003e 42a5 adbe aa16 1e3e
00000090: 000c 44be 9835 993e 135f 69be f6aa 0ebd
000000a0: 70c0 153e 7dc8 2d3d e233 263d f522 803e
000000b0: 5242 7cbb 0d2c 68be 7680 79bc 6bd1 0d3d
000000c0: 77e4 e03d fbcb a43d 18b1 0ebe ab70 393e
000000d0: fc3a 3fbe ebd7 0abe 78e2 c43d eedb f03d
000000e0: 41cd b7be 036a 8c3e ff0a c5bd fddc 523e
000000f0: 9966 6cbe ebe9 83be 6b3e 1cbe 512e 503e
0.13329646 -0.09370596 0.084881715 0.1813096 0.06632646 -0.010321647 0.22580485 0.082812004
-0.0139556965 0.05395107 -0.17255464 0.035328086 0.031165877 -0.18964706 -0.030579051 0.053778883
-0.34931725 -0.012719144 0.051385596 -0.12219426 0.34554407 -0.15103747 0.25477007 0.24281289
-0.21856783 0.1080908 0.23083816 -0.010363172 0.19296344 -0.16997847 0.26270255 0.13431348
-0.18055826 0.12588322 -0.33915144 0.15438333 -0.19145203 0.299237 -0.22790174 -0.03483101
0.1462419 0.04242753 0.040576823 0.2502667 -0.0038491678 -0.22673054 -0.015228381 0.034623545
0.10981076 0.08046719 -0.13934743 0.18109386 -0.18674845 -0.13558929 0.09613508 0.11760698
-0.35898784 0.2742463 -0.09621238 0.20592113 -0.23086013 -0.25764403 -0.15258186 0.20330168

7.weight f4 [1, 64]
00000000: d9eb 03bd 8d30 8b3d 27e4 f5bb 6136 98bd
00000010: c655 a03d 95b6 be3c b46a d8bd e495 063e
00000020: 8b1d c0bd f1e4 a23d 68ea 0ebd f7d6 793c
00000030: 34ea c93c 584c 08be 7267 2cbd ac9b de3c
00000040: 35d1 833d 0378 e2bd 9cfd 39bb e440 e5bd
00000050: 5fd5 083e 9b8a 92bd 85b0 2f3e c572 d8bd
00000060: 01e4 1fbd 6146 823d 827d 8bbd 1e81 d0bd
00000070: 5db2 483d 0974 d33b f70f c8bd e6f8 1d3d
00000080: 2a5c d53d 839e c3bd 159d 02be 4513 053e
00000090: 69c5 8dbc a875 9abd 6aaa b5bd 86cc 02bd
000000a0: 94fe 98bc c710 15be 705a 503d f586 b03d
000000b0: ceff 46bd 802a 1d3b 9dc4 dc3d 8e0b 95bc
000000c0: 8ce2 f63d fe2c d23d 5dc3 2a3a f99d 08be
000000d0: 1215 463c dfe5 98bd e8e8 313d f240 c8bd
000000e0: fbc5 323b 05d3 cb3d ea3c 633c 7337 763d
000000f0: a82c 0f3d f698 6dbd d3c5 13bd eedd 53be
-0.032207344 0.0679637 -0.0075040045 -0.07432247 0.0782886 0.023280421 -0.10567227 0.13143116
-0.09380635 0.07953823 -0.034891516 0.0152490055 0.02464781 -0.13310373 -0.04209084 0.02717384
0.064363874 -0.11058047 -0.0028379923 -0.111940175 0.13362645 -0.07155343 0.1715718 -0.105687656
-0.0390358 0.0636108 -0.06811048 -0.10180877 0.048998225 0.0064530415 -0.0976867 0.038567446
0.104179695 -0.09551718 -0.12755235 0.12995632 -0.017306047 -0.075419724 -0.088703945 -0.03193333
-0.01867608 -0.14557181 0.050867498 0.08619491 -0.048583798 0.002398163 0.107796885 -0.018193986
0.12054929 0.10262488 0.0006514097 -0.13341512 0.0120899845 -0.074657194 0.043435007 -0.09778012
0.002727865 0.09952358 0.0138695035 0.060111474 0.034954697 -0.058007203 -0.03607733 -0.20690128
