saved_models/model90c.pth (torch, 38464 bytes, 11 tensors)

linear_relu_stack.0.weight f4 [7]
0	0x3f84ae7a	1.0365746
1	0x3f836ecd	1.0268189
2	0x3f7b354f	0.9812822
3	0x3f79533f	0.9739265
4	0x3f69da5a	0.91348803
5	0x3f67e275	0.9057992
6	0x3f78907e	0.9709548

linear_relu_stack.0.bias f4 [7]
0	0xbbc8e58d	-0.00613088
1	0xbac31604	-0.001488388
2	0x3ca52b81	0.020162346
3	0x3cf8939c	0.030343823
4	0xba362662	-0.00069484685
5	0xbcc1fa9d	-0.023679072
6	0x3bc78d12	0.006089815

linear_relu_stack.0.running_mean f4 [7]
0	0x40cb8db5	6.361048
1	0x411a3400	9.637695
2	0x43280a92	168.04129
3	0x40cff91a	6.499158
4	0x404f122b	3.235484
5	0x3f60021a	0.87503207
6	0x4054e8d6	3.3267112

linear_relu_stack.0.running_var f4 [7]
0	0x428c3c3b	70.11764
1	0x40bf88ab	5.985433
2	0x46c8b3bc	25689.867
3	0x42f9cba2	124.89772
4	0x4202fc05	32.746113
5	0x40e7d48c	7.2446957
6	0x40a66fd9	5.2011533

linear_relu_stack.1.weight f4 [28, 7]
0	0xbdc694c8	-0.096963465
1	0x3ec4f9cd	0.38471833
2	0xbe8752ce	-0.26430362
3	0xbd4d5eb3	-0.05013914
4	0x3eab8ab6	0.33504266
5	0x3e18fdef	0.14940618
6	0x3cb2dc4b	0.02183356
7	0xbe708ab9	-0.23490418
8	0x3eafd30b	0.343407
9	0x3e6de759	0.23232783
10	0xbda3a3f6	-0.079902574
11	0x3ca6cac2	0.020360354
12	0xbe4d2d10	-0.20036721
13	0xbe8244ce	-0.2544312
14	0xbde3259c	-0.11091158
15	0xbeb72df8	-0.3577726
16	0x3e3cf9f1	0.1845472
17	0x3e88e9c1	0.2674084
18	0x3cf48e93	0.029853141
19	0xbc86dc05	-0.016462335
20	0x3e9d2b15	0.3069693
21	0xbece7d1e	-0.40329832
22	0x3e4e0e30	0.201226
23	0x3eaf6c70	0.3426242
24	0x3e0da502	0.13832477
25	0x3d66c7e0	0.05634296
26	0x3e33e866	0.17569122
27	0xbdd3cb2f	-0.103414886
28	0xbe7398cf	-0.2378876
29	0x3e8d0664	0.27543938
30	0xbe6eccc1	-0.23320295
31	0xbea218ca	-0.31659538
32	0xbe42b5fc	-0.19014734
33	0x3ea7c132	0.32764584
34	0x3ea0de6b	0.3141969
35	0xbeb97f29	-0.36229828
36	0xbdaffb53	-0.08592858
37	0x3eaeed5d	0.3416547
38	0xbe3c34d3	-0.18379526
39	0xbe95633d	-0.29177275
40	0x3ea90743	0.33013353
41	0xbe29fb61	-0.165998
42	0xbe8d0342	-0.27541548
43	0xbe91a558	-0.2844646
44	0xbdc3284e	-0.09529172
45	0xbe6e2ce6	-0.23259315
46	0xbe94d31d	-0.29067317
47	0xbeadd2eb	-0.3394998
48	0xbd06802d	-0.03283708
49	0xbe52bf56	-0.20580801
50	0x3ebb3857	0.3656642
51	0xbe832349	-0.25612858
52	0x3dc452a6	0.095860764
53	0x3df43acf	0.11925279
54	0xbe8ed3b2	-0.27895886
55	0x3cf73431	0.030176254
56	0xbe824da2	-0.25449854
57	0xbe789272	-0.24274614
58	0xbe92c4a4	-0.2866565
59	0xbdc45378	-0.09586233
60	0xbe7f336b	-0.24921958
61	0x3e7df190	0.2479918
62	0x3e606e57	0.21917091
63	0x3e134c76	0.14384636
64	0xbd6df2eb	-0.058092993
65	0xbe7f6b0e	-0.24943182
66	0x3eb5e95a	0.35529596
67	0x3e8cf7be	0.27532762
68	0x3e9e7ed6	0.30956143
69	0xbde19128	-0.110140145
70	0xbd6be64c	-0.057592675
71	0x3e4af79d	0.1982102
72	0x3c45d0d0	0.012073711
73	0x3e00fe2d	0.1259696
74	0x3c1a70cc	0.009426307
75	0x3ea6cbb1	0.3257728
76	0xbe093506	-0.13399133
77	0x3d3874f3	0.045033406
78	0xbde56ba4	-0.112021714
79	0xbe22a3df	-0.15882824
80	0x3e6faf56	0.23406729
81	0xbdc0e5da	-0.09418841
82	0x3cb116c2	0.021617297
83	0xbd649e8f	-0.055815276
84	0xbe448eb5	-0.19195063
85	0xbea26e89	-0.31724957
86	0xbe3c4686	-0.18386278
87	0x3e8f257a	0.2795828
88	0x3e058deb	0.13042419
89	0xbd984d45	-0.07436613
90	0x3e721b44	0.23643214
91	0x3dbc1c21	0.09185053
92	0x3d08b7a6	0.033378266
93	0x3e8d2051	0.27563718
94	0xbe49a088	-0.19690144
95	0xbe967a76	-0.29390305
96	0xbe82ca2f	-0.2554488
97	0xbe6fa428	-0.23402464
98	0xbe9ed2ca	-0.31020194
99	0x3d4e21fd	0.050325383
100	0xbda7ec1b	-0.081993304
101	0xbea00c1a	-0.31259233
102	0x3e7f5e26	0.24938259
103	0xbdac09bf	-0.084002964
104	0xbea8f182	-0.32996756
105	0xbe9b0a11	-0.30281118
106	0xbc50e67c	-0.012750264
107	0x3e6bc851	0.23025633
108	0x3d81d9c4	0.063403636
109	0xbe66c3e4	-0.22535664
110	0xbd0dd576	-0.0346274
111	0xbe10f6af	-0.14156602
112	0x3c70d880	0.014700055
113	0xbeb4f7e5	-0.3534538
114	0x3d1d9f74	0.038482144
115	0x3eb3b565	0.3509933
116	0xbea41594	-0.32047713
117	0xbdfdbad8	-0.12389153
118	0x3e92c1a3	0.28663358
119	0x3e0da9ad	0.13834257
120	0xbeaa82af	-0.3330283
121	0x3d93c99a	0.07216187
122	0x3ea3c0f7	0.31983158
123	0xbd90c393	-0.07068553
124	0x3d9d5173	0.07681551
125	0xbdffb65a	-0.12485953
126	0x3e3a2175	0.18176825
127	0xbe234ecf	-0.15948032
128	0xbe9f9f8c	-0.31176412
129	0x3cab514a	0.020912785
130	0xbe6ee3e1	-0.23329116
131	0xbe9a4f7b	-0.30138764
132	0xbe5536bb	-0.2082166
133	0x3e9aa19a	0.30201417
134	0xbc242b23	-0.01002005
135	0xbbbe23d4	-0.005802611
136	0x3e7d5a72	0.24741533
137	0x3e63f79f	0.22262429
138	0x3e97f5bf	0.29679677
139	0xbca97633	-0.020686245
140	0x3d2cc237	0.042177405
141	0x3e9cc5a7	0.30619547
142	0xbdcf480b	-0.10121163
143	0x3deb7ead	0.11498771
144	0xbc6bfb33	-0.014403152
145	0x3eab39f3	0.3344265
146	0xbe900762	-0.28130633
147	0xbd705856	-0.058677994
148	0x3e853969	0.26020363
149	0x3bd1f948	0.0064078905
150	0xbd7ee5ce	-0.062230878
151	0xbdb34333	-0.087530516
152	0xbe086e6c	-0.13323373
153	0xbd16d879	-0.03682754
154	0x3c80785f	0.015682397
155	0xbeba5f69	-0.36400917
156	0xbdc964dd	-0.09833691
157	0x3e397a9c	0.18113178
158	0x3e5f3e33	0.21801071
159	0xbe539837	-0.20663534
160	0x3c86c867	0.016452981
161	0x3e029819	0.12753333
162	0xbeac0591	-0.33597997
163	0x3e2facd7	0.17155777
164	0x3dec1878	0.115281045
165	0xbdbe802a	-0.09301789
166	0xbe9351c8	-0.28773332
167	0x3e542df5	0.20720656
168	0x3eaf3466	0.34219664
169	0x3e14cee9	0.14532055
170	0xbebf7040	-0.37390327
171	0xbdd9e942	-0.106401935
172	0x3e8cf7f4	0.27532923
173	0xbce9005e	-0.028442558
174	0x3df33337	0.11875003
175	0x3d203f08	0.03912261
176	0x3ea476ca	0.3212188
177	0xbe47b9aa	-0.19504419
178	0x3ea91307	0.3302233
179	0x3d418f6b	0.047255915
180	0xbe0d8cbc	-0.13823217
181	0x3e22f23f	0.15912722
182	0xbe0518e3	-0.12997775
183	0x3da009be	0.07814358
184	0x3e57b15e	0.21063754
185	0xbe322a00	-0.17398834
186	0x3c8c24f7	0.01710747
187	0x3cf14fc4	0.02945698
188	0xbe99eebf	-0.3006496
189	0x3eb08116	0.34473485
190	0x3e54b2e1	0.20771362
191	0x3dabee4a	0.083950594
192	0x3e3960be	0.1810331
193	0x3e02eac4	0.12784868
194	0x3e6f827a	0.23389617
195	0x3def47a6	0.11683588

linear_relu_stack.1.bias f4 [28]
0	0xbe8a9dff	-0.27073666
1	0xbe36b25a	-0.17841473
2	0x3dc759fa	0.097339585
3	0xbe65cb77	-0.22440897
4	0x3e531c63	0.20616297
5	0x3e939a38	0.28828597
6	0x3e6cb187	0.23114596
7	0xbe7244dd	-0.23659082
8	0x3e7e1159	0.24811305
9	0x3dde65c5	0.10859255
10	0x3e8a6350	0.27028894
11	0x3e4acabb	0.19803898
12	0xbd1c7c66	-0.038204573
13	0x3e9d991b	0.30780873
14	0x3df36e07	0.118862204
15	0xbdb87b69	-0.090079136
16	0xbd0aaedb	-0.03385816
17	0xbd1a7b7a	-0.037715413
18	0xbe6eeeef	-0.23333333
19	0x3df0bdb3	0.11754932
20	0xbea3e335	-0.32009283
21	0xbea1b0bf	-0.3158016
22	0xbd621f82	-0.05520583
23	0xbdcac417	-0.099006824
24	0x3ddf1c59	0.10894079
25	0xbe869888	-0.26288247
26	0xbb9eb949	-0.004843865
27	0x3e03f8d1	0.12887885

linear_relu_stack.4.weight f4 [56, 28]
0	0xbdaab122	-0.08334567
1	0xbe0ae1ee	-0.13562748
2	0x3d12995a	0.03579078
3	0x3d406fc6	0.046981595
4	0x3e08730a	0.13325134
5	0xbdceb661	-0.1009338
6	0x3d74b80f	0.059745844
7	0x3dc4b0be	0.096040234
8	0xbe38eb08	-0.18058407
9	0xbe2c9557	-0.16853844
10	0xbd3aca85	-0.045603294
11	0xbd47b9f5	-0.048761327
12	0xbcda48ea	-0.026646096
13	0x3df66f57	0.12032955
14	0xbdfb8beb	-0.122825466
15	0x3d2f4ebf	0.042799708
16	0x3c878565	0.0165431
17	0xbda25d2c	-0.079279274
18	0xbcc17ce2	-0.02361912
19	0xbd056696	-0.032568537
20	0xbbaee9ee	-0.005337945
21	0x3e1e31be	0.15448663
22	0xbe1ac325	-0.15113504
23	0xbe1799d3	-0.14804773
24	0xbe2532e5	-0.16132696
25	0x3df49432	0.119423285
26	0xbd787fe2	-0.060668834
27	0xbe2d5f69	-0.16930927
28	0xbd22da54	-0.039758995
29	0xbd0b57bf	-0.034019228
30	0x3e14ef23	0.14544348
31	0xbe2f15ae	-0.17098114
32	0x3ddf8319	0.10913677
33	0x3d16e1a7	0.036836293
34	0xbdac9cf4	-0.08428374
35	0x3d967d64	0.07348135
36	0xbd1f456f	-0.038884576
37	0xbd972d57	-0.07381695
38	0xbb66b48c	-0.003520283
39	0x3db75d9f	0.08953404
40	0xbe04c209	-0.12964644
41	0xbd5cf635	-0.05394574
42	0x3db48359	0.08814115
43	0xbcf626bd	-0.030047769
44	0xbd47812b	-0.04870717
45	0xbd98627e	-0.07440661
46	0x3e297bca	0.16551128
47	0xbe03d05d	-0.12872453
48	0xbdfd3af2	-0.123647586
49	0xbc866c5b	-0.01640909
50	0x3e2174a8	0.15767157
51	0x3d5ad345	0.05342414
52	0xbd3785d6	-0.04480537
53	0x3d773546	0.06035354
54	0x3e14168b	0.14461724
55	0x3e274df6	0.16338333
56	0xbcee9b17	-0.029126687
57	0x3cabc095	0.020965854
58	0xbe30911a	-0.17242852
59	0x3d09ed17	0.033673372
60	0xbc0eac8e	-0.008708132
61	0x3e1b1823	0.15145926
62	0x3bee51e7	0.007272947
63	0xbca0f73a	-0.019649137
64	0x3d904acc	0.07045516
65	0x3d9881f5	0.07446662
66	0xbd8892db	-0.066686355
67	0x3bc5c5e8	0.006035555
68	0xbd6a7629	-0.057241593
69	0xbd257bcc	-0.040401265
70	0x3cbf7d62	0.023375217
71	0x3d93837d	0.07202814
72	0xbd39127e	-0.04518365
73	0xbdec4742	-0.11537029
74	0xbe164370	-0.14674163
75	0xbe1fca9a	-0.1560463
76	0x3d0a3177	0.03373858
77	0x3df6d3fd	0.12052152
78	0xbdd0cb21	-0.10194994
79	0xbddf1f5a	-0.10894652
80	0x3d26f7f7	0.04076382
81	0xbd4f91c1	-0.05067611
82	0xbd063f85	-0.03277542
83	0xbd593f83	-0.053039085
84	0xbdd803f6	-0.105476305
85	0xbdd358e4	-0.10319689
86	0xbb855a08	-0.0040695705
87	0xbe1b8032	-0.15185621
88	0xbdbfba71	-0.09361733
89	0x3d2f8fb1	0.042861644
90	0x3d6c9326	0.05775752
91	0x3dbe737f	0.09299373
92	0x3d682a11	0.056680743
93	0xbcda487d	-0.026645893
94	0xbdc97f95	-0.098387875
95	0x3dc656bb	0.09684511
96	0x3ca9dd4f	0.020735411
97	0x3df172f3	0.11789503
98	0xbe1f8cab	-0.15581004
99	0x3db3e43e	0.08783768
100	0x3d0a89b2	0.033822723
101	0xbdba7182	-0.09103681
102	0x3da2bbf5	0.07946006
103	0x3cd88f02	0.026435379
104	0xbe0490ce	-0.12945864
105	0xbdd53ad6	-0.10411613
106	0xbe34aa77	-0.17643152
107	0xbe3c757a	-0.18404189
108	0x3e0d4b3e	0.13798234
109	0xbdf6f14e	-0.12057744
110	0x3daba2a3	0.0838063
111	0x3cdf64be	0.027269717
112	0x3d7d7c27	0.06188598
113	0x3cef7260	0.029229343
114	0x3e47691c	0.1947369
115	0xbe254e8c	-0.16143245
116	0x3da56946	0.0807672
117	0xbe04a621	-0.12953998
118	0xbd7a02b1	-0.061037723
119	0xbdef30d3	-0.11679234
120	0x3e1366ae	0.14394638
121	0x3e11c669	0.14235844
122	0xbd13f7a8	-0.036124855
123	0x3d692914	0.05692394
124	0x3d3edd30	0.04659766
125	0x3de82c48	0.11336571
126	0x3b91ab60	0.0044454783
127	0xbe6725eb	-0.22573058
128	0x3e33e289	0.17566885
129	0xbdfa2afb	-0.12215229
130	0x3e382ea6	0.17986545
131	0x3d1e6ad3	0.038676094
132	0xbe232841	-0.15933324
133	0x3e0662ba	0.13123599
134	0xbdea327c	-0.114354104
135	0x3e127cb6	0.14305386
136	0xbd50d8fe	-0.05098819
137	0x3e096693	0.13418035
138	0xbd87bcf7	-0.06627839
139	0x3d894563	0.067026876
140	0xbc7645f7	-0.015031329
141	0xbe422a2c	-0.189614
142	0x3def7d50	0.11693823
143	0xbd886d51	-0.066614754
144	0xbb6687a0	-0.0035176054
145	0xbc25b01f	-0.010112791
146	0xbd4f35f2	-0.050588556
147	0xbe02fa51	-0.127908
148	0x3e37fc91	0.1796744
149	0x3e3a7c66	0.18211517
150	0x3b56ca8f	0.0032774543
151	0x3d185a20	0.037195325
152	0x3d5d2a5f	0.053995486
153	0xbdc30524	-0.09522465
154	0x3cfa2660	0.030535877
155	0xbdecf2ce	-0.11569749
156	0xbe03d10a	-0.12872711
157	0x3e0879fe	0.13327786
158	0x3df346fb	0.11878773
159	0xbb50a50b	-0.0031836655
160	0x3e0cbb8d	0.1374342
161	0xbd1dfe1c	-0.038572416
162	0x3e48fd67	0.19627915
163	0x3defb01b	0.11703511
164	0x3df207ae	0.11817871
165	0x3c3e9dff	0.011634349
166	0x3dabd2ba	0.08389802
167	0xbdee56e2	-0.11637665
168	0xbd299343	-0.041400205
169	0xbe4b0ea1	-0.19829799
170	0x3df5e0bd	0.12005756
171	0xbe2b6a9e	-0.1673989
172	0xbd7678c1	-0.060173754
173	0xbe19975f	-0.1499915
174	0x3dce1d8a	0.10064228
175	0xbe02fc39	-0.12791528
176	0xbe34fdb3	-0.17674904
177	0x3d4e18af	0.05031651
178	0x3c88a3f7	0.016679747
179	0xbd0da8f5	-0.034584958
180	0xbdd0bdd1	-0.101924546
181	0x3d3b86f1	0.045782987
182	0x3dd03435	0.10166208
183	0xbd2157cf	-0.03939038
184	0x3e2a954e	0.16658518
185	0xbe134d08	-0.14384854
186	0xbd4a4343	-0.049380552
187	0x3c6fe461	0.014641852
188	0x3d12bb05	0.035822887
189	0x3e097834	0.1342476
190	0x3e4aafee	0.19793674
191	0xbd631ed6	-0.05544933
192	0x3daf92d1	0.08572925
193	0x3d9b81bc	0.07593104
194	0x3d82c039	0.0638432
195	0x3da2ee82	0.07955648
196	0x3d1cddeb	0.038297575
197	0x3e0393fd	0.12849422
198	0x3da9cde1	0.082912214
199	0xbd089913	-0.033349108
200	0xbdf05786	-0.11735444
201	0x3d817026	0.06320219
202	0x3d9eab12	0.07747473
203	0x3d7dc927	0.061959412
204	0xbd4b506d	-0.049637247
205	0xbdb35dff	-0.08758163
206	0x3d7e9ba5	0.062160153
207	0x3db3dee2	0.08782746
208	0x3e20d296	0.15705332
209	0xbddaac90	-0.10677445
210	0x3e26c7b1	0.16287114
211	0x3e430f66	0.19048843
212	0x3ad1e5b3	0.001601389
213	0x3e03c106	0.12866601
214	0x3e0c550d	0.1370432
215	0xbe1b2deb	-0.15154235
216	0xbd1523f9	-0.03641126
217	0x3d970def	0.073757045
218	0xbd058185	-0.032594223
219	0xbdd2e852	-0.10298218
220	0xbceac795	-0.028659621
221	0xbdd5ba6e	-0.10435949
222	0x3d025c2a	0.031826176
223	0xbcb61b27	-0.022229744
224	0xba82cbe6	-0.0009978979
225	0x3c905858	0.01762025
226	0xbd54a5bf	-0.05191588
227	0xbe3b83ea	-0.1831204
228	0x3bb98153	0.0056611686
229	0xbdb933e6	-0.09043102
230	0x3d0516f4	0.032492593
231	0x3c3064ce	0.010766221
232	0x3cc6756e	0.024225917
233	0x3e0bc990	0.13651109
234	0xbe31e973	-0.1737421
235	0x3dd30f98	0.10305709
236	0xbd8acb85	-0.067770995
237	0x3d9694d9	0.07352609
238	0xbe4f0663	-0.2021728
239	0xbe31a67a	-0.17348662
240	0x3e1e991e	0.15488097
241	0x3dbf8e53	0.09353318
242	0x3dad1f7b	0.0845327
243	0x3dba394c	0.0909296
244	0x3c961908	0.018322483
245	0xbdc4581f	-0.0958712
246	0xbc489e8a	-0.01224483
247	0x3da1a09f	0.07891964
248	0xbd976dac	-0.07393965
249	0x3df74b64	0.120749265
250	0xbe0c1198	-0.13678586
251	0x3db12b43	0.0865083
252	0x3a905f02	0.0011014643
253	0xbe21331c	-0.15742153
254	0x3e1ed3c1	0.15510465
255	0xbd80ff1b	-0.062986575

linear_relu_stack.4.bias f4 [56]
0	0xbc00e42e	-0.007866902
1	0xbe1724ab	-0.14760081
2	0x3e162b66	0.14664993
3	0x3e2a91b5	0.16657145
4	0xbba2d38f	-0.0049690674
5	0xbda4d290	-0.08047974
6	0x3b4091b5	0.0029383723
7	0x3da0f8b4	0.07859936
8	0x3e2b538a	0.16731086
9	0xbd247623	-0.040151726
10	0xbe093b22	-0.13401464
11	0xbdb177dc	-0.086654395
12	0x3dff7862	0.12474133
13	0x3dcce59e	0.100047335
14	0x3cbb6d3a	0.022879232
15	0x3e28b7b9	0.16476335
16	0x3df2d332	0.118566886
17	0xbdc361ac	-0.09540114
18	0x3e18e759	0.14932002
19	0x3e09af2f	0.13445733
20	0xbe071392	-0.13191059
21	0xbdb7b2d2	-0.08969654
22	0x3def4661	0.116833456
23	0xbd31179c	-0.043235406
24	0xbdab86a6	-0.083752915
25	0x3e0e2483	0.13881116
26	0xbe0b7414	-0.13618499
27	0xbde6994a	-0.11259706
28	0xbd8616ef	-0.06547343
29	0xbd9b96b7	-0.07597106
30	0xbd662366	-0.056186102
31	0xbdcc0371	-0.09961594
32	0xbd83a5b2	-0.06428088
33	0x3da87706	0.08225827
34	0xbdc809b9	-0.097674794
35	0x3d990a01	0.07472611
36	0x3d91e31d	0.071233965
37	0xbda4d99a	-0.08049317
38	0x3dfaf555	0.122538246
39	0xbdd9d240	-0.10635805
40	0xbc656f90	-0.014003649
41	0x3e23d25c	0.15998214
42	0xbcefecf6	-0.029287796
43	0xbbf16b15	-0.0073675015
44	0xbd9e4b68	-0.07729226
45	0x3dcfc106	0.10144238
46	0x3bdec513	0.0067983954
47	0x3dd06b1f	0.10176682
48	0xbe184273	-0.14869098
49	0x3cdd56c4	0.027018912
50	0x3da6f69a	0.08152504
51	0xbe1ce404	-0.15321356
52	0x3d079050	0.03309661
53	0x3c94c61a	0.018160868
54	0xbd499d45	-0.04922225
55	0xbdddf7b2	-0.1083826

linear_relu_stack.7.weight f4 [112, 56]
0	0x3d1c739a	0.038196184
1	0x3d53f91e	0.05175125
2	0xbd7b13de	-0.061298244
3	0x3dc9ab72	0.09847154
4	0xbd80f4ec	-0.06296715
5	0xbe077cf5	-0.13231261
6	0xbb857539	-0.004072812
7	0x3df3957f	0.118937485
8	0xbd431297	-0.04762515
9	0x3da2ee2b	0.07955583
10	0x3c2b06a9	0.0104386
11	0xbd6b32ad	-0.057421375
12	0x3cbceac3	0.023061162
13	0xbde4ae9f	-0.11166119
14	0xbd2c0db0	-0.04200524
15	0xbdb9e31f	-0.09076523
16	0x3d520fa7	0.05128446
17	0x3d80ea24	0.06294659
18	0xbde4c37d	-0.11170099
19	0xbd7a36ba	-0.061087348
20	0xbe014052	-0.12622193
21	0xbd15fcc6	-0.036618017
22	0xbbbc432d	-0.0057453127
23	0x3e1c2381	0.15247919
24	0xbd80cb47	-0.06288772
25	0xbd00a194	-0.031404093
26	0x3dcf0c82	0.101098076
27	0x3dc5dfeb	0.096618496
28	0x3de295cb	0.11063727
29	0xbdbe9484	-0.09305671
30	0xbd93e61d	-0.07221625
31	0x3d4ff4b0	0.05077046
32	0x3df03a8d	0.11729918
33	0x3e1dcf25	0.1541105
34	0xbba2dc3b	-0.004970101
35	0x3d90ff8e	0.07079993
36	0x3c5866de	0.013208119
37	0x3d2ccff6	0.042190515
38	0xbd2492fc	-0.040179238
39	0x3c36dcc1	0.01116103
40	0xbc880e6e	-0.016608443
41	0x3d50ccfd	0.050976742
42	0xbd3c4407	-0.045963313
43	0xbd9e5313	-0.07730689
44	0x3d52df5c	0.051482543
45	0x3b2db6dd	0.00265067
46	0xbdc84afd	-0.09779928
47	0x3e1c6738	0.1527375
48	0x3cdc8265	0.026917646
49	0xbcd9309b	-0.026512435
50	0xbda9cfd0	-0.0829159
51	0x3cb12a77	0.021626694
52	0xbd1a157f	-0.037618157
53	0xbcf259ff	-0.02958393
54	0xbdb844b2	-0.089974776
55	0x3caac110	0.020844012
56	0x3cbd190b	0.02308323
57	0xbd5c61ab	-0.05380408
58	0xbcf9535f	-0.030435262
59	0xbda8b04d	-0.08236752
60	0x3db50568	0.08838922
61	0x3dd938cd	0.10606537
62	0xbcab7355	-0.020929018
63	0xbda1c227	-0.0789836
64	0x3c5670cc	0.013088416
65	0xbd98d8f7	-0.07463258
66	0xbd9ea8c0	-0.0774703
67	0xbcfc51ed	-0.030800784
68	0xbde65bd0	-0.112479806
69	0x3d22c286	0.039736293
70	0x3d17d135	0.03706475
71	0x3d749cff	0.059720036
72	0x3c575873	0.0131436465
73	0xbd1369b6	-0.035989486
74	0x3dfb0c63	0.12258222
75	0x3dc9334e	0.09824239
76	0x3d818b5e	0.0632541
77	0x3d8e8fee	0.06961046
78	0x3c29fd57	0.010375342
79	0x3db550dd	0.08853314
80	0x3d4cefe8	0.05003348
81	0xbd44405f	-0.04791295
82	0x3d84b421	0.06479669
83	0xbb01fd01	-0.001983464
84	0x3d8ab783	0.06773283
85	0x3da4b378	0.080420434
86	0x3de56a24	0.11201885
87	0xbcc21ff8	-0.023696885
88	0x3d8b2fe1	0.067962416
89	0xbe1f1ded	-0.1553876
90	0xbd94d663	-0.072674535
91	0xbcff1266	-0.031136703
92	0x3d3d6fa4	0.046249047
93	0xbb56329a	-0.003268397
94	0xbdfc7e99	-0.12328834
95	0x3da65051	0.08120788
96	0xbd805489	-0.06266124
97	0xbdb634fb	-0.08896824
98	0xbc4725c0	-0.012154996
99	0x3dfe6c43	0.12422993
100	0x3dee20b8	0.11627334
101	0x3cf6f808	0.030147567
102	0xbd90ec75	-0.070763506
103	0xbe09179a	-0.1338791
104	0x3da9e5a6	0.08295755
105	0xbd7a790e	-0.061150603
106	0x3e086067	0.13318025
107	0xbd260039	-0.040527556
108	0xbde592c2	-0.112096325
109	0xbdbf48c5	-0.093400516
110	0xbdd7c3b7	-0.105353765
111	0xbdaf9379	-0.0857305
112	0x3d21db50	0.039515793
113	0xbce5ff7e	-0.02807593
114	0xbd8c1d44	-0.068415195
115	0x3da9490f	0.08265888
116	0xbe0b422e	-0.13599464
117	0xbce0093f	-0.027348159
118	0x3c2a3423	0.010388407
119	0x3db898d3	0.09013524
120	0xbe0c7411	-0.13716151
121	0xbd144bfd	-0.03620528
122	0x3d39a866	0.045326613
123	0xbcb12c6b	-0.021627625
124	0x3e2b9d33	0.16759185
125	0xbda20d2c	-0.079126686
126	0xbc2955e2	-0.010335417
127	0x3da35216	0.07974641
128	0x3cf3660e	0.02971175
129	0x3d571347	0.05250862
130	0x3c93a967	0.018025113
131	0x3c8e9e49	0.01740946
132	0x3d32b528	0.043629795
133	0xbdeec9da	-0.11659594
134	0x3dc59502	0.096475616
135	0xbd9d8be9	-0.07692701
136	0xbdd81af2	-0.105520144
137	0x3d103bd7	0.035213318
138	0xbd8374ad	-0.064187385
139	0x3d3ba006	0.045806907
140	0xba4344c4	-0.00074489065
141	0x3dab8ef7	0.08376878
142	0x3d4530e6	0.048142336
143	0xbe0a4516	-0.13502917
144	0x3d09189a	0.033470728
145	0x3e073d98	0.1320709
146	0x3d7baf11	0.061446253
147	0x3da782d0	0.081792474
148	0x3e291610	0.16512322
149	0x3e32480c	0.17410296
150	0xbd911cd9	-0.070855804
151	0x3dbff125	0.093721665
152	0xbd375cc9	-0.04476622
153	0xbbe12cae	-0.0068717813
154	0x3e2f13b0	0.17097354
155	0xbcbef438	-0.023309812
156	0xbdd3c673	-0.103405856
157	0x3bf89831	0.007586502
158	0x3c60a701	0.013711692
159	0xbd653cf2	-0.055966325
160	0xbdbd2f0b	-0.09237488
161	0x3e0db715	0.13839372
162	0x3ca60ba0	0.020269215
163	0xbd7615dd	-0.060079444
164	0xbd830d39	-0.063990064
165	0x3d69d462	0.05708731
166	0xbd207181	-0.039170746
167	0xbd14e878	-0.036354512
168	0xbd6104e2	-0.054936297
169	0x3d99fc6a	0.07518847
170	0x3d7872dd	0.060656417
171	0x3c676faa	0.014125744
172	0x3e02bd41	0.12767507
173	0xbd041ce2	-0.032254107
174	0xbd3a63a4	-0.04550518
175	0x3d7c1e3f	0.061552282
176	0x3ca9bf88	0.020721212
177	0xbda4eb92	-0.08052744
178	0x3b976f3f	0.004621416
179	0x3da9bcc8	0.0828796
180	0x3d00a475	0.03140684
181	0xbca24c08	-0.019811645
182	0xbdd3e0bd	-0.103456
183	0x3d61b184	0.055100933
184	0x3de90ff5	0.11379997
185	0xbd1e145a	-0.038593628
186	0x3dcb3915	0.09922997
187	0x3dedec8c	0.11617383
188	0xbcb3ccb9	-0.021948205
189	0xbd95dedb	-0.07317897
190	0x3cd252d7	0.025674267
191	0xbb1e6f71	-0.002417531
192	0xbc1367cb	-0.008996914
193	0xbe04cb91	-0.1296828
194	0xbdbdc99b	-0.09266969
195	0xbdad1b1b	-0.084524356
196	0x3c4a54bd	0.012349305
197	0x3d8eab7e	0.06966303
198	0xbd1c0215	-0.038087923
199	0x3e086e5d	0.1332335
200	0x3c518e24	0.012790237
201	0xbe1c1cdc	-0.15245384
202	0xbd6d043e	-0.057865374
203	0xbd16cce7	-0.036816504
204	0x3d199699	0.037497137
205	0x3d99b067	0.07504349
206	0xbd56f0b7	-0.052475657
207	0xbb579724	-0.0032896483
208	0x3df9f6b7	0.1220526
209	0x3d8edd07	0.06975751
210	0xbe1d7916	-0.15378222
211	0x3d643b9f	0.05572092
212	0xbdac301e	-0.08407615
213	0xbcdb990f	-0.026806382
214	0xbda69328	-0.081335366
215	0xbdfebaba	-0.12437959
216	0x3daea230	0.085270286
217	0xbe0c740d	-0.13716145
218	0xbd44c49d	-0.048039068
219	0x3d9bbdf7	0.07604592
220	0x3c6cf766	0.014463281
221	0xbcc619e2	-0.024182264
222	0xbd6584c8	-0.056034833
223	0x3d0cd4aa	0.0343825
224	0x3c08eb20	0.008356839
225	0x3d50ec78	0.051006764
226	0x3d8ab619	0.067730136
227	0xbcefa080	-0.029251337
228	0x3cb4eeaf	0.02208647
229	0xbe19642d	-0.1497962
230	0xbdc36588	-0.0954085
231	0xbd6ce0b7	-0.057831492
232	0x3d967034	0.0734562
233	0x3dcba68b	0.09943875
234	0xbd92af38	-0.071623266
235	0x3e047141	0.12933828
236	0xbd18623b	-0.037203055
237	0xbb9665be	-0.0045897653
238	0x3d82a486	0.063790366
239	0xbdeff93a	-0.11717458
240	0x3db2c26a	0.08728488
241	0xbdb0cf99	-0.08633346
242	0x3db6b67f	0.08921527
243	0xbcddd753	-0.027080214
244	0xbdb0ed1a	-0.086389735
245	0xbc8892bc	-0.01667153
246	0x3deaaa7d	0.11458299
247	0x3db286cb	0.08717116
248	0xbdf1625b	-0.11786338
249	0xbd8fa977	-0.07014745
250	0xbd594669	-0.053045664
251	0xbd15e9b9	-0.03659985
252	0x3e0c8964	0.13724285
253	0xbd393dbe	-0.045224898
254	0x3db51abb	0.08842989
255	0x3cd6678c	0.026172422

linear_relu_stack.7.bias f4 [112]
0	0x3d924680	0.07142353
1	0xbd69e37d	-0.057101715
2	0xbd8634da	-0.065530494
3	0xbdaaa2d0	-0.08331835
4	0x3bdccedc	0.0067385267
5	0xbd157d86	-0.03649666
6	0x3c9ec635	0.019381622
7	0xbd93a17c	-0.07208535
8	0xbca97bb3	-0.020688867
9	0x3d01c30d	0.031680156
10	0xbd20835f	-0.039187785
11	0x3db5e381	0.088812836
12	0x3c02c641	0.007981838
13	0xbd6dcc6e	-0.058056287
14	0xbd8b72d1	-0.06809009
15	0x3db8da05	0.09025959
16	0xbd5026ca	-0.050818242
17	0xbdadf38b	-0.08493718
18	0x3d376f2c	0.044783756
19	0x3d435117	0.047684755
20	0xbc36d179	-0.011158341
21	0x3de7a199	0.11310119
22	0xbcd49abe	-0.025952693
23	0x3c979642	0.018504266
24	0xbddb2b98	-0.10701674
25	0xbdc6fedb	-0.097165786
26	0x3baaf55d	0.005217238
27	0xbd02266e	-0.03177493
28	0xbccb244a	-0.024797577
29	0xbd4bb05d	-0.04972874
30	0xbddfe814	-0.10932937
31	0xbdf39064	-0.11892775
32	0xbdd90887	-0.105973296
33	0xbd85e077	-0.06536954
34	0xbdf0cb8b	-0.11757573
35	0xbdc7436f	-0.09729659
36	0x3d7b14ef	0.06129926
37	0x3d302a03	0.043008815
38	0x3c81dd23	0.015852517
39	0xbde0ab62	-0.10970189
40	0xbd67b3c6	-0.05656793
41	0x3d7c8926	0.061654232
42	0x3d8b289b	0.06794854
43	0x3dc427b2	0.09577884
44	0x3beadc9e	0.007167413
45	0x3d2e3bfc	0.042537674
46	0xbc14ebd1	-0.009089426
47	0xbd658de3	-0.056043517
48	0x3d9db272	0.07700051
49	0x3d148bf5	0.036266286
50	0xbd922f29	-0.07137901
51	0x3d4ef6dd	0.050528396
52	0xbc4ebf02	-0.012618782
53	0x3d600a06	0.05469706
54	0xbdb86c03	-0.090049766
55	0x3d695802	0.056968696
56	0x3e0012bc	0.12507147
57	0x3e00d9bb	0.12583058
58	0x3d7c0dd3	0.06153662
59	0x3dfca922	0.12336947
60	0x3d66fbdf	0.056392547
61	0xbd8795d5	-0.06620375
62	0x3de95c43	0.11394551
63	0x3d0fc40c	0.035099074
64	0xbdced559	-0.100992866
65	0xbdc06034	-0.09393349
66	0xbc9fa0bf	-0.01948583
67	0x3da7aa93	0.08186831
68	0xbb4c6b83	-0.0031192012
69	0xbc93cb93	-0.018041408
70	0x3d9e9299	0.07742805
71	0x3c6e6a5e	0.014551727
72	0x3d7ecc8a	0.062206782
73	0xbafa266a	-0.0019084935
74	0xbd76f570	-0.06029266
75	0x3d93b0a0	0.07211423
76	0x3df5827b	0.11987778
77	0x3cb392bc	0.021920554
78	0xbde63abd	-0.11241672
79	0x3c2c8e08	0.01053191
80	0x3d86acab	0.065759026
81	0x3cadb3ba	0.021203864
82	0x3d9480d3	0.07251134
83	0xbd94f49d	-0.07273219
84	0x3d96a0e8	0.07354909
85	0xbdc3d6b7	-0.09562438
86	0xbd832579	-0.06403632
87	0xbdd91642	-0.105999485
88	0x3d815c4c	0.06316432
89	0xbd87b000	-0.06625366
90	0x3da8ddda	0.0824544
91	0xbd4416e9	-0.04787341
92	0x3c5cc92b	0.013475697
93	0x3a875973	0.001032634
94	0x3dc68f68	0.09695321
95	0x3dbd1aa8	0.092336
96	0xbdaade2c	-0.08343157
97	0x3db25fd9	0.08709688
98	0x3dd7ebfb	0.105430566
99	0xbd10ae60	-0.035322547
100	0xbd405847	-0.046959188
101	0xbded01e3	-0.115726255
102	0xbdd754cb	-0.1051422
103	0x3dccde92	0.100033894
104	0xbd83001b	-0.063965045
105	0xbda303d4	-0.079597145
106	0xbb2cee11	-0.0026387016
107	0xbd30b442	-0.043140657
108	0x3b79747a	0.003806381
109	0xbd56d97d	-0.052453507
110	0xbc431326	-0.011906421
111	0xbcf036c2	-0.029322986

linear_relu_stack.10.weight f4 [1, 112]
0	0xbdc91562	-0.098185316
1	0x3dde6d67	0.108607106
2	0xbd4b51ef	-0.049638685
3	0x3d954f2b	0.07290491
4	0xbd1f9264	-0.03895797
5	0x3c5e113b	0.013553913
6	0x3d71f49c	0.05907117
7	0x3d83704f	0.064179055
8	0xba0a8e7c	-0.0005285514
9	0x3de5332f	0.11191403
10	0x3de437dc	0.11143467
11	0x3e05c76a	0.13064352
12	0x3dc296f4	0.09501448
13	0x3dd33bfd	0.10314176
14	0xbd9de360	-0.07709384
15	0x3d8034fd	0.06260107
16	0x3d604d30	0.05476111
17	0x3de9c99e	0.114154086
18	0x3dac1a9d	0.084035136
19	0x3dc16050	0.09442198
20	0xbd0f84e5	-0.035038847
21	0x3cc7d412	0.024393115
22	0xbd4bae15	-0.049726564
23	0xbd735459	-0.059406612
24	0x3a9e7cdb	0.0012091653
25	0xbdd304d2	-0.10303654
26	0x3d994fad	0.074859
27	0xbd819b47	-0.06328445
28	0x3dda4f0b	0.106596075
29	0x3bb3a79e	0.005482628
30	0xbba9c6c3	-0.005181165
31	0x3dae37a6	0.08506708
32	0xbd57f4ab	-0.052723568
33	0xbdd2d3db	-0.102943145
34	0xbdc12f39	-0.09432835
35	0x3d35f982	0.044427402
36	0xbe073a43	-0.13205819
37	0xbd631176	-0.055436574
38	0xbdcbe54c	-0.09955844
39	0x3dfa9e61	0.1223724
40	0xbda21229	-0.0791362
41	0x3d1d296c	0.03836958
42	0xbcd95ed5	-0.026534477
43	0xbda25ac4	-0.079274684
44	0xbdf477da	-0.11936922
45	0xbda7b76f	-0.08189284
46	0xbdac6f35	-0.084196486
47	0x3de45866	0.11149673
48	0xbd65e062	-0.05612219
49	0xbd9142a6	-0.0709279
50	0xbe0049d2	-0.1252816
51	0xbd94efc2	-0.07272293
52	0x3d81cf50	0.0633837
53	0xbda6b081	-0.08139134
54	0x3d851b8f	0.06499397
55	0xbdcba49e	-0.099435076
56	0x3d1ca1fb	0.038240414
57	0x3dba4221	0.09094644
58	0xbd8dd906	-0.069261596
59	0x3dc4937c	0.09598443
60	0x3de08572	0.10962953
61	0xbe0c6a6b	-0.1371247
62	0xbdd117b8	-0.10209602
63	0xbdcadd70	-0.09905517
64	0x3d9e22b7	0.07721465
65	0x3dc10582	0.09424879
66	0x3dbbf4f9	0.09177584
67	0x3d99c88d	0.07508955
68	0xbd31ab9e	-0.043376558
69	0x3da23e55	0.07922045
70	0x3dc2c132	0.09509505
71	0xbd9845d7	-0.07435196
72	0xbda53dc3	-0.08068421
73	0x3d97be0f	0.07409298
74	0x3d9d6a4d	0.07686291
75	0xbd807cbc	-0.06273791
76	0x3da74f4e	0.08169423
77	0x3d95540c	0.07291421
78	0xbbbedaf9	-0.0058244434
79	0x3cfd4926	0.030918669
80	0x3dc9ef65	0.09860114
81	0xbd8d28c5	-0.06892542
82	0x3d821c8c	0.06353101
83	0xbd932147	-0.071840815
84	0x3d79f334	0.061022952
85	0xbc09b202	-0.008404257
86	0xbd5dec01	-0.05418015
87	0x3d894fea	0.067046955
88	0xbd051b83	-0.03249694
89	0x3d3d2106	0.04617407
90	0xbdcad93e	-0.09904717
91	0xbd00e3ef	-0.031467374
92	0x3df26b92	0.11836924
93	0xbdb69fb3	-0.08917179
94	0x3ceaffeb	0.028686484
95	0xbd8f0368	-0.069830716
96	0xbd843d72	-0.06457032
97	0x3d8c10c8	0.06839138
98	0xbd01ff18	-0.031737417
99	0x3d6b6ad9	0.057474945
100	0xbe0bc8ad	-0.1365077
101	0x3db4f2a9	0.08835346
102	0xbe02009c	-0.12695545
103	0xbdfe8491	-0.12427629
104	0xbdd72303	-0.10504725
105	0xbde4eab2	-0.11177577
106	0xbd522b37	-0.051310744
107	0x3db6d78c	0.08927831
108	0xbdc812e0	-0.09769225
109	0xbd72029b	-0.059084516
110	0xbd5ddaa1	-0.05416358
111	0x3dbb6230	0.09149587
