saved_models/model70.pth (torch, 13429 bytes, 9 tensors)

linear_relu_stack.0.weight f4 [4]
00000000: 19fd 823f 125f 893f 90be 733f ac0f 823f
1.0233489 1.0732138 0.9521265 1.0161033

linear_relu_stack.0.bias f4 [4]
00000000: 79d2 c33b b3f7 32bd 43f4 35bc 4d4a 913d
0.005976018 -0.043693256 -0.0111056 0.0709425

linear_relu_stack.0.running_mean f4 [4]
00000000: ec95 b940 032c 1b41 9e4b 1d43 6393 5640
5.799551 9.698245 157.29538 3.3527458

linear_relu_stack.0.running_var f4 [4]
00000000: 98aa 5742 cc98 bb40 e50d 9f46 00f0 b240
53.916595 5.862402 20358.947 5.591797

linear_relu_stack.1.weight f4 [32, 4]
00000000: 743f da3e 3448 b5be 0a4f 11be 9cb1 04bf
00000010: 590e 9c3e 621e cabe 04be 68be 8c19 ba3e
00000020: 7e2b 9bbe 1681 59be 291d 80be aa75 59be
00000030: 8057 edbc 0e7e d2be 6cf3 b6bd 7ea9 7cbe
00000040: 4498 393e 4649 77be 3873 c9bd 997a 573e
00000050: aecd dabd 9c6d c53e 042f 6e3e 4685 02bf
00000060: 2769 bc3d 3206 e2be af28 bdbe 3682 703e
00000070: 51ed ddbe e79f 283f 8218 933e 83fc fd3d
00000080: 836c de3d 3744 c43e 4dfa 4ebe 6d3f 883e
00000090: 9f9b a9be 3c4f dfbe 3195 ae3e 6d8a 98be
000000a0: 30ca 10bf c016 8fbe 6236 1d3e 34f1 bdbe
000000b0: b8e2 c7bd 0257 6cbe ae7b 0cbf 7809 653d
000000c0: 5262 09bf 5205 9d3e 700b a13c 9d33 cabe
000000d0: 0d6c eb3e 05b0 41bd efca a0be 27cd 263e
000000e0: f639 9cbe d928 a2be c451 923e 02af 15bf
000000f0: f6b4 093f cc25 74be 6a7c 613e bd00 bb3e
00000100: 7423 af3e 0047 e03e 7602 5c3e 25a0 dd3d
00000110: afaf 8fbe ff04 5a3e 75eb 033e 4aa3 8abe
00000120: a4f2 023f 1ef5 00be 164d 263e 9cdd 963d
00000130: 805c b13e 2fc9 03bf 4d9e 8dbe 61cd c13e
00000140: 7784 bc3e fd9a 1f3e 6255 c3be 0a9f 07bf
00000150: 7a45 d2be 168f 1f3f 91aa 30bd f5cb 203d
00000160: 0150 663e 2e1a 94be cbc2 e5bd 0898 debc
00000170: aab2 a4bc b24b 82bd 8716 c6be ea77 043d
00000180: 70d8 b1be 45b9 203e 04bb a53e 6fb6 303c
00000190: ed29 7fbb 0691 cf3d 8272 ebbe 717a c23d
000001a0: 7685 8cbe 02da 003f 925f 253e 1f7b d3be
000001b0: e3b7 fdbe 5e2a f4bd 101a 893e cd34 ebbe
000001c0: da9a 30bd 48cd 163f 177f 5f3e f94c a5be
000001d0: 8d32 9ebe 1eb5 aabd 6bfa 993e b83b 32be
000001e0: 90bb 0cbe 10a4 72be a18d 803e 3d4a 1f3f
000001f0: d047 9cbe ad47 10be 18ef 293e 187e c9bd
0.42626536 -0.3540665 -0.14190307 -0.5183351 0.30479696 -0.39476305 -0.22728735 0.36347616
-0.3030662 -0.21240649 -0.25022247 -0.21236292 -0.028972387 -0.41111797 -0.08933148 -0.24674031
0.18124491 -0.24149045 -0.09836429 0.21042861 -0.106837615 0.38560188 0.23260123 -0.5098461
0.09199744 -0.44145352 -0.36945102 0.23487172 -0.4334512 0.6586899 0.28729635 0.124016784
0.10860541 0.38333294 -0.2021267 0.2661089 -0.33126542 -0.4361514 0.340982 -0.2979311
-0.56558514 -0.27947044 0.15352777 -0.37098086 -0.0976004 -0.23080066 -0.5487622 0.055917233
-0.5366565 0.30668122 0.019658774 -0.39492503 0.45980874 -0.047287006 -0.31404826 0.16289197
-0.3051297 -0.3167179 0.28578007 -0.58470166 0.5379175 -0.23842543 0.22020116 0.36524
0.34206736 0.4380417 0.21485314 0.10821561 -0.28063723 0.21290968 0.12882788 -0.27077705
0.5115149 -0.12593505 0.16240343 0.073664874 0.34640884 -0.51478857 -0.27659836 0.37852004
0.36819813 0.15586467 -0.3815108 -0.5297705 -0.4106863 0.62327707 -0.043131415 0.03925701
0.22491457 -0.28926224 -0.112187944 -0.027172104 -0.020104725 -0.06362094 -0.38689062 0.03234092
-0.3473544 0.15695675 0.32369244 0.010785683 -0.0038934902 0.10135083 -0.459858 0.0949601
-0.27445573 0.50332654 0.16149738 -0.4130487 -0.49554357 -0.119221434 0.26777697 -0.4593872
-0.043116428 0.58906984 0.21825825 -0.32285288 -0.30897942 -0.083353266 0.30073866 -0.17405593
-0.13743424 -0.23695397 0.25108054 0.62222654 -0.3052354 -0.14089842 0.16595113 -0.098385036

linear_relu_stack.1.bias f4 [32]
00000000: 221c c1be b677 f8bd 8a07 f4bd 8d88 9b3e
00000010: 11da 793e 687e 31be 1976 1cbd 88fa 1ebe
00000020: 9171 05bf 890d 783d 5c8f 8abe 85f4 903d
00000030: 78e7 febd 2c13 5d3d 01c8 15be 1703 e4bd
00000040: df4d b5be c103 433e c270 673e b8df d43b
00000050: d2b1 0e3d 7afb a8bd 0597 293e a44c 223e
00000060: 1e58 3e3e ffea ad3d defe 8f3e d2f3 2fbe
00000070: 59f4 823e 351f 873e 988f 7fbe 3399 263d
-0.37716776 -0.12132208 -0.119155005 0.30377617 0.24399592 -0.17333376 -0.038198564 -0.15525258
-0.52126414 0.060559783 -0.270625 0.070778884 -0.12446493 0.05397336 -0.14627077 -0.11133402
-0.35410973 0.19044401 0.22601607 0.006496396 0.03483755 -0.0825109 0.16561516 0.15849549
0.18588302 0.084920876 0.28124136 -0.17182854 0.25577047 0.26390997 -0.2495712 0.040673446

linear_relu_stack.4.weight f4 [64, 32]
00000000: df9f e5bd e9a3 533a 20bf 01be bfa4 bfbc
00000010: 36a4 12be 1263 8b3d 6f13 1dbe 3ecf 76ba
00000020: 7871 fa3d 9bc1 dc3d f9e0 adbd 6dca 803d
00000030: c87f d33d 901a cabd 2e66 fa3d ac7c 56be
00000040: d93e 33be e5b4 e93d fa59 2fbe dae4 e7bd
00000050: 58fd 5a3d 632e 0d3d 5ea4 64be e5b4 4d3c
00000060: 67e0 0d3e 0c34 a8bb a217 ab3d 3237 bebd
00000070: d683 be3d cae7 153d 3c21 b3bd 5a5d 40bd
00000080: e6b0 bbbd 4e36 213e d9b1 8d3c 64dd f63d
00000090: 79d1 ee3d 28bc 6ebe 7734 fa3d f6c1 5ebe
000000a0: bf01 05be 81f3 7bbe 076f 62be 5267 313d
000000b0: 4267 89be e6de 2fbd 912e 51be 42f2 4cbd
000000c0: 0942 29be a4ab 15be 2a8e 91bc 4540 2abd
000000d0: 8e87 213e 862d a8bd 3008 0d3c d53f 1c3e
000000e0: 4906 dabd 6af8 103e 3c27 11be caaf 88be
000000f0: 2587 c1bd 76b2 213d 69a0 113e 0068 7dbe
00000100: f9b0 36be ddbc 1dbe a651 24be 9d1e fcbd
00000110: 0b22 aebc 1ca1 333e adb5 76bc af85 abbd
00000120: 989a 8f3d 8b14 0e3e ad59 9f3c c123 0fbe
00000130: 1d07 c73d c630 8bbd 9fe0 323e 6f24 4abe
00000140: 21bd 2a3d de89 683d 65a6 56be ae41 6fbc
00000150: 7d17 d23d 9917 8f3d 463a 5bbd 6c8c 17be
00000160: 49c0 bb3d ba17 01bc f97c 9a3b 78f5 9b3c
00000170: f567 363e f5e9 e53b c5ca 173d cb0d d63c
00000180: cfe1 3bbc 59cd 0dbe 5178 873d 8c3a 9a3c
00000190: a8dd 9fbc 0c59 a9bd 68dd a83d 0c27 36be
000001a0: a9cd 31be 82e0 72be 3b0d 19be 33c8 91bd
000001b0: 20e2 4bbe 8f57 1e3e e7dd 5bbe d72e 1abe
000001c0: 4bec 5bbe 5ede 22ba a32d cbbd 9989 e23d
000001d0: 8429 13bd f5d3 143d c835 453e 0efd c53c
000001e0: f806 66bc e41d 113e 37b6 bbbd 4219 96bd
000001f0: e580 a8bc cad8 4bbe e4c6 c83c d75b 22be
00000200: 6285 013e 886a 433d 6380 03be 1ae8 adbd
00000210: 479c cdbd e37a d4bd 37ea f03d 0d96 263d
00000220: 2a72 093e 7aa1 e5bd 76cb 8bbd 9a6a 693e
00000230: 3f35 f33a 7f80 dd3c 51da 8cbe da08 d7bd
00000240: 3c7d 3ebd 38ba 15bd 8d1b 3dbd 25e9 833d
00000250: 6ba2 103e 51ee bd3d f9cd c23b 5b36 bfbd
00000260: 1959 c6bd 81f3 bbbd 0a3f 36bc 596c a7be
00000270: 2ad5 84bd 39e0 82bd aa65 b53d f525 51bd
00000280: a388 a23d ddd7 583d a4c4 47be bed5 98bd
00000290: 6a04 2e3e ecb9 e6bd 96a2 c33c da50 e1bd
000002a0: aae4 4a3d 6961 d03c 095c 4cbe 441e 483e
000002b0: 51bb 05bc a692 c0bd 9c87 30be 0b0d 9d3c
000002c0: f888 38be 09b7 06bd 158f af3d f602 0fbe
000002d0: 3717 d23d 586a cbbd 38bf 8dbd f9e5 f73d
000002e0: 49d9 46bd a2ca 393d bcf5 83bd 01f5 93bd
000002f0: 7ed2 08bd 155e 073d e725 e5bd 3de2 0dbe
00000300: a810 5fbe d9f9 47bd 0416 c2bd b43f c3bd
00000310: 2d6b 7a3e e341 f3bd d8ab 6ebd 1639 e8bd
00000320: 3d2a ccbd 7a8d b03d bef1 1cbe 625b 0b3e
00000330: 0475 b43c 3241 54bd 392a 0c3d f25e ca3d
00000340: ceb2 083e 2b8c eabd 9030 d53c faa8 8abd
00000350: c183 31be 47bd be3d 4938 b4bd eb33 25be
00000360: 04a6 c5bb 8c64 b1bd 22bc 2d3b 909c 75bc
00000370: 0b5a 31bd 8572 22bd a71e f83d 0998 d1bd
00000380: 9cfd ffbb 6ed0 51be db8e 5e3e 1626 01be
00000390: f173 a7bd f73c 1b3e 8d05 bbbc e0ee b4bc
000003a0: 3b1a d83d e97e 1e3e a413 9c3d d87a 16bd
000003b0: 6223 9abc 6e64 97be 17f3 97bc 9c70 6bbd
000003c0: 2ff6 c83c 237c 54bc 6f90 27bd 219b c4bd
000003d0: a08e 3c3d c174 893b 1548 f1bd 7180 84bd
000003e0: e15a 323e 6bf4 7cbd 5cc5 b83d fa0d c4bd
000003f0: ed47 843c b5aa 383d 36df 1d3c 9767 273e
-0.112121336 0.0008073436 -0.12670565 -0.023393987 -0.14320454 0.068060055 -0.15339445 -0.0009415037
0.12228674 0.10779115 -0.08490176 0.0628861 0.10327107 -0.09868348 0.122265205 -0.20945996
-0.17504443 0.11411456 -0.17124167 -0.11322947 0.053464264 0.034468066 -0.22328326 0.012555336
0.13855134 -0.0051331576 0.08354117 -0.092878714 0.093024895 0.036598004 -0.08746573 -0.046964027
-0.091646 0.15743372 0.017296718 0.12053946 0.116610475 -0.23313963 0.12217038 -0.21753678
-0.12988947 -0.24604608 -0.22112666 0.043311425 -0.26836592 -0.042937182 -0.2042792 -0.050035723
-0.16529097 -0.14616257 -0.017767984 -0.0415652 0.15774366 -0.08211808 0.008607909 0.15258725
-0.1064573 0.14157262 -0.14175123 -0.26696616 -0.09449605 0.039476834 0.14221348 -0.24746704
-0.17840947 -0.15404077 -0.16046771 -0.123105265 -0.021256467 0.17541927 -0.015057963 -0.083751075
0.07011908 0.13875024 0.01945194 -0.13978483 0.097181536 -0.06796412 0.17468499 -0.19740461
0.041684274 0.056772105 -0.20961912 -0.014603062 0.10258386 0.06986923 -0.05352237 -0.1479966
0.09167535 -0.007879192 0.004714605 0.019037947 0.17813094 0.0070164152 0.03705861 0.026129624
-0.011467411 -0.13847865 0.066147454 0.018826745 -0.019514874 -0.082689375 0.08245355 -0.17788333
-0.1736361 -0.23718455 -0.14946453 -0.07118263 -0.19910479 0.15463088 -0.21471368 -0.1505693
-0.21476857 -0.0006212945 -0.09920814 0.11061401 -0.035928264 0.03633495 0.19258797 0.024168517
-0.014039747 0.14171559 -0.09165614 -0.07329036 -0.020569274 -0.19906917 0.024508901 -0.15855347
0.12648538 0.047709018 -0.12841944 -0.084915355 -0.10039573 -0.10375001 0.11763423 0.040670443
0.13422456 -0.1121244 -0.068259165 0.22794572 0.0018555297 0.02703881 -0.27510312 -0.10499735
-0.04650615 -0.036554545 -0.046168853 0.06440953 0.14124458 0.09273971 0.005944964 -0.09336539
-0.09684963 -0.09177304 -0.011123428 -0.3269985 -0.0648597 -0.06390423 0.088572815 -0.05106159
0.07936218 0.05294024 -0.19508606 -0.07462643 0.16993871 -0.112659305 0.023881238 -0.11001749
0.049534477 0.025437074 -0.19956984 0.19542795 -0.0081623355 -0.09402971 -0.17239231 0.019171258
-0.18021 -0.0328894 0.085722126 -0.13965973 0.10258334 -0.09932393 -0.06921238 0.12104411
-0.048547063 0.04535926 -0.064433545 -0.07224465 -0.033403866 0.033048708 -0.1118887 -0.13855834
-0.21783698 -0.048822258 -0.094768554 -0.09533635 0.24454947 -0.11877801 -0.05826935 -0.11339013
-0.09968994 0.086207345 -0.15326592 0.13609079 0.022028454 -0.051819988 0.034219954 0.09881391
0.13349459 -0.11452516 0.026024133 -0.06770511 -0.17335416 0.093134455 -0.08799798 -0.16133086
-0.0060317535 -0.08661756 0.002650984 -0.014990941 -0.043298762 -0.039659996 0.121152215 -0.102340765
-0.007812215 -0.20489666 0.21734183 -0.12612185 -0.08176411 0.15159975 -0.022829795 -0.02208656
0.10551878 0.154781 0.07620934 -0.036738247 -0.0188157 -0.2956881 -0.018548531 -0.05748044
0.024531452 -0.01296905 -0.040909227 -0.09599901 0.046034455 0.0041948264 -0.11781327 -0.06469811
0.1741748 -0.061756533 0.09022018 -0.09572978 0.016147578 0.045084674 0.009635737 0.1634811

linear_relu_stack.4.bias f4 [64]
00000000: 5312 d53d 8307 d63d ab56 5e3e 61a5 da3d
00000010: 814c 983d 2b97 28bd 64a0 e4bd 94d6 773e
00000020: 86ef 24be a7dc 4f3c aadf 663e a888 fa3d
00000030: ff81 0ebe 5dcf 083e 1258 563e 3508 393e
00000040: 3cf3 833e 2288 833e ffd5 6b3d 8e46 f7ba
00000050: deab b6bd 7457 06be ac68 693e d468 413c
00000060: 99bf b53d 068d f23d 8a00 113e dca7 213e
00000070: e12f 0c3e a76d d73c c865 6a3e 23a6 6e3e
00000080: e87e 45be 693c 453e cd4d c7bd 6177 dbba
00000090: 5228 ae3d 8575 c53d dfa8 f13d 57a5 35bc
000000a0: 6b4a 143c a8f1 393e cfd1 6bbb fe93 8c3e
000000b0: 310d 7d3d 2736 803d 1f50 ee3d 0d1f a43c
000000c0: 8fdb ff3d 43c3 1cbe 6df1 fa3d 0216 cb3d
000000d0: 2a9f 133e b1e0 303e 9317 9e3d f964 513d
000000e0: 8e11 8a3e 2127 debd 1d40 32bd 0af7 eebc
000000f0: 2c7a 76bd 65eb d1bb fc20 643d 5898 dabc
0.10403886 0.104506515 0.21712749 0.10676075 0.07436467 -0.04115979 -0.111634046 0.24202949
-0.16106996 0.012686885 0.22546259 0.12233096 -0.13916777 0.13360353 0.20932034 0.18069537
0.2577151 0.256898 0.05757713 -0.0018865631 -0.089195 -0.13119298 0.22793835 0.011804778
0.08874435 0.11843304 0.14160362 0.1578669 0.1369014 0.026297403 0.22890389 0.23305564
-0.19286692 0.19261326 -0.09731636 -0.0016743952 0.08503784 0.09641556 0.11799788 -0.011086783
0.009050946 0.18158591 -0.003598321 0.2745666 0.06178016 0.06260329 0.11636376 0.020034337
0.12493049 -0.15308861 0.122530796 0.09916307 0.14416185 0.17273213 0.0771934 0.051121686
0.26966518 -0.10847307 -0.043518174 -0.029170532 -0.060175106 -0.006406235 0.05569552 -0.026683971

linear_relu_stack.7.weight f4 [1, 64]
00000000: 40da c7bd 27de 7c3d 2192 8abd 6a8e a93d
00000010: 32b2 803d e0af a53d b629 b93d f131 6dbd
00000020: 3f86 a8bd f1ca b93d ef5f a5bd e1bd 83bd
00000030: 6d9f f7bd ce2c abbd 5373 b3bd 143f d8bd
00000040: 48a1 b4bd a255 543d 5886 16be cb43 82bd
00000050: 2621 b4bd 5ca2 dc3c 7e5e 653d dee8 543d
00000060: d27f 35be db8a 163d a94f ba3d ad80 55bd
00000070: 3c0e bb3d ce7b 72bd 1dbe 33be 5f3b edbd
00000080: 5c4c d3bd f161 c03d 08a3 b9bd 47f0 84bd
00000090: 45ac 9f3c 7385 7d3d b944 843d 5a76 e1bd
000000a0: 0a87 cfbd 4e41 3c3d 1483 2f3d cf39 60be
000000b0: 1a68 7abd 106e bcbd 0706 313d 1994 abbd
000000c0: 4d8b eb3d 774d 253d 76ac 83bd d739 d93d
000000d0: 1343 e83d b2c4 d13d 5d59 f0bd c347 8bbd
000000e0: 87e1 33be 96c0 a2bd 1820 783d 4c74 c2bd
000000f0: c0be 2c3d 43f0 903d 2808 01be db2b 4ebd
-0.09758425 0.0617353 -0.06766153 0.082791165 0.06283988 0.08090186 0.09041159 -0.057908956
-0.082287304 0.09071911 -0.080749385 -0.06432701 -0.12090955 -0.08358155 -0.08762231 -0.10558906
-0.088198245 0.05183948 -0.14699686 -0.06360587 -0.08795385 0.026932888 0.055998318 0.051979892
-0.17724541 0.036753517 0.09097225 -0.052124668 0.09133574 -0.0592001 -0.17552991 -0.1158359
-0.10317299 0.09393681 -0.09064299 -0.06491142 0.019491324 0.061894845 0.0645842 -0.11008902
-0.101331785 0.045960717 0.042849615 -0.21897052 -0.061134435 -0.0920068 0.04321864 -0.08377857
0.11501179 0.04035708 -0.06429379 0.10606735 0.113409184 0.10242595 -0.11735795 -0.06800797
-0.175665 -0.07946889 0.060577482 -0.09494838 0.0421741 0.07077076 -0.12600768 -0.050334793
