saved_models/model1.pth (torch, 12838 bytes, 9 tensors)

0.weight f4 [3]
00000000: 33dc 693f c72a 653f af79 523f
0.9135162 0.895184 0.82216924

0.bias f4 [3]
00000000: f9e6 933d 6e1a 9e3c 6e8e 38bc
0.07221789 0.019299712 -0.011264427

0.running_mean f4 [3]
00000000: 900f bd40 cade 1941 f3d2 2143
5.9081497 9.616892 161.82402

0.running_var f4 [3]
00000000: bf41 8142 0404 cc40 a64b c046
64.62841 6.37549 24613.824

1.weight f4 [32, 3]
00000000: 3c92 953d fad4 143f ac0f bc3d c3a3 123b
00000010: 9886 a7be 5a8e babe d8e3 4e3e 5cc7 bbbe
00000020: e8c3 b4bd b9cd 4e3c a429 2e3e 3aad 773e
00000030: 67fd 1ebf 6b78 18bf 4f9d a73e 06fd 16bf
00000040: d812 c6bc 58dc a23e 2b79 35bf 1d21 60be
00000050: 3de1 9c3e a823 643d dca3 2fbd eb42 e5be
00000060: 782e 723d cbc7 83be d2c3 6fbe 2565 c43d
00000070: 2f60 1f3f b6f5 a13e c63c 00bf 4a3c f53d
00000080: ce9a ef3c 957b a0be 937f a03b 0162 a03d
00000090: 761a 563e 9c72 f3be 8403 6c3e 2595 f2ba
000000a0: face 56be 84bd f4be c4ad a2be 6e8c 8d3e
000000b0: 40c0 403e abd0 c73e 6dc9 fabe 288f 19bf
000000c0: ac4d aa3e bcae e8bd 9d48 f43d 33d5 963e
000000d0: da2a afbe 0985 32bf 22ae 9dbe 5e24 bdbe
000000e0: 5613 cebe a460 1ebf 1b25 03bf 96f7 4cbe
000000f0: 5d35 cebd aea1 d13e 905f 9c3d f934 fabd
00000100: 8175 473e f106 963d 88f7 a2bd 47f6 43be
00000110: d5ee 86bc 4694 ecbe 3296 783d 9a4a 03be
00000120: 51f9 d13e 05ad 5d3e 1e07 d83e cea2 f23e
00000130: fb8f e6bd 9583 6ebe 8c4d 7c3e 39b4 c33d
00000140: 0e07 b03e 2266 eabe 6f5d 7e3e d071 d5bc
00000150: 0625 ec3e 5efc 83be 15b9 07bd 9416 123e
00000160: 8ab9 efbe 5473 e5be 23a1 863e b27b b83d
00000170: 5b8d 46bf 4190 be3c ff2c 4c3e d686 20bc
0.073032826 0.58137476 0.09182677 0.0022375442 -0.32719874 -0.3643673 0.20204103 -0.36675537
-0.08826429 0.01262229 0.17008072 0.24187174 -0.6210541 -0.59558743 0.32737204 -0.58979833
-0.024178907 0.31808734 -0.7088801 -0.21887632 0.30640593 0.055698067 -0.042880878 -0.44777617
0.059126347 -0.25738367 -0.23414543 0.09589604 0.6225614 0.31632775 -0.5009273 0.1197439
0.029248621 -0.31344286 0.0048980205 0.07831193 0.20908532 -0.47548378 0.23048216 -0.0018507583
-0.20977393 -0.4780084 -0.31773198 0.27646202 0.18823338 0.3902639 -0.489818 -0.59984064
0.33262384 -0.11361453 0.119279124 0.29459533 -0.3421238 -0.69734246 -0.30796915 -0.36941808
-0.40249127 -0.6186621 -0.51228493 -0.20016322 -0.10068772 0.40943664 0.076354146 -0.12217135
0.19478418 0.07325543 -0.07957369 -0.19136916 -0.016471306 -0.46206874 0.060690112 -0.12821427
0.41010526 0.21648033 0.4219293 0.47389835 -0.11257931 -0.23292382 0.24638957 0.09555859
0.34380382 -0.45781046 0.2484033 -0.026055247 0.46121997 -0.25778478 -0.033135492 0.14266425
-0.46821243 -0.4481455 0.26294813 0.09007968 -0.7755944 0.023262145 0.1993904 -0.009797772

1.bias f4 [32]
00000000: 8eba ccbd 8f51 5b3e c6b6 8f3c fcd3 ddbe
00000010: abe8 cbbd d4d7 9d3d b724 b83d 5855 213d
00000020: 5c8e 313e 61ea 873b 5be6 873e 7b7d 433e
00000030: d8fe 4c3e d6bf 0a3e 931c 83bd 15fa a2be
00000040: c209 263e 8816 943e 41e8 91bd 77c9 4ebe
00000050: 885f b23c d630 3c3d f8ef 9c3d c70e 06bf
00000060: 9568 23bf 5f98 693e 82c1 6bbe f358 063e
00000070: 431d 503d 2dee 9d3e 23d7 0cbe 8166 26bf
-0.0999652 0.21417831 0.017543208 -0.43325794 -0.09956487 0.077071816 0.08991378 0.03938803
0.17339462 0.004147813 0.26542935 0.19090836 0.2001909 0.13549742 -0.064019345 -0.31831422
0.1621466 0.2892344 -0.07124377 -0.2019404 0.021774068 0.04594501 0.07662958 -0.523663
-0.63831455 0.22812031 -0.23023036 0.13119869 0.050809156 0.30845776 -0.13753943 -0.6500016

4.weight f4 [64, 32]
00000000: 7a32 6bbe 4670 70bb 8374 6a3d 17f6 11be
00000010: 958f 02be 9a22 74be 1b34 84be 11d0 f23e
00000020: 8b40 063e 2e01 6cbe dbc8 f6bd 164c 5ebd
00000030: deab 163e 89bb 92bc ca97 8abe a792 7b3d
00000040: d64b ebbd e243 693d 97f8 50bd b93e 1cbe
00000050: 65e9 88be 5d70 17be c1fd 18bd d67f 073e
00000060: da45 92be 8106 5b3e ca38 5fbd 39cf 11be
00000070: 944a 913e dc6d 043e 6e71 2d3b 4a67 b63d
00000080: 401e 873a 1bfd cabd e63c ca3c 390e 2b3e
00000090: 3bb5 e5bd a598 26bd 54c7 82bd c30e 72be
000000a0: a660 43be b5f8 7dbd 11e2 75be 80f8 1dbe
000000b0: d817 cdbd 0134 ad3c e8d4 a03d a559 16be
000000c0: 2047 d2bd fedd 92bd 9cd0 923d f09e 10be
000000d0: c86c cbbd 6df4 33be 252c 963d 1fcc bf3d
000000e0: 7f52 dcbb 3d72 5bbe 6e96 0cbd 7e27 473d
000000f0: ac9e 30bd 3730 6cbc aad1 38bd 5201 b3bd
00000100: 17f0 ab3d a908 26bd 2081 4bbc 33b1 60bd
00000110: 4036 18be c369 72bc 701b 84bd 768b 97be
00000120: 37c6 aebe 7681 56be 5026 e7bd 0421 833e
00000130: f2d8 00be e091 36bd 0236 e33d 5f9a a73c
00000140: 0d70 87bb 04be f6bd 0c77 d83d 6abe 943d
00000150: 5d00 d83d 6f7a c03c aaf8 f5bc d23f b13b
00000160: ab91 2c3d 43d1 d9bd 09f3 67be 7b19 56be
00000170: 0fb4 0fbc 836d 15be 08f9 aebe c983 4dbc
00000180: 53a3 8d3d 8663 56be 9d0b a2be 866a a2bd
00000190: e58b 4bbd 61f6 32bd 173d 833d a5ee edbd
000001a0: 28fb a6be 608c 2b3e ba01 90bd 247a 653b
000001b0: 2704 a13d db75 c8be a939 353e 17c3 dabe
000001c0: 4fcd d03c ba72 08be 8dc1 83be 3995 60be
000001d0: 7299 a7bd 0372 b63d c673 d9bd 5d92 73be
000001e0: 59ac 00be 37eb 3e3d 8b0a 09be 54a1 fd3a
000001f0: 1735 18be abd7 b4bd d1e4 273e 5217 3dbc
00000200: 6016 24be 3d1f 1fbe e25e 45bd 7fb3 75be
00000210: 33e7 b23d 77c7 153e f9df ed3d 9193 9abc
00000220: f86b e0bb 5d85 95be f6d9 983d 5153 303e
00000230: a701 0a3d 512f 6fbd abf4 57bd f735 05bb
00000240: f7e1 cbbd 1a5d 403d 9716 2a3e f403 6fbe
00000250: c863 843e 5453 383e 8ef4 9fbd fba6 e73c
00000260: 7d6f 4dbe dc71 41bd 708f 01bc 88db 94bd
00000270: 7ef7 1d3d 963a 9e3c 2e1b fdbd 5041 f3bd
00000280: 7fcf 8e3e 9daa 8bbd 3155 4fbe 7084 7fbe
00000290: f4c2 8d3d f417 0f3e 052b 00be 25da 1cbd
000002a0: f0a2 2bbe ae82 3b3e f3c5 053d 94b2 68be
000002b0: 0f87 103c aa3b b3bd 3ea3 38bc 90f0 22be
000002c0: 2c17 133e 134c 05be b817 90be b6a1 a1bd
000002d0: 190b 2c3d ffeb 98bd 853b 463c 88f3 9e3d
000002e0: 1939 2f3e e0cb b93d b274 f6bd 80f4 d63d
000002f0: 958e 363d 0a46 c8bd ed35 4e3e 7541 afbd
00000300: c03a d63b 47a8 8e3d 6c8e 68bd c7b2 6dbe
00000310: f7e4 3dbd 8d98 443e 779a 703d 518d 08be
00000320: 26bf 01bd 619a 623e 6296 283d 6ac1 48bd
00000330: fbe3 8b3d dbbf 46be 3ffa 333e 70e2 c4bd
00000340: 1498 c13d 9471 febd 5c54 373e 2bc3 24bd
00000350: 74c4 433d a9e9 043e 607c 923d 72d3 e9bd
00000360: 011a 1c3d 6db0 0d3e 80c8 8f3d 6f61 993d
00000370: 517f 99bc 4b9e 26be 16ec 79bd 3555 3b3d
00000380: 02eb f73d 9857 21be 62e0 47bd 41b7 06be
00000390: 1311 933d 4fc3 b73c 7650 cb3d 2b67 fcbd
000003a0: a704 74be 8acc 91bc 8a19 cf3d 54e9 d1bd
000003b0: c1ec 803d 9813 35be cd06 523e 13bd 063e
000003c0: 4b37 acbd d7f8 aabd 5173 66bd 3692 aebd
000003d0: 57b2 b7bd dcf6 373e 91dd 8fbd 17b7 693d
000003e0: 2135 1dbe b77f 9dbd 9395 42be 23b9 e53c
000003f0: 5eec bbbd 7342 e4bd 3335 9bbd f816 443e
-0.22968474 -0.0036688014 0.05724002 -0.14254032 -0.12750085 -0.23841324 -0.25821003 0.47424367
0.13110559 -0.23047325 -0.12050029 -0.05427178 0.14714 -0.01791169 -0.2706893 0.061419155
-0.11489074 0.056949504 -0.051018324 -0.15258302 -0.26740566 -0.14788957 -0.037351374 0.1323236
-0.28568918 0.213892 -0.054497518 -0.14239205 0.2837721 0.12932533 0.0026465314 0.089064196
0.0010308698 -0.09911557 0.024687242 0.16704644 -0.112162076 -0.040672917 -0.06385675 -0.23638444
-0.19079837 -0.062004764 -0.24012019 -0.15426826 -0.100143135 0.021142961 0.07853109 -0.14682634
-0.10267472 -0.07171248 0.07168695 -0.1412313 -0.09932858 -0.1757371 0.07332639 0.09365105
-0.0067237015 -0.21430297 -0.03432315 0.048621647 -0.04312007 -0.014415792 -0.045121826 -0.08740486
0.08395403 -0.040535603 -0.0124209225 -0.05485649 -0.14864445 -0.014795723 -0.06450546 -0.29598588
-0.341356 -0.20947823 -0.112866044 0.25611126 -0.12582758 -0.04457271 0.110942855 0.020459352
-0.0041332305 -0.12047961 0.105695814 0.07262881 0.10546944 0.02349588 -0.030025799 0.0054092193
0.042131107 -0.10635617 -0.22651304 -0.20908158 -0.008770957 -0.14592557 -0.3417437 -0.012543627
0.06915917 -0.20936403 -0.31649485 -0.07930474 -0.04969396 -0.043691996 0.06408136 -0.116177835
-0.32613492 0.16752768 -0.07031579 0.0035015428 0.0786212 -0.39152417 0.17697777 -0.42726967
0.025488524 -0.13325015 -0.25733605 -0.21931924 -0.08183564 0.08908465 -0.10617785 -0.23786302
-0.12565745 0.046611037 -0.13382928 0.0019350448 -0.14864002 -0.08830198 0.1639588 -0.0115412045
-0.1602416 -0.1553926 -0.04818619 -0.23994254 0.08735504 0.14626871 0.11614985 -0.018869193
-0.0068488084 -0.2920331 0.07463448 0.17219283 0.033692982 -0.058394734 -0.052723568 -0.0020326355
-0.09955209 0.04696379 0.1661018 -0.23341352 0.25857377 0.18000537 -0.07810317 0.028277865
-0.2006206 -0.047227725 -0.007907733 -0.07268435 0.038566105 0.019315045 -0.123587 -0.11877692
0.27892682 -0.06819651 -0.20247342 -0.24952865 0.0692195 0.13973981 -0.1251641 -0.038293976
-0.16761374 0.18311569 0.032659482 -0.22724372 0.008821263 -0.087516144 -0.011269389 -0.1591208
0.14364308 -0.13017301 -0.28143096 -0.07892172 0.04200277 -0.07466888 0.0120991515 0.07761294
0.17111625 0.09072089 -0.120339766 0.104958534 0.04456957 -0.09778984 0.20137759 -0.08557407
0.0065377653 0.0696569 -0.05677645 -0.2321273 -0.046360936 0.19198819 0.05874106 -0.13335158
-0.031676434 0.22129203 0.04115904 -0.04901258 0.06830593 -0.19409125 0.1757593 -0.09613502
0.09452835 -0.12424007 0.17903274 -0.04022519 0.047794774 0.1297976 0.07152629 -0.11417283
0.038110737 0.13836832 0.07020664 0.07489287 -0.018737467 -0.16271321 -0.061016165 0.045735557
0.12105371 -0.1575607 -0.048797973 -0.13155843 0.07180991 0.022431998 0.09927456 -0.12324365
-0.238299 -0.017797727 0.10112293 -0.10249582 0.06295157 -0.17683256 0.20510407 0.13158064
-0.08408984 -0.08348244 -0.056262318 -0.08523981 -0.089695625 0.17965263 -0.07024682 0.057059374
-0.15352298 -0.07690375 -0.1900237 0.028042382 -0.09175943 -0.11145487 -0.07578506 0.19149387

4.bias f4 [64]
00000000: 7409 583e 71ef 71be d4be ffbc 8e87 7f3e
00000010: c678 1cbe 40b1 913d 0782 50bd 0bd5 4e3e
00000020: 77ff abbe f646 963e c33b 9c3c 5120 63be
00000030: 3bec 483d 25fa 0fbe 2ee3 963e 2f49 a23c
00000040: 58c8 583d a6cd a23e a482 a1bd 5b79 d53d
00000050: 2418 c13d bd64 86bc 2e7a 603d deda 663d
00000060: 84a3 a53e 7baa 31be 4597 fe3d 368a d73b
00000070: e354 ea3c 7850 38be c1ee 833e 1d40 993d
00000080: 7e92 6e3e 92f9 37bb 7b37 5fbe 80e6 30be
00000090: b5ab 7ebe 3018 2d3e d345 a03e 1a51 66bd
000000a0: 1cd5 8a3e f920 85be ea84 813d 3703 3dbe
000000b0: dfe9 0d3e 803d 293e 00b4 b13d 633d 2c3e
000000c0: 75d2 d6bc 6d16 86be bb7a 40be c9d7 323c
000000d0: 0666 a1bc 58cf 84ba 1bfe 3ebe 20c3 8e3d
000000e0: 49b6 b63d 2275 25be 764f 983e debf 15bd
000000f0: eee4 0f3e c237 e93d a4cd 5c3e aa24 753e
0.21097356 -0.23626496 -0.031218924 0.24954054 -0.15280446 0.07113886 -0.050905254 0.20198457
-0.33593342 0.29351014 0.019071465 -0.22180296 0.049053412 -0.14060266 0.294702 0.019810287
0.052925438 0.31797522 -0.07886246 0.10423537 0.094284326 -0.016405458 0.05480402 0.05636107
0.32351315 -0.1735019 0.12431196 0.0065777553 0.02860493 -0.17999446 0.25768092 0.07482932
0.2329807 -0.002807234 -0.21798508 -0.17275429 -0.24870189 0.16903758 0.31303272 -0.05622969
0.27115715 -0.2600172 0.063241795 -0.18458258 0.13858746 0.16527367 0.086769104 0.16820292
-0.0262234 -0.26188985 -0.18796818 0.010915705 -0.019701969 -0.0010132594 -0.18651621 0.06970811
0.08921487 -0.16157964 0.29748124 -0.036559932 0.14052173 0.11387588 0.2156282 0.23939767

7.weight f4 [1, 64]
00000000: 5802 123e f0fe 94ba f924 58bd 0c02 a0bd
00000010: 71b1 33bd e582 d23b 8cf2 82bd 0dcc 86bd
00000020: d81c e23c e94f da3d 090d d6bd 47ab dfbb
00000030: d634 173d b6e5 afbc 908f e03d fe19 88bd
00000040: a633 c13d befc adbd 7503 1bbd 5350 183e
00000050: 479e bb3c 01e3 b9bd f6e6 66bb d9a2 56bd
00000060: 3507 e2bd bcbe 163d aa8c a2bd a368 973d
00000070: 738d c2bd 3b1a babd 36e2 fabd 68ac b4bd
00000080: 69ee 1b3e 4465 ec3d 826e 203d ed79 343d
00000090: 4a52 19bd 3b1e e0bd f981 5fbd 991a a63c
000000a0: c844 3dbd 4239 79bc ab39 31bd 70f8 6ebd
000000b0: 92ca dc3c 05b2 e4bd 4106 a9bd e95a b63d
000000c0: 9317 82bc 58f3 733d 03ec 0a3d 9f67 05bd
000000d0: d7cd 3c3d 022d 923d 7283 8cbd 990b c93c
000000e0: 64e4 c4bc bd49 033d b5ed 3dbe 3334 50bd
000000f0: d812 5a3d 7f29 67bd fe07 a73c de55 88bd
0.14258707 -0.0011367481 -0.052769635 -0.078128904 -0.043870393 0.0064242953 -0.063939184 -0.06581888
0.027601644 0.10659773 -0.10451705 -0.006825838 0.036915623 -0.02147184 0.109648824 -0.066455826
0.09433679 -0.08495472 -0.037845094 0.14874391 0.022902621 -0.09076501 -0.0035232878 -0.052401397
-0.11036531 0.036802992 -0.07936986 0.07393005 -0.094996355 -0.09087034 -0.122501776 -0.088219464
0.15227665 0.115427524 0.03916789 0.04406159 -0.037431993 -0.10943266 -0.05456731 0.020276355
-0.046208173 -0.015211405 -0.043267887 -0.058342397 0.026952062 -0.11166767 -0.08253146 0.089040585
-0.015880382 0.059558243 0.033916485 -0.032569524 0.04609474 0.07137491 -0.06861009 0.024541663
-0.024034686 0.032052744 -0.1854771 -0.05083103 0.053240627 -0.056436058 0.020389553 -0.06657003
